src/pretrained/model_S_real_noise_free.pt (torch_old, 36831 bytes, 36 tensors)

u1.E.weight f4 [8, 1, 3, 3]
-0.30918357 -0.1413554 -0.06031581 -0.20006691 0.12250259 -0.04882208 -0.010201127 0.008985585
0.014510745 -0.08465139 -0.26417968 0.059568495 -0.007918355 -0.14463103 -0.23916037 0.0015969574
-0.23645827 -0.038877785 0.13974804 0.023626855 0.18553995 0.23452027 -0.014574241 -0.114375964
-0.24053009 0.051795803 -0.04473371 0.26215252 -0.026378743 0.063013226 0.12215059 0.08767289
-0.03843063 0.17105661 -0.11884998 -0.16283284 0.21573238 -0.0148934405 0.007520663 -0.034064222
-0.063003995 -0.12761818 0.12411975 0.13012116 -0.1857772 0.26171115 -0.115938626 -0.037208185
0.12252537 -0.076461725 -0.0887317 -0.023228968 -0.089799725 0.05374284 -0.21495377 0.0839187
-0.15926528 0.22913766 0.24459495 -0.016487867 0.20820774 0.20164576 0.22686368 -0.15521577
0.12827368 -0.05589199 -0.14615396 0.08356163 0.09409221 0.17355336 -0.07093584 0.11228436
00000000: 4f4d 9ebe 78bf 10be b60d 77bd 57de 4cbe
00000010: a3e2 fa3d a9f9 47bd a122 27bc 4638 133c
00000020: 7abe 6d3c b55d adbd 8f42 87be 18fe 733d
00000030: fdbb 01bc 281a 14be 75e6 74be 0051 d13a
00000040: 1e22 72be 503e 1fbd 1c1a 0f3e 1b8d c13c
00000050: 2ffe 3d3e 1526 703e ccc8 6ebc f23d eabd
00000060: 854d 76be d627 543d b23a 37bd db38 863e
00000070: 3c18 d8bc 140d 813d 172a fa3d d88d b33d
00000080: 7069 1dbd 7729 2f3e 9e67 f3bd a7bd 26be
00000090: f3e8 5c3e 9e03 74bc e56f f63b ed86 0bbd
000000a0: 3d08 81bd 57ae 02be 7f32 fe3d 7b3e 053e
000000b0: 613c 3ebe 01ff 853e 3b71 edbd 9c67 18bd
000000c0: 95ee fa3d f797 9cbd f7b8 b5bd ad4a bebc
000000d0: ebe8 b7bd 7421 5c3d d71c 5cbe 91dd ab3d
000000e0: 7016 23be 10a3 6a3e 1977 7a3e 9011 87bc
000000f0: 6934 553e 3a7c 4e3e f44e 683e e2f0 1ebe
00000100: 2d5a 033e 00ef 64bd 62a9 15be 5c22 ab3d
00000110: 6bb3 c03d f9b7 313e cf46 91bd 58f5 e53d

u1.E.bias f4 [8]
0.018798565 -0.0020779 0.011211973 -0.00080278754 0.022918286 0.006512472 -0.0052718907 0.005809016
00000000: 73ff 993c 612d 08bb 6cb2 373c 2972 52ba
00000010: 21bf bb3c 9366 d53b d3bf acbb 8f59 be3b

u1.conv1.weight f4 [8, 8, 3, 3]
-0.030635918 0.052784503 0.041178122 -0.0014510826 -0.12743853 -0.13771275 0.026680665 -0.15856443
-0.013228394 -0.10681594 0.09868309 -0.03488542 -0.08624635 0.044334233 -0.18212043 0.1718315
-0.18279988 -0.15957871 -0.06886146 -0.16358794 0.07054327 0.04287511 0.09499933 0.0131748365
0.15501483 -0.019329134 -0.026503386 -0.14638092 0.18458508 -0.009380726 -0.029280325 -0.0066733253
0.0836481 0.1926936 -0.17940216 -0.06998758 0.25925073 -0.06929737 0.14855693 0.091288954
-0.04787105 -0.17068146 0.11597708 0.15519409 0.19138315 0.15700723 0.08342023 0.039132267
-0.15693714 0.05043324 0.13311079 -0.2623723 -0.10460631 -0.107107066 -0.07674163 0.096673176
-0.06059237 0.21694808 0.059758153 -0.010421539 -0.07679313 -0.077623345 -0.026063822 0.18405192
-0.027150583 0.22438003 -0.1758164 -0.21769544 0.17862158 0.1764421 -0.07223665 -0.036494587
0.19616291 -0.1317426 0.021692634 0.06090656 -0.01117222 -0.013563007 0.013800308 -0.0508852
0.12401423 -0.011635914 0.18747333 0.17989129 0.034870148 0.09846091 0.021668836 0.019977972
0.14287683 -0.116445825 0.16794328 0.0078109885 -0.20249668 0.09110638 0.10292206 -0.06350056
-0.10484993 -0.22637454 0.14204146 -0.116632566 -0.14184256 -0.09189392 -0.08193929 -0.042744946
-0.18742804 -0.11289089 -0.05939497 -0.17730983 0.028311336 -0.027505567 0.018762978 -0.08526884
-0.11179953 0.094917335 0.13146016 0.09283593 -0.07828711 -0.067827806 -0.12320399 0.04643432
-0.14380467 0.046096753 -0.017694592 -0.023034783 -0.06235711 -0.15234588 -0.1654832 0.10139246
-0.09133845 -0.0719639 -0.16717705 -0.02252329 -0.17010969 -0.009266896 -0.20291518 0.014659583
0.15564364 -0.19426747 0.063675165 -0.14300372 0.087888174 -0.19088882 0.1027384 0.07335381
0.7043199 0.18465516 -0.0334836 -0.25547037 0.19765961 0.028331887 0.07954336 0.030719062
-0.16811097 0.18171528 0.0032683313 0.048649967 -0.14062756 0.07888102 -0.058902293 -0.06010815
-0.0077871974 0.09248403 -0.1566003 -0.012194766 0.045028094 0.06436514 -0.12980221 0.07350685
0.17566259 -0.09356833 -0.09120565 -0.09498378 -0.22286047 -0.18099558 -0.08340203 -0.13143085
-0.044041943 0.07120761 -0.00943862 0.14351009 0.059171207 0.037226114 0.115505666 0.08328118
0.36595157 0.19156931 0.25239378 -0.104243964 0.052338272 0.20888647 0.23622252 0.13032623
-0.10249951 0.1709205 0.014218408 -0.13276199 -0.12703934 -0.21938688 -0.040185448 0.13368866
0.18660241 -0.021091659 -0.15085137 0.06452327 0.057981066 -0.08797595 0.13512164 0.05750205
-0.03245344 0.039840993 -0.10121782 0.012532801 -0.021068942 0.063202165 -0.093592934 -0.12163886
-0.02709955 -0.26878637 -0.548346 0.27568644 0.34406602 0.4137432 -0.02476482 -0.01998032
-0.18309791 -0.18273866 0.005056262 -0.048038095 0.09737006 -0.11610019 0.0047441027 -0.008788339
-0.12551211 -0.008474878 -0.0403829 0.09276394 0.05789651 -0.0861689 -0.11921874 -0.1491144
0.07206876 0.20058711 -0.060206193 -0.08415831 -0.19059983 -0.15256958 0.07711588 0.06879045
0.19644625 0.120270014 -0.11649054 0.061360646 0.10720068 -0.06250203 -0.08951393 -0.0003893536
00000000: 2df8 fabc 9034 583d 64aa 283d 4132 beba
00000010: 3f7f 02be 9204 0dbe 6991 da3c b75e 22be
00000020: e8bb 58bc 51c2 dabd 5c1a ca3d 04e4 0ebd
00000030: eda1 b0bd d097 353d c77d 3abe 99f4 2f3e
00000040: e42f 3bbe 9a68 23be 3d07 8dbd 9983 27be
00000050: fd78 903d d09d 2f3d 028f c23d 45db 573c
00000060: 35bc 1e3e 2258 9ebc a11d d9bc e1e4 15be
00000070: df03 3d3e 9eb1 19bc 4bdd efbc e9ab dabb
00000080: b24f ab3d 7951 453e 33b5 37be a655 8fbd
00000090: 83bc 843e c8eb 8dbd 4f1f 183e b4f5 ba3d
000000a0: 6f14 44bd 1fc7 2ebe 6485 ed3d 33eb 1e3e
000000b0: f2f9 433e 81c6 203e 3ad8 aa3d 2849 203d
000000c0: 21b4 20be 1693 4e3d 324e 083e a955 86be
000000d0: d53b d6bd f35a dbbd b72a 9dbd 96fc c53d
000000e0: b42f 78bd a327 5e3e f7c4 743d 1abf 2abc
000000f0: b745 9dbd fdf8 9ebd cc83 d5bc 1b78 3c3e
00000100: e66a debc e1c3 653e 3709 34be 8eeb 5ebe
00000110: 93e8 363e 3dad 343e cff0 93bd 597b 15bd
00000120: eede 483e 88e7 06be c0b4 b13c 2879 793d
00000130: b00b 37bc 6037 5ebc b01a 623c 006d 50bd
00000140: 2cfb fd3d 90a4 3ebc 02f9 3f3e 6c35 383e
00000150: 00d4 0e3d e0a5 c93d d882 b13c d8a8 a33c
00000160: 4e4e 123e 267b eebd 53f9 2b3e 52f3 ff3b
00000170: 4a5b 4fbe fb95 ba3d cdc8 d23d 950c 82bd
00000180: 8fbb d6bd bace 67be 5173 113e 0edd eebd
00000190: 2d3f 11be e132 bcbd c9cf a7bd 5315 2fbd
000001a0: 23ed 3fbe 5733 e7bd 2448 73bd b590 35be
000001b0: 2ded e73c 5b53 e1bc d1b4 993c 6ea1 aebd
000001c0: 27f7 e4bd 0564 c23d 7e9d 063e c420 be3d
000001d0: fe54 a0bd 4ee9 8abd 6052 fcbd ea31 3e3d
000001e0: 8841 13be f3cf 3c3d 40f4 90bc 71b3 bcbc
000001f0: 2b6a 7fbd 8f00 1cbe 6e74 29be daa6 cf3d
00000200: a70f bbbd cf61 93bd 7630 2bbe c382 b8bc
00000210: 3c31 2ebe 2ed4 17bc ffc8 4fbe bf2e 703c
00000220: 0c61 1f3e 0dee 46be 2068 823d 916f 12be
00000230: b7fe b33d 5c78 43be 8368 d23d 863a 963d
00000240: 4f4e 343f 3e16 3d3e 1926 09bd 03cd 82be
00000250: 4867 4a3e 4618 e83c a1e7 a23d 8ba6 fb3c
00000260: 4825 2cbe 9213 3a3e 8031 563b 3045 473d
00000270: ac00 10be 5f8c a13d 8843 71bd f733 76bd
00000280: bf2b ffbb 4468 bd3d d45b 20be 8ecc 47bc
00000290: 616f 383d dfd1 833d dfea 04be c28a 963d
000002a0: e5e0 333e c1a0 bfbd 07ca babd db86 c2bd
000002b0: 8935 64be e856 39be afce aabd cf95 06be
000002c0: 5365 34bd 4cd5 913d 71a4 1abc 4ff4 123e
000002d0: 825d 723d 697a 183d 3c8e ec3d 538f aa3d
000002e0: 015e bb3e bf2a 443e c239 813e dc7d d5bd
000002f0: a860 563d 56e6 553e 51e4 713e 3d74 053e
00000300: 43eb d1bd c905 2f3e 53f4 683c c2f2 07be
00000310: 9a16 02be f4a6 60be 7f99 24bd aee5 083e
00000320: b414 3f3e 6ac8 acbc c878 1abe c724 843d
00000330: 8e7d 6d3d bc2c b4bd 545d 0a3e 4587 6b3d
00000340: e6ed 04bd 4f30 233d 4a4b cfbd 6156 4d3c
00000350: c698 acbc 2370 813d a7ad bfbd cb1d f9bd
00000360: e0ff ddbc 5e9e 89be 6760 0cbf c626 8d3e
00000370: 6c29 b03e 26d6 d33e 97df cabc c5ad a3bc
00000380: 057e 3bbe d81f 3bbe 00af a53b 98c3 44bd
00000390: f469 c73d f0c5 edbd 6b74 9b3b f7fc 0fbc
000003a0: 3f86 00be 37da 0abc 8a68 25bd 05fb bd3d
000003b0: e424 6d3d 5279 b0bd f428 f4bd 72b1 18be
000003c0: c998 933d b566 4d3e c59a 76bd 315b acbd
000003d0: 9a2c 43be 333b 1cbe eeee 9d3d 02e2 8c3d
000003e0: 3529 493e 2050 f63d 9892 eebd 4d55 7b3d
000003f0: 088c db3d 1001 80bd 1453 b7bd 2822 ccb9

u1.conv1.bias f4 [8]
-0.0051125726 -0.019802788 -0.046739615 0.013111579 -0.010522584 0.009866896 0.015030925 -0.013244755
00000000: 5e87 a7bb 7539 a2bc 0a72 3fbd f3d1 563c
00000010: eb66 2cbc c3a8 213c 4544 763c 8700 59bc

u1.conv2.weight f4 [8, 8, 3, 3]
0.18709086 0.013501068 0.11702578 0.134016 -0.10715477 -0.036675688 -0.095471926 -0.13099101
0.03656274 -0.020654812 -0.16402368 0.050798345 0.10479495 -0.19862182 -0.13748275 0.004786346
0.024827672 -0.13963827 0.03066892 0.124884605 0.05167563 0.13702193 0.3658924 -0.09231168
0.07590536 0.17589569 0.092509575 0.03648401 -0.041162644 -0.1373061 0.15013576 0.21912639
0.1574217 0.13303827 0.04735267 0.08040005 0.04228295 -0.087928794 -0.0904914 -0.21079573
-0.18585855 -0.094303064 -0.13737263 0.11211018 0.070578314 0.0002475652 0.038565982 0.035346597
0.15040867 0.04653814 -0.022929309 0.058928974 -0.1526899 0.0298562 -0.046376064 -0.078194395
0.026022121 -0.07773346 -0.13072023 -0.010255292 -0.052655075 -0.048971765 -0.021449406 0.22841658
0.058731046 0.055188257 -0.01583509 -0.150592 -0.1691057 -0.013001163 0.057995643 0.040407613
-0.123310834 -0.2732411 -0.18665546 0.15446699 -0.08299161 -0.20963787 0.020132227 -0.14016955
-0.115695715 -0.16430344 0.02106992 0.15288265 0.11570104 0.07186638 -0.11145983 0.041178793
-0.15282653 -0.13907722 -0.0865739 0.03795899 -0.029318187 -0.108250715 0.23307939 0.010653901
0.0347868 0.17552076 0.08699024 0.040672664 0.09377909 -0.05086808 0.13741592 0.0801903
0.040476862 -0.17059885 0.13165699 0.037275404 0.116962574 0.01743964 0.018353712 0.16254069
0.023518123 0.07703699 -0.17811014 -0.09690206 -0.017098747 0.062291615 0.09389108 -0.1285304
-0.10463938 -0.0831443 0.05083384 0.027198296 0.29045925 -0.13211584 -0.13246979 0.09322502
-0.07324607 -0.026620084 -0.018547494 0.0871937 0.15445298 0.1655484 -0.09745248 0.15108593
-0.045450825 -0.037688572 -0.09119058 -0.16710211 -0.032341953 -0.06061547 -0.16969693 0.083968006
-0.028222723 0.12057086 -0.22979681 0.22783715 -0.00881762 0.18056582 0.06625659 -0.23555017
-0.25983635 -0.066696 0.19090487 -0.05684915 -0.030828236 0.018489268 0.19196917 0.17792206
-0.052467495 -0.023291474 -0.06771685 -0.0872455 0.12746881 -0.117694885 -0.20661479 0.04036853
-0.2496089 -0.102342546 -0.15264949 -0.1377146 0.007589436 0.00636799 -0.05018172 -0.030311545
0.027245237 -0.07274863 0.087075025 0.043909267 0.0028613426 0.102940686 0.14095557 0.12843224
-0.08642933 0.08831244 -0.30923435 -0.27833986 -0.16805492 -0.2461142 0.14163929 -0.16789141
0.06267911 0.105053976 -0.20105608 -0.13938074 0.29148242 -0.3381926 -0.0145850675 0.05979469
0.12313386 0.15459204 -0.11417171 0.15602283 -0.08663153 0.12651508 -0.10650051 -0.11298424
0.1842564 -0.027390657 0.018751677 0.06646758 0.06999566 -0.097622894 0.112040974 -0.15509167
0.093058035 0.069280215 -0.32007965 0.15953739 -0.051005933 -0.04901427 0.018564813 -0.27362135
-0.07942651 -0.14328809 -0.00772555 -0.1487052 -0.029503979 0.06211875 -0.061832655 0.17761923
-0.038792036 0.091737136 -0.055540662 -0.08896681 0.06462767 -0.08947571 0.0425202 -0.10101417
-0.15014951 0.21298116 -0.102529965 0.0077559156 0.22326183 -0.09756572 -0.20504433 0.1332312
0.06634181 0.12764108 0.04849703 0.02547884 0.06759208 -0.20758131 0.08241394 0.06935149
00000000: bf94 3f3e 9533 5d3c 36ab ef3d 7e3b 093e
00000010: f673 dbbd 3f39 16bd c986 c3bd 8222 06be
00000020: d0c2 153d 4834 a9bc d3f5 27be ed11 503d
00000030: bc9e d63d 8563 4bbe 47c8 0cbe c8d6 9c3b
00000040: 6763 cb3c 56fd 0ebe 633d fb3c 80c3 ff3d
00000050: d3a9 533d 7a4f 0c3e 4056 bb3e e80d bdbd
00000060: 4574 9b3d 001e 343e a975 bd3d 4270 153d
00000070: 299a 28bd f899 0cbe 30bd 193e ab62 603e
00000080: 2733 213e 2f3b 083e e0f4 413d c8a8 a43d
00000090: e330 2d3d 0314 b4bd 8e53 b9bd d6da 57be
000000a0: b451 3ebe f721 c1bd 69ab 0cbe 069a e53d
000000b0: 5d8b 903d a4cb 8139 5df7 1d3d 98c7 103d
000000c0: bb04 1a3e c79e 3e3d 3fd6 bbbc 825f 713d
000000d0: be5a 1cbe fd94 f43c d4f4 3dbd 6224 a0bd
000000e0: 582c d53c b832 9fbd 86db 05be d005 28bc
000000f0: d9ac 57bd 9e96 48bd aab6 afbc 09e6 693e
00000100: f78f 703d 150d 623d 97b8 81bc ca34 1abe
00000110: 0b2a 2dbe d402 55bc d78c 6d3d 7482 253d
00000120: 648a fcbd 42e6 8bbe 9c22 3fbe 982c 1e3e
00000130: 81f7 a9bd 4fab 56be 57ec a43c 9b88 0fbe
00000140: e0f1 ecbd 293f 28be d39a ac3c 458d 1c3e
00000150: abf4 ec3d ae2e 933d 0d45 e4bd 18ab 283d
00000160: 8f7e 1cbe 426a 0ebe a84d b1bd e37a 1b3d
00000170: b22c f0bc 8db2 ddbd 5dac 6e3e b38d 2e3c
00000180: 9b7c 0e3d b7bb 333e f027 b23d 6198 263d
00000190: 400f c03d 0c5b 50bd c2b6 0c3e d03a a43d
000001a0: 11cb 253d 77b1 2ebe 17d1 063e 18ae 183d
000001b0: 138a ef3d 93dd 8e3c 865a 963c 1171 263e
000001c0: 14a9 c03c 92c5 9d3d 8162 36be 9674 c6bd
000001d0: ac12 8cbc 7e25 7f3d f749 c03d 799d 03be
000001e0: 2c4d d6bd 8f47 aabd 2537 503d f6ce de3c
000001f0: 13b7 943e 6049 07be 29a6 07be c2ec be3d
00000200: 0902 96bd 5d12 dabc eaf0 97bc 9c92 b23d
00000210: ec28 1e3e 8585 293e 2a95 c7bd 45b6 1a3e
00000220: a52a 3abd 555f 1abd 20c2 babd d11c 2bbe
00000230: ff78 04bd ed47 78bd 08c5 2dbe 6bf7 ab3d
00000240: 5733 e7bc dbed f63d db4f 6bbe 244e 693e
00000250: c777 10bc 3fe6 383e 89b1 873d 1034 71be
00000260: 4509 85be ea97 88bd 917c 433e a8da 68bd
00000270: 7f8b fcbc ce76 973c 9193 443e 3331 363e
00000280: 28e8 56bd c3cd bebc 22af 8abd c5ad b2bd
00000290: 2f87 023e 040a f1bd d492 53be 7959 253d
000002a0: 7a99 7fbe f898 d1bd 2650 1cbe 0e05 0dbe
000002b0: ceb0 f83b 92aa d03b 598b 4dbd eb4f f8bc
000002c0: 6731 df3c 3cfd 94bd 6454 b23d 34da 333d
000002d0: 5d85 3b3b 91d2 d23d a856 103e be83 033e
000002e0: dc01 b1bd 27dd b43d f753 9ebe 9082 8ebe
000002f0: 9716 2cbe 5c05 7cbe e409 113e baeb 2bbe
00000300: e85d 803d 8a26 d73d a5e1 4dbe d3b9 0ebe
00000310: 2f3d 953e 9527 adbe 35f6 6ebc 47eb 743d
00000320: 9b2d fc3d 604d 1e3e dcd2 e9bd 73c4 1f3e
00000330: df6b b1bd 2b8d 013e f01c dabd 4864 e7bd
00000340: b6ad 3c3e 5f62 e0bc 1e9d 993c 2820 883d
00000350: e259 8f3d 83ee c7bd bd75 e53d 5ad0 1ebe
00000360: 3695 be3d c9e2 8d3d 7be1 a3be c55d 233e
00000370: 99eb 50bd 30c3 48bd 3c15 983c 1918 8cbe
00000380: 5eaa a2bd 1dba 12be 9c26 fdbb 2d46 18be
00000390: 54b2 f1bc 3b70 7e3d 3d44 7dbd d1e1 353e
000003a0: 66e4 1ebd aee0 bb3d 9b7e 63bd 3b34 b6bd
000003b0: 835b 843d 0b3f b7bd a929 2e3d 84e0 cebd
000003c0: cbc0 19be bc17 5a3e 3bfb d1bd 5625 fe3b
000003d0: c09e 643e 89d0 c7bd 24f7 51be c26d 083e
000003e0: 37de 873d 58b4 023e d2a4 463d 00b9 d03c
000003f0: b76d 8a3d 3290 54be a4c8 a83d 2708 8e3d

u1.conv2.bias f4 [8]
-0.003378543 0.0016187158 0.0055928607 0.018283363 -0.0016220541 0.0159831 -0.057351273 0.0063598393
00000000: 8c6a 5dbb 172b d43a 5144 b73b fec6 953c
00000010: 1b9b d4ba fdee 823c 2be9 6abd 3366 d03b

u1.conv3.weight f4 [8, 8, 3, 3]
-0.099544324 0.050561845 -0.13140106 -0.26601174 -0.20576864 -0.19591556 0.079243325 0.1651304
-0.11644127 -0.06946435 -0.13788562 -0.062224884 0.05499389 0.03409123 -0.037559107 -0.12304736
0.11401955 -0.1679291 -0.06074056 -0.19853349 0.09322078 -0.1975756 -0.028214093 -0.09794989
0.019929592 -0.16761364 0.109038405 0.07553574 -0.10624902 0.011311217 -0.037024967 -0.16950142
-0.110381134 -0.09706486 0.08973038 0.01044004 -0.005154607 0.05869307 0.1259388 0.1553029
-0.00039543124 -0.16591974 0.11583448 0.01521101 0.01703047 -0.056622673 -0.13038126 -0.018406231
0.047235362 0.011421198 0.09513638 0.15700565 -0.23247875 -0.031730462 0.21793705 0.025594497
-0.07664228 0.0005150226 -0.3055316 0.00067535916 -0.0834468 0.11685515 0.030016327 -0.06107592
0.114066504 -0.12827556 -0.06026478 0.030961214 0.06693843 0.09634751 0.052915636 0.121527284
-0.23425834 -0.15412 -0.045665167 -0.11718244 0.2229645 0.09548357 0.091549926 0.07333807
-0.07788443 0.0775175 0.17846136 0.045851883 0.018022275 0.31250817 0.0535928 -0.07441581
-0.005138172 -0.08438132 -0.1826936 -0.019365847 0.008277843 0.06763037 0.19975697 -0.038579214
0.1285635 0.072828636 0.059135646 -0.17158641 -0.058395986 -0.031316746 -0.1828924 0.33284295
-0.026416792 -0.19296995 0.06260128 0.036535483 -0.0657224 -0.32767105 -0.10926747 0.0078083156
0.030468876 0.058634933 -0.13834925 -0.056124307 0.04105966 -0.18632239 0.0027699708 0.07981041
-0.19288401 -0.13098875 -0.027446587 -0.019329099 0.00023579496 -0.06382854 -0.32894403 -0.15440528
-0.0443191 -0.21781525 0.029796597 -0.12172412 0.12472107 -0.13326965 0.072230294 -0.17517132
0.09739522 0.075771786 -0.11120862 -0.16257419 -0.013856758 0.11016213 0.07234479 -0.07759701
0.08075169 -0.12920706 -0.0024168799 0.020067437 -0.36550575 0.07332253 0.010850494 -0.2654977
0.13786927 -0.008308457 -0.22915892 0.0029001008 0.0065670926 -0.13962875 0.1195542 -0.0058606616
-0.24901389 -0.074773595 -0.07172297 0.078777604 -0.04472967 -0.114348635 0.19065325 -0.12811294
0.14560956 0.14826453 -0.082367964 0.12231245 -0.079297446 -0.098351315 -0.119200505 -0.24830593
-0.024495646 0.110098645 -0.089808896 -0.08119126 -0.015563022 0.090446234 -0.04852463 0.12673615
0.12861508 0.07023611 -0.11928507 0.18055166 0.002221331 -0.02307867 0.1714187 -0.1986956
-0.11709097 0.10453612 -0.1973051 -0.23731418 0.20571119 -0.1178294 -0.14535362 0.12136096
0.108004265 0.08548086 -0.034353677 0.14603607 -0.11323992 0.019686617 0.061437536 0.10868217
-0.13737337 0.060134947 -0.08952132 0.2243978 0.00043406527 0.12248996 0.14521019 0.02502318
0.11843177 -0.09852157 0.11774463 0.051800143 -0.08527138 -0.04364388 -0.21678956 -0.055011384
-0.038685005 0.11491675 -0.07931719 -0.12099798 0.1045234 0.066538796 0.06001168 -0.020146344
-0.039996907 -0.18683273 -0.053651195 0.15556006 -0.1471891 0.23394863 0.15129402 0.27291968
0.060759842 -0.013381998 -0.080729365 0.08538582 0.1119562 0.006373534 -0.13849626 0.058761857
-0.021083748 -0.04914591 0.04584528 0.05645107 -0.16389199 -0.013437668 -0.14224292 0.11556535
00000000: e5dd cbbd f019 4f3d 008e 06be b132 88be
00000010: 04b5 52be 179e 48be 534a a23d f217 293e
00000020: c378 eebd 5343 8ebd e331 0dbe 85df 7ebd
00000030: 4641 613d 3fa3 0b3d 94d7 19bd 4100 fcbd
00000040: 1583 e93d 9bf5 2bbe 18cb 78bd 5d4c 4bbe
00000050: 89ea be3d 4251 4abe 3e21 e7bc f499 c8bd
00000060: 6243 a33c e9a2 2bbe 874f df3d 7bb2 9a3d
00000070: 1699 d9bd af52 393c 7ea7 17bd c891 2dbe
00000080: 810f e2bd f1c9 c6bd 90c4 b73d b40c 2b3c
00000090: fae7 a8bb 2568 703d 1af6 003e b907 1f3e
000000a0: e251 cfb9 dde6 29be a13a ed3d 9a37 793c
000000b0: 7c83 8b3c 2ded 67bd aa82 05be aac8 96bc
000000c0: de79 413d fa1f 3b3c ddd6 c23d 17c6 203e
000000d0: e90e 6ebe cdf7 01bd e42a 5f3e 8dab d13c
000000e0: a1f6 9cbd 9502 073a a36e 9cbe 960a 313a
000000f0: 28e6 aabd c151 ef3d cde4 f53c be2a 7abd
00000100: b39b e93d ab5a 03be 34d8 76bd 5fa2 fd3c
00000110: 0417 893d d851 c53d 11be 583d 4ce3 f83d
00000120: 6be1 6fbe a2d1 1dbe 660b 3bbd 59fd efbd
00000130: ce50 643e e48c c33d 877e bb3d 4532 963d
00000140: df81 9fbd 7fc1 9e3d 93be 363e 2fcf 3b3d
00000150: 73a3 933c 1201 a03e 2084 5b3d 5167 98bd
00000160: 1c5e a8bb 1dd0 acbd 0814 3bbe 20a5 9ebc
00000170: ca9f 073c cb81 8a3d 178d 4c3e 3d05 1ebd
00000180: 26a6 033e 2e27 953d 3838 723d 59b4 2fbe
00000190: a130 6fbd fd45 00bd 2548 3bbe 646a aa3e
000001a0: 0768 d8bc ea99 45be 1a35 803d 3ba6 153d
000001b0: 7799 86bd 80c4 a7be a0c7 dfbd e6dc ff3b
000001c0: dd99 f93c 2f2b 703d 6dab 0dbe 9ae2 65bd
000001d0: 2d2e 283d 4ccb 3ebe 6688 353b a473 a33d
000001e0: 6383 45be ea21 06be aad7 e0bc 0f58 9ebc
000001f0: ba3f 7739 8ab8 82bd 5a6b a8be 6b1c 1ebe
00000200: f287 35bd f60a 5fbe fe17 f43c 7f4a f9bd
00000210: c36d ff3d d777 08be 7aed 933d 1c60 33be
00000220: 2577 c73d 3d2e 9b3d 58c1 e3bd d979 26be
00000230: 7507 63bc af9c e13d 8129 943d 2eeb 9ebd
00000240: 2461 a53d db4e 04be 8464 1ebb 7764 a43c
00000250: 9223 bbbe 1f2a 963d 45c6 313c 51ef 87be
00000260: 9a2d 0d3e 3220 08bc a3a8 6abe 9e0f 3e3b
00000270: c430 d73b d7fa 0ebe d5d8 f43d cb0a c0bb
00000280: 7ffd 7ebe e622 99bd 7ee3 92bd 2756 a13d
00000290: 7536 37bd 9e2f eabd 9b3a 433e 0a30 03be
000002a0: ac1a 153e a8d2 173e 89b0 a8bd f37e fa3d
000002b0: b366 a2bd 6a6c c9bd 651f f4bd e943 7ebe
000002c0: 18ab c8bc 667b e13d baed b7bd 9a47 a6bd
000002d0: 0cfc 7ebc e03b b93d c3c1 46bd 1fc7 013e
000002e0: acb3 033e f3d7 8f3d bb4b f4bd 89e2 383e
000002f0: c093 113b 7b0f bdbc 6288 2f3e dc76 4bbe
00000300: 64cd efbd 0917 d63d 590a 4abe 7d02 73be
00000310: f4a5 523e 8a50 f1bd 94d7 14be 188c f83d
00000320: 5731 dd3d 9710 af3d 71b6 0cbd 7b8a 153e
00000330: 55ea e7bd d445 a13c eda5 7b3d c294 de3d
00000340: 9bab 0cbe 1050 763d f456 b7bd 89c8 653e
00000350: 4193 e339 04dc fa3d fbb1 143e 69fd cc3c
00000360: 5b8c f23d adc5 c9bd 1924 f13d 632c 543d
00000370: c3a2 aebd edc3 32bd 15fe 5dbe 9e53 61bd
00000380: 2b74 1ebd 7959 eb3d 0d71 a2bd cacd f7bd
00000390: 5d10 d63d 7e45 883d cfce 753d f209 a5bc
000003a0: ccd3 23bd 1451 3fbe 5bc1 5bbd 234b 1f3e
000003b0: bdb8 16be 3b90 6f3e d2ec 1a3e 21bc 8b3e
000003c0: 50df 783d 2b40 5bbc 7055 a5bd c3de ae3d
000003d0: 4b49 e53d 14d9 d03b f7d1 0dbe 46b0 703d
000003e0: d3b7 acbc 394d 49bd 43c8 3b3d 3d39 673d
000003f0: 4dd3 27be aa29 5cbc 21a8 11be 87ad ec3d

u1.conv3.bias f4 [8]
-0.06906416 0.003982676 0.00072166935 0.0033211831 -0.020755863 -0.004916477 -0.008540822 0.0048594745
00000000: 8371 8dbd 1c81 823b 692e 3d3a 35a8 593b
00000010: 3308 aabc 661a a1bb ceee 0bbc 3a3c 9f3b

u1.G.weight f4 [1, 8, 3, 3]
0.092432745 -0.18241999 -0.1874388 0.0019316719 0.20371592 0.10514764 0.14333 -0.10492792
0.18200877 0.02294624 -0.012726534 -0.050124355 -0.13099699 -0.20989609 0.14821962 0.14011094
0.084141 0.22452034 -0.057289068 0.23085868 -0.09971287 0.14240676 0.14379983 -0.1308043
0.08578294 0.017498828 0.17365947 0.10077404 0.0224423 0.29984146 -0.10495106 0.10417484
-0.17072044 0.019537667 0.008414638 0.18273701 -0.2638282 -0.024703672 -0.1382756 -0.2519861
0.031376284 -0.1804528 -0.23202653 0.06453342 0.15411699 0.09938918 -0.11645202 0.06077577
0.016141027 -0.08451551 0.097591475 0.12756194 0.06419321 -0.13400848 0.23333384 0.15571854
-0.13347672 -0.06447512 0.24265851 -0.06351477 0.14005852 -0.11521253 0.014418335 -0.21019079
-0.14145145 0.008711454 0.10751908 0.12204289 -0.16552764 0.06636873 0.069242775 -0.009095238
00000000: 614d bd3d 4ecc 3abe f5ef 3fbe 2730 fd3a
00000010: e89a 503e a557 d73d 19c5 123e 73e4 d6bd
00000020: 8260 3a3e c1f9 bb3c f482 50bc 324f 4dbd
00000030: 1324 06be 00ef 56be e2c6 173e 3e79 0f3e
00000040: 1e52 ac3d a9e8 653e f1a7 6abd 3866 6c3e
00000050: 4336 ccbd 14d3 113e 4340 133e 90f1 05be
00000060: f7ae af3d b459 8f3c cad3 313e 9f62 ce3d
00000070: ead8 b73c d284 993e 95f0 d6bd 9e59 d53d
00000080: 57d1 2ebe 750d a03c 8ddd 093c 691f 3b3e
00000090: 7d14 87be 5b5f cabc 1e98 0dbe 5204 81be
000000a0: 6b84 003d 9ec8 38be 5d98 6dbe 192a 843d
000000b0: d8d0 1d3e 8e8c cb3d 667e eebd 04f0 783d
000000c0: 303a 843c 7816 adbd 0ade c73d 999f 023e
000000d0: bb77 833d 8539 09be 11ef 6e3e ae74 1f3e
000000e0: 1fae 08be 880b 84bd 797b 783e 0814 82bd
000000f0: 806b 0f3e 8cf4 ebbd e13a 6c3c 413c 57be
00000100: a6d8 10be 7dba 0e3c f732 dc3d 9ff1 f93d
00000110: 1480 29be 54ec 873d 28cf 8d3d 3104 15bc

u2.E.weight f4 [8, 1, 3, 3]
0.011782785 -0.21936263 0.11211233 0.034398362 0.11519227 0.010201705 0.09568672 -0.1513335
0.13436629 -0.09092828 -0.2954073 0.14771837 -0.07933393 -0.30459028 -0.010344084 -0.0761476
0.11091519 -0.13061798 -0.23462616 0.11198149 0.1463238 -0.32271647 0.044133667 -0.006349902
-0.087002516 0.17339458 0.17968008 0.035654623 -0.14783803 -0.009616998 0.16076048 -0.109835595
0.21234472 -0.10885194 0.13126023 -0.0054720175 -0.18391855 0.12109418 -0.16075748 0.22225358
-0.1538555 0.096277386 0.06252726 0.20782368 0.12881278 -0.0155296 -0.09724784 0.04523102
0.23260207 -0.08967109 0.117107674 -0.03548042 0.07522183 0.16001488 0.17848015 0.030926982
0.01975139 0.036164224 0.14560227 0.20071632 -0.04426714 0.13859057 0.20120691 -0.14092593
-0.07142328 0.17414473 -0.17688861 0.07986322 0.12002364 0.023625929 -0.064255215 0.029911809
00000000: 950c 413c 99a0 60be 269b e53d 4ce5 0c3d
00000010: ede9 eb3d 0d25 273c 66f7 c33d 2bf7 1abe
00000020: 5197 093e 9b38 babd a03f 97be 7c43 173e
00000030: d479 a2bd 42f3 9bbe 3c7a 29bc 46f3 9bbd
00000040: 8127 e33d b8c0 05be d741 70be 8d56 e53d
00000050: e8d5 153e 183b a5be 81c5 343d d712 d0bb
00000060: 602e b2bd 598e 313e 0efe 373e 950a 123d
00000070: da62 17be 9d90 1dbc 659e 243e 7cf1 e0bd
00000080: e570 593e c4ed debd 1569 063e 9c4e b3bb
00000090: 2555 3cbe 3a00 f83d 9c9d 24be 7196 633e
000000a0: 4c8c 1dbe 142d c53d 4b0e 803d bbcf 543e
000000b0: 7fe7 033e dd6f 7ebc e029 c7bd 2944 393d
000000c0: 3d2f 6e3e 7aa5 b7bd 26d6 ef3d eb53 11bd
000000d0: e70d 9a3d f1da 233e 80c3 363e 955a fd3c
000000e0: abcd a13c f020 143d c318 153e 9488 4d3e
000000f0: 7651 35bd b0ea 0d3e 2f09 4e3e e34e 10be
00000100: 5e46 92bd ff52 323e 4a22 35be 548f a33d
00000110: f4ce f53d 2a8b c13c 3d98 83bd 9c09 f53c

u2.E.bias f4 [8]
-0.016834315 -0.05751145 -0.022888443 0.029401755 0.00038368627 -0.006116523 -0.015511193 -0.0035007617
00000000: 1ee8 89bc 2091 6bbd 8b80 bbbc f3db f03c
00000010: 8029 c939 1d6d c8bb a922 7ebc 096d 65bb

u2.conv1.weight f4 [8, 8, 3, 3]
0.081663646 0.03960192 0.14486448 0.15666875 -0.07398082 -0.019471928 0.14239997 0.039010014
0.16792509 0.049375582 -0.215321 0.0050668786 -0.15129763 0.15687561 0.11429966 -0.019744378
0.09505618 -0.18434888 -0.08757078 -0.07960442 -0.17571682 0.09737371 -0.041172672 0.07157621
0.10907489 0.20674232 -0.038946744 0.1833881 -0.13282977 -0.1726513 0.10217629 0.17773533
0.20061901 -0.026428813 -0.061980058 -0.029915705 -0.104719065 -0.17457011 0.0220976 -0.04703995
-0.02144325 -0.08867332 -0.114854254 0.13694786 0.01869941 -0.017780654 0.15098502 0.025586477
0.07631364 0.16546716 0.10075605 0.018960737 0.072550654 0.08721227 0.048766077 -0.19823454
0.107335046 -0.11096399 0.09514156 -0.024975374 0.081739865 0.04519905 -0.093061805 0.2596441
-0.3438312 -0.31912208 -0.067944475 -0.05446225 0.10206729 0.0100348685 0.04750117 0.12378161
-0.12739022 -0.04616345 -0.045481548 -0.07414492 -0.09998565 0.27295268 -0.09120906 0.006021499
0.13472718 0.17827237 -0.0051323017 -0.17630072 0.12477403 0.15598059 0.10625355 -0.09740561
-0.10061985 0.09003258 0.024314089 0.2525649 0.3420817 -0.05373669 0.1556946 0.032813072
-0.28518015 0.07694394 0.19038846 -0.09119085 -0.15130204 -0.18990631 0.08012551 -0.071406856
-0.0013788466 -0.124448955 0.10217765 0.1687096 0.066395104 0.2398938 -0.054117348 0.13144939
0.19745953 0.09689546 0.11679884 -0.015482417 -0.061887156 0.06449874 0.11118494 0.029429672
-0.017746355 -0.004960963 -0.050316144 -0.09487993 -0.19551526 -0.024359418 0.09435065 0.10081386
-0.10207214 0.05674839 -0.034929607 -0.2116821 0.15404531 -0.020012265 -0.17100784 -0.012642341
-0.03859184 -0.23890959 0.2853125 0.18147422 0.19695039 -0.26385882 -0.028636195 -0.0394555
0.12496628 0.34158626 0.05533447 0.06644282 -0.004555657 0.058386784 0.07172773 -0.016419379
-0.0482234 -0.19638164 0.2001671 0.12499613 -0.078353755 -0.020071417 0.039454643 0.15539567
0.14043243 -0.14750244 -0.10681407 -0.077030994 0.014610506 -0.15055811 -0.30451164 -0.17223606
-0.019497586 -0.25532088 0.17823498 -0.10674375 -0.05839892 0.0029341318 -0.02338108 0.028208822
-0.062320385 -0.059487313 -0.07162116 -0.011887351 -0.1284029 -0.25485253 -0.009968326 -0.010562762
-0.10710494 -0.080353715 0.03822863 0.12387355 0.034061376 -0.12341767 -0.16961186 0.18683834
0.025994835 -0.11312571 0.12589821 -0.16073316 0.066279985 0.033256445 0.1706994 0.016342936
0.020966109 0.15703027 -0.033080995 -0.094387546 -0.08928536 0.13682538 -0.12726398 -0.0059295185
0.1286277 -0.067879826 -0.1304725 0.23414274 -0.0501359 -0.21682195 0.10459025 0.004631672
-0.020674191 0.0343721 -0.029232275 0.09757368 -0.007639014 0.17154257 0.16440362 0.18388696
0.16712582 -0.17780083 0.08959735 -0.057688683 0.00996629 0.05375646 -0.026564373 -0.08590011
0.030142354 0.0497299 0.0694026 -0.1288104 -0.22529882 -0.07084641 -0.12188239 0.048648894
0.027385723 0.08077132 -0.04920089 -0.07922065 -0.14399153 -0.08776797 0.13703978 0.13873474
0.1572497 -0.12713856 -0.04342268 -0.17340489 0.109541625 0.1511681 -0.15860993 0.15685077
00000000: 453f a73d 9f35 223d 5b57 143e c66d 203e
00000010: 4283 97bd 9883 9fbc 4cd1 113e f7c8 1f3d
00000020: 8ef4 2b3e 0d3e 4a3d 1c7d 5cbe 0f08 a63b
00000030: c4ed 1abe 00a4 203e f115 ea3d f6be a1bc
00000040: d1ac c23d f4c5 3cbe 4f58 b3bd a407 a3bd
00000050: 1cef 33be de6b c73d ada4 28bd 8c96 923d
00000060: a862 df3d 42b4 533e 9f86 1fbd 17ca 3b3e
00000070: 8704 08be 81cb 30be cd41 d13d 4000 363e
00000080: 126f 4d3e 3d81 d8bc cdde 7dbd c811 f5bc
00000090: f376 d6bd 82c2 32be 0706 b53c f6ac 40bd
000000a0: c1a9 afbc 5c9a b5bd b538 ebbd 0f3c 0c3e
000000b0: 812f 993c bca8 91bc d19b 1a3e bb9a d13c
000000c0: 534a 9c3d 3970 293e 3059 ce3d 8c53 9b3c
000000d0: 7095 943d 599c b23d f0be 473d fffd 4abe
000000e0: 7ad2 db3d 1741 e3bd 94d9 c23d 2899 ccbc
000000f0: 3b67 a73d a422 393d 3097 bebd 12f0 843e
00000100: a50a b0be f863 a3be 7926 8bbd cf13 5fbd
00000110: a808 d13d 4a69 243c 9690 423d 3681 fd3d
00000120: 9572 02be e315 3dbd dc4a 3abd 4bd9 97bd
00000130: 47c5 ccbd 74c0 8b3e d1cb babd ff4f c53b
00000140: ecf5 093e 088d 363e de2c a8bb 2d88 34be
00000150: 8789 ff3d 60b9 1f3e 769b d93d 987c c7bd
00000160: c811 cebd 0063 b83d 572e c73c 3050 813e
00000170: 5525 af3e 011b 5cbd 686e 1f3e 0067 063d
00000180: 2203 92be c994 9d3d 31f5 423e 45c2 babd
00000190: ecee 1abe cd76 42be d818 a43d c23d 92bd
000001a0: 6aba b4ba 18df febd 8442 d13d 36c2 2c3e
000001b0: 28fa 873d b8a6 753e 27aa 5dbd ab9a 063e
000001c0: d532 4a3e 2071 c63d 3b34 ef3d f7a9 7dbc
000001d0: 637d 7dbd ea17 843d eeb4 e33d 7f16 f13c
000001e0: ce60 91bc 938f a2bb 4d18 4ebd 6950 c2bd
000001f0: 2735 48be 678d c7bc ea3a c13d 7f77 ce3d
00000200: 330b d1bd 0071 683d 5912 0fbd 31c3 58be
00000210: 0ebe 1d3e c3f0 a3bc ae1c 2fbe d221 4fbc
00000220: 7a12 1ebd b7a4 74be 7b14 923e 61d4 393e
00000230: 5dad 493e 8118 87be 7496 eabc 179c 21bd
00000240: 52ee ff3d 65e4 ae3e 66a6 623d 2c13 883d
00000250: 9f47 95bb fb26 6f3d fde5 923d ef81 86bc
00000260: e685 45bd 4518 49be 9bf8 4c3e f9fd ff3d
00000270: ef77 a0bd d06c a4bc 319b 213d 0b20 1f3e
00000280: 85cd 0f3e e10a 17be 56c1 dabd 6dc2 9dbd
00000290: e760 6f3c e82b 1abe f3e8 9bbe a65e 30be
000002a0: 67b9 9fbc 6bb9 82be 3b83 363e 789c dabd
000002b0: b533 6fbd 904a 403b ae89 bfbc 3016 e73c
000002c0: a943 7fbd f8a8 73bd 1dae 92bd 2ac3 42bc
000002d0: 0d7c 03be 087c 82be 3152 23bc 6f0f 2dbc
000002e0: d659 dbbd 7d90 a4bd a095 1c3d 6ab1 fd3d
000002f0: f183 0b3d 67c2 fcbd bbae 2dbe 8d52 3f3e
00000300: 1ff3 d43c 74ae e7bd 76eb 003e 3c97 24be
00000310: cdbd 873d e937 083d d3cb 2e3e 9fe1 853c
00000320: 1ec1 ab3c 8bcc 203e f07f 07bd 424e c1bd
00000330: 3edb b6bd f41b 0c3e 7d51 02be 684c c2bb
00000340: fbb6 033e 9404 8bbd 959a 05be 1dc3 6f3e
00000350: 4d5b 4dbd 9306 5ebe 6a33 d63d 48c5 973b
00000360: ec5c a9bc c2c9 0c3d 8678 efbc b6d4 c73d
00000370: b250 fabb dba8 2f3e 6c59 283e dd4c 3c3e
00000380: 0823 2b3e 6c11 36be d17e b73d f84a 6cbd
00000390: a649 233c bc2f 5c3d 879d d9bc 66ec afbd
000003a0: 19ed f63c 94b1 4b3d f322 8e3d e0e6 03be
000003b0: bcb4 66be ec17 91bd 799d f9bd 1044 473d
000003c0: 0658 e03c 6f6b a53d df86 49bd 703e a2bd
000003d0: 8472 13be b2bf b3bd 2854 0c3e 7b10 0e3e
000003e0: 1106 213e 9c30 02be fbdb 31bd 0d91 31be
000003f0: 5c57 e03d cfcb 1a3e a46a 22be 7d9d 203e

u2.conv1.bias f4 [8]
0.0018485553 -0.010351417 0.031378683 -0.015932197 0.017779045 -0.0112603 -0.043585874 0.0001478828
00000000: 394b f23a fd98 29bc ef86 003d 3d84 82bc
00000010: 5ca5 913c 1f7d 38bc 1a87 32bd fd10 1b39

u2.conv2.weight f4 [8, 8, 3, 3]
0.0001465065 0.03163091 0.12228234 -0.16849166 0.13168836 0.16728468 0.18560289 0.04848647
-0.049266092 -0.052112926 0.07727891 0.24855936 -0.25926763 -0.34787032 0.15039273 0.14455146
-0.14966558 0.007000245 0.05395987 -0.05776862 0.0103803845 0.1487879 0.043531492 0.22974423
0.13624737 -0.057881176 -0.07667624 -0.049050856 -0.118234135 0.08887149 -0.00900471 0.21176057
0.017717222 0.16680188 -0.10215868 0.18908411 -0.05329327 0.1620007 -0.05132863 -0.095746905
0.07413151 -0.1926871 0.14327197 -0.04758685 -0.047926113 -0.004513479 -0.061700493 0.11484897
0.21513909 0.05741276 -0.028335052 -0.08706304 0.12851925 -0.06231224 -0.12337216 0.1650668
-0.11682742 0.02008369 -0.0269248 0.097642295 -0.13523594 -0.109533735 -0.19985805 -0.001599858
-0.1494661 0.11940299 0.15932539 0.14814931 0.14367503 -0.08362084 0.03157104 -0.008026336
-0.038262032 0.0039703962 -0.08078569 -0.054736983 0.1610323 -0.0074222963 -0.23513527 -0.28150618
0.090861 -0.6712255 0.091680884 0.106333904 -0.46240446 -0.025041148 0.002311297 0.1195382
0.19157551 -0.19962499 0.06949212 -0.02639547 -0.03709876 -0.09478825 -0.23200004 -0.20335265
-0.38919318 -0.61216015 -0.8233171 0.14820588 0.11333165 0.072265044 -0.037110597 0.13972273
-0.056880973 -0.20442581 -0.054174542 -0.14824083 -0.078119494 0.042182915 -0.13352817 0.117143825
0.26440185 0.11775788 -0.10478787 0.031566896 -0.17682183 -0.044544924 0.038857028 0.15944071
0.18310389 0.097290926 0.05806801 0.06641391 -0.1065557 -0.026271634 0.16105452 -0.15726696
0.07809712 0.007265935 0.012704928 -0.0077795377 -0.17671724 -0.08392989 0.0963246 -0.16872628
0.17823358 0.02091871 0.279779 0.004417757 -0.020215465 -0.10207088 -0.0020767134 -0.09593549
0.08417935 -0.19672355 -0.048112173 -0.013535358 -0.0058146454 -0.13481145 -0.062348515 -0.1968092
-0.0793015 0.029971277 0.004710978 -0.13590299 0.15387563 -0.3728385 -0.119027704 -0.20206536
-0.28690585 -0.1335937 0.08657372 0.011514425 0.079867356 -0.028128475 -0.27862602 0.13362105
-0.030086067 -0.025538491 -0.05206869 -0.061289236 -0.114315554 -0.13440579 -0.08157828 0.1611303
-0.02579811 0.18252008 -0.08652716 -0.037967842 0.15622619 -0.15228924 0.0448611 0.1762985
-0.08839475 -0.13660845 -0.046418276 0.22511749 0.17216523 0.18899113 -0.10844296 -0.17197157
-0.13820823 0.07741258 -0.033019267 0.0849045 0.10125495 -0.027594311 -0.12994215 0.14897138
0.12515831 0.14956547 0.20065802 -0.06873196 0.1596035 0.10956587 0.024308087 0.034396935
-0.0062267333 0.00848302 0.076111406 -0.1251097 0.12380182 0.110189304 0.17652267 0.14134242
-0.68277025 -0.5648327 -0.55746055 0.28080934 0.12419729 0.08530489 0.026018808 0.12698564
-0.0246482 -0.21915077 -0.25307223 -0.20887454 -0.046913467 -0.0412574 -0.21184237 -0.047752872
0.2739698 -0.06345925 -0.4841354 -0.39885828 -0.72232515 -0.08911313 0.5029551 -0.05593635
-0.106760964 0.087273225 -0.2479411 -0.5846572 -0.46521863 -0.7594323 0.12821832 -3.759414e-05
-0.118742675 0.0054933 0.07339913 -0.16625756 -0.87001586 -0.84924525 -0.710896 -0.1480786
00000000: 8a9f 1939 6a8f 013d 2a6f fa3d 1489 2cbe
00000010: 50d9 063e ad4c 2b3e af0e 3e3e c099 463d
00000020: 3ecb 49bd 5d74 55bd 6844 9e3d 5886 7e3e
00000030: babe 84be 0f1c b2be 8d00 1a3e 4c05 143e
00000040: ef41 19be 5062 e53b 0605 5d3d ca9e 6cbd
00000050: 7d12 2a3c db5b 183e 144e 323d 1242 6b3e
00000060: 6e84 0b3e d014 6dbd 6f08 9dbd 8de9 48bd
00000070: bd24 f2bd 4102 b63d 7e88 13bc c3d7 583e
00000080: b523 913c 1dce 2a3e 9238 d1bd 449f 413e
00000090: 0b4a 5abd 83e3 253e f83d 52bd f416 c4bd
000000a0: 43d2 973d c44f 45be e3b5 123e 6eea 42bd
000000b0: 2c4e 44bd cee5 93bb a8b9 7cbd f035 eb3d
000000c0: 6c4d 5c3e a429 6b3d e91e e8bc 1b4e b2bd
000000d0: 8d9a 033e 1f3b 7fbd 8baa fcbd 4507 293e
000000e0: 3743 efbd 8d86 a43c 6691 dcbc aff8 c73d
000000f0: 4a7b 0abe 3953 e0bd 97a7 4cbe 54b2 d1ba
00000100: a40d 19be 8e89 f43d 3226 233e 74b4 173e
00000110: 8c1f 133e 6741 abbd a350 013d e580 03bc
00000120: a6b8 1cbd 191a 823b f872 a5bd e333 60bd
00000130: a7e5 243e bc36 f3bb 4dc7 70be 9421 90be
00000140: 5515 ba3d 6fd5 2bbf 30c3 bb3d 97c5 d93d
00000150: 47c0 ecbe 1823 cdbc 2179 173b 72d0 f43d
00000160: 5f2c 443e 7e6a 4cbe e251 8e3d 503b d8bc
00000170: dff4 17bd 5820 c2bd 6b91 6dbe ad3b 50be
00000180: 5444 c7be 87b6 1cbf e9c4 52bf 48c3 173e
00000190: 6d1a e83d b2ff 933d 4801 18bd 7a13 0f3e
000001a0: 06fc 68bd 0055 51be 20e6 5dbd 72cc 17be
000001b0: 1dfd 9fbd fec7 2c3d 9cbb 08be 1ae9 ef3d
000001c0: ae5f 873e 0b2b f13d 069b d6bd 4a4c 013d
000001d0: c810 35be bd74 36bd 8c28 1f3d 6d44 233e
000001e0: 967f 3b3e 7740 c73d b9d8 6d3d 0404 883d
000001f0: e039 dabd 9c37 d7bc 7aeb 243e 970a 21be
00000200: 62f1 9f3d 1517 ee3b 5528 503c 7eeb febb
00000210: 5df5 34be 6fe3 abbd d545 c53d 95c6 2cbe
00000220: dd82 363e b75d ab3c 313f 8f3e d5c2 903b
00000230: e79a a5bc 8a0a d1bd 7819 08bb d479 c4bd
00000240: 3966 ac3d e671 49be 4511 45bd 68c3 5dbc
00000250: c888 bebb 030c 0abe 2861 7fbd 5a88 49be
00000260: d368 a2bd 5386 f53c 8c5e 9a3b 272a 0bbe
00000270: 9391 1d3e b0e4 bebe ccc4 f3bd 39ea 4ebe
00000280: 53e5 92be c9cc 08be 904d b13d 00a7 3c3c
00000290: 7f91 a33d b06d e6bc 12a8 8ebe f5d3 083e
000002a0: 0e77 f6bc 1936 d1bc fb45 55bd 6c0a 7bbd
000002b0: 461e eabd aca1 09be 8312 a7bd 57ff 243e
000002c0: 8f56 d3bc 8be6 3a3e 2735 b1bd 2b84 1bbd
000002d0: c2f9 1f3e b6f1 1bbe 46c0 373d 9887 343e
000002e0: 4f08 b5bd 16e3 0bbe 1721 3ebd 3385 663e
000002f0: 154c 303e e486 413e 5817 debd 5119 30be
00000300: 7586 0dbe 7d8a 9e3d 363f 07bd 69e2 ad3d
00000310: c15e cf3d 770d e2bc 8e0f 05be f48b 183e
00000320: 8029 003e b127 193e 4c79 4d3e 58c3 8cbd
00000330: 1a6f 233e 1264 e03d c121 c73c cde3 0c3d
00000340: a009 ccbb 5dfc 0a3c 4ce0 9b3d c21c 00be
00000350: cf8b fd3d eeaa e13d 5cc2 343e 11bc 103e
00000360: 08ca 2ebf e098 10bf bcb5 0ebf 3ec6 8f3e
00000370: 265b fe3d 55b4 ae3d 6525 d53c 8608 023e
00000380: 06eb c9bc 0f69 60be af92 81be 35e3 55be
00000390: 5628 40bd 85fd 28bd 35ed 58be 8498 43bd
000003a0: c545 8c3e ecf6 81bd 98e0 f7be 2737 ccbe
000003b0: 4dea 38bf f280 b6bd aac1 003f 841d 65bd
000003c0: 7ea5 dabd 4ebc b23d 46e4 7dbe 18ac 15bf
000003d0: 2331 eebe 286a 42bf aa4b 033e 67ae 1db8
000003e0: 5c2f f3bd 2401 b43b 4852 963d 6c3f 2abe
000003f0: 5cb9 5ebf 2368 59bf 48fd 35bf eba1 17be

u2.conv2.bias f4 [8]
0.022229686 -0.03494787 -0.004299549 0.012619469 -0.00076148583 0.004005235 -0.016622687 -0.0040744636
00000000: 081b b63c 7f25 0fbd 3be3 8cbb e4c1 4e3c
00000010: 739e 47ba 593e 833b 4d2c 88bc 1483 85bb

u2.conv3.weight f4 [8, 8, 3, 3]
0.053645976 0.10661805 -0.073641226 -0.11289243 0.033700403 -0.14084682 0.07031311 -0.029460568
0.12649342 0.14513211 0.14090614 0.063895 0.04204803 0.020438282 -0.035191085 0.035340738
0.1085226 -0.013836712 -0.124184616 0.0272819 0.114347205 0.15686266 0.1486227 0.17094973
0.17611793 -0.08196101 -0.029471619 0.1257448 -0.024155317 0.05992844 0.16395803 -0.028572535
-0.014896386 0.08496413 0.18710312 -0.06746613 -0.0014122905 -0.1745219 0.03894896 0.039785396
0.14510943 -0.15405048 -0.09875338 0.18561278 -0.06735922 0.03185431 0.1837269 0.19832906
-0.012609753 -0.2087801 -0.12641019 -0.16268685 -0.013123557 -0.12868166 0.16273497 -0.17162813
-0.014316182 0.09241544 -0.10018596 0.16114514 0.074219264 0.22359028 0.05604407 0.18021871
-0.070873804 0.043024536 0.04652573 -0.10484662 0.05991981 -0.11321112 0.03095415 0.015839819
-0.4952028 0.043409646 0.0956785 -0.6191058 0.09178207 0.056151997 -0.17288567 -0.1948165
0.023415688 0.067022875 -0.110229865 -0.33242917 -0.38327587 0.029144932 0.48043713 -0.12355313
-0.32224086 0.14185633 -0.53580666 -0.13927904 -0.027858803 -0.6133835 0.11885775 0.103334986
-0.43948084 0.09212089 -0.13268356 -0.38149235 -0.08192681 0.032382492 -0.4080248 -0.011036932
0.08608062 -0.36172533 0.09477872 0.14874071 -0.52298933 -0.04387916 0.12237699 -0.51007956
-0.07922264 -0.009083855 -0.5022537 0.19766065 0.021723341 -0.27506533 0.061957497 -0.1686594
-0.604397 -0.018858533 -0.00631281 -0.17221874 -0.17087622 0.13743474 -0.43082392 0.070588395
0.025599873 -0.46350414 0.023031706 0.10176247 -0.46957555 0.13302468 -0.10849002 -0.4314027
-0.059175845 -0.11204518 -0.6640945 -0.28032756 -0.048419997 -0.3784976 0.061328806 -0.15002707
0.060086187 -0.117541686 0.0031680039 -0.1870029 -0.22092536 -0.024179863 0.03188452 -0.1107032
0.12508926 -0.24389462 0.017569002 -0.10799858 -0.059008397 -0.2658148 0.08409614 -0.17325759
-0.09104429 0.0041847327 -0.12997095 -0.1283267 -0.120253906 -0.1046187 0.18806767 -0.12136858
0.08273888 0.16684179 -0.031953454 0.009476337 -7.448073e-05 -0.009065911 -0.026088214 -0.12287531
-0.22856751 0.18844068 -0.053820208 -0.011601284 -0.072162524 0.04778871 -0.10361616 -0.0883667
0.18535 0.13100882 -0.012447792 -0.071533404 0.016762035 -0.06263154 -0.05147139 -0.07422091
-0.10668926 0.14512955 0.15885882 -0.0004278107 0.03739846 -0.110718444 0.011974851 -0.10018852
0.10807973 0.020940742 0.1433271 0.1267935 -0.053269498 0.06255446 0.107830025 -0.13747443
0.12911935 -0.10163387 0.1237214 0.2179629 0.12656559 -0.041889373 0.0073708887 0.016079217
-0.5394164 -0.5475553 -0.37741828 0.0748056 0.185434 0.060569514 0.093718275 0.08030171
0.12650752 -0.28420523 -0.34072328 -0.09290523 -0.39171624 0.13867892 0.19026907 -0.23946846
0.081724636 -0.006638149 -0.5114336 -0.5878366 -0.34628674 0.15532975 0.03534114 -0.0668797
0.12782642 0.15250452 -0.04739822 -0.51616186 -0.34538364 -0.60734135 0.17833729 0.21433163
0.0631132 -0.14644782 -0.035405606 0.012484694 -0.2735144 -0.45174366 -0.59731895 -0.1235574
00000000: e2bb 5b3d 905a da3d 36d1 96bd 2534 e7bd
00000010: 6f09 0a3d 263a 10be 5200 903d 4a57 f1bc
00000020: 7e87 013e 839d 143e b349 103e 62db 823d
00000030: 8e3a 2c3d 2f6e a73c 8724 10bd 73c1 103d
00000040: 1941 de3d 60b3 62bc 8154 febd 4b7e df3c
00000050: de2e ea3d 9ba0 203e 8d30 183e 720d 2f3e
00000060: 4258 343e 2ddb a7bd 776e f1bc 3fc3 003e
00000070: 5fe1 c5bc 8677 753d 9de4 273e f310 eabc
00000080: f90f 74bc ac01 ae3d f697 3f3e af2b 8abd
00000090: 9b1c b9ba deb5 32be f288 1f3d 03f6 223d
000000a0: 9197 143e 69bf 1dbe 363f cabd 4711 3e3e
000000b0: a1f3 89bd aa79 023d e822 3c3e c616 4b3e
000000c0: 2399 4ebc 73ca 55be ac71 01be 6297 26be
000000d0: 3004 57bc 20c5 03be ffa3 263e 49bf 2fbe
000000e0: 6b8e 6abc 4e44 bd3d 4c2e cdbd 3b03 253e
000000f0: 4500 983d daf4 643e 778e 653d 418b 383e
00000100: 4926 91bd 7f3a 303d c491 3e3d d3b9 d6bd
00000110: 7a6e 753d 3bdb e7bd 8f93 fd3c 82c2 813c
00000120: 398b fdbe 50ce 313d 17f3 c33d b87d 1ebf
00000130: 3df8 bb3d a3ff 653d f108 31be fa7d 47be
00000140: 42d2 bf3c 4a43 893d 32c0 e1bd 2834 aabe
00000150: bc3c c4be 5ac1 ee3c dbfb f53e 6c09 fdbd
00000160: c1fc a4be c942 113e a02a 09bf 2a9f 0ebe
00000170: 2538 e4bc b306 1dbf b16b f33d 4ba1 d33d
00000180: a203 e1be e1a9 bc3d 33de 07be f752 c3be
00000190: 3ec9 a7bd 81a3 043d a0e8 d0be 3fd4 34bc
000001a0: 094b b03d 1034 b9be 581b c23d 7c4f 183e
000001b0: a1e2 05bf a2ba 33bd caa0 fa3d 9394 02bf
000001c0: 7b3f a2bd 73d4 14bc b393 00bf 8e67 4a3e
000001d0: 26f5 b13c 5dd5 8cbe 25c7 7d3d 0db5 2cbe
000001e0: c3b9 1abf 367d 9abc b0db cebb 1c5a 30be
000001f0: 2dfa 2ebe b1bb 0c3e f494 dcbe a690 903d
00000200: d3b6 d13c 6a50 edbe fdac bc3c d868 d03d
00000210: 356c f0be 9f37 083e 0430 debd d1e0 dcbe
00000220: 5f62 72bd f177 e5bd 1902 2abf 1887 8fbe
00000230: 0c54 46bd 70ca c1be ea33 7b3d b2a0 19be
00000240: ef1c 763d b2b9 f0bd 499e 4f3b b07d 3fbe
00000250: 423a 62be d914 c6bc 5899 023d 5cb8 e2bd
00000260: 6617 003e 83bf 79be deec 8f3c 5c2e ddbd
00000270: cab2 71bd e118 88be 993a ac3d 706a 31be
00000280: 6e75 babd 1520 893b 1b17 05be 1368 03be
00000290: ae47 f6bd 5442 d6bd d094 403e 1790 f8bd
000002a0: 0073 a93d 93d8 2a3e a0e1 02bd a342 1b3c
000002b0: 8a32 9cb8 3089 14bc f3b6 d5bc 0da6 fbbd
000002c0: 9a0d 6abe 98f6 403e 9472 5cbd 5013 3ebc
000002d0: f2c9 93bd 18be 433d b634 d4bd 9af9 b4bd
000002e0: 64cc 3d3e 2d27 063e d3f1 4bbc 1b80 92bd
000002f0: 8950 893c f744 80bd aad3 52bd 2201 98bd
00000300: e67f dabd d79c 143e e3ab 223e c84b e0b9
00000310: 212f 193d 5ac0 e2bd 2a32 443c a42f cdbd
00000320: e858 dd3d eb8b ab3c 57c4 123e 28d6 013e
00000330: 1e31 5abd 8d1c 803d fdd5 dc3d 19c6 0cbe
00000340: dd37 043e 6b25 d0bd a561 fd3d ab31 5f3e
00000350: 699a 013e 3194 2bbd 7f87 f13b 90b8 833c
00000360: 3117 0abf 962c 0cbf f83c c1be ae33 993d
00000370: 69e2 3d3e bd17 783d 5eef bf3d 3975 a43d
00000380: 308b 013e 5983 91be 4873 aebe 1945 bebd
00000390: 088f c8be d901 0e3e e5d5 423e 3837 75be
000003a0: 3f5f a73d d484 d9bb 50ed 02bf 767c 16bf
000003b0: 7f4c b1be c30e 1f3e dfc1 103d 39f8 88bd
000003c0: eee4 023e 252a 1c3e a324 42bd 2f23 04bf
000003d0: 20d6 b0be b97a 1bbf 0d9e 363e c079 5b3e
000003e0: 7e41 813d 6bf6 15be 7805 11bd 9a8c 4c3c
000003f0: 140a 8cbe f24a e7be e5e9 18bf aa0b fdbd

u2.conv3.bias f4 [8]
0.0026808404 0.0063865976 -0.006082629 -0.02286173 -0.00042778478 -0.0051400815 0.006098584 -0.017958047
00000000: 0ab1 2f3b aa46 d13b ca50 c7bb 8648 bbbc
00000010: 4d48 e0b9 216e a8bb a1d6 c73b c11c 93bc

u2.G.weight f4 [1, 8, 3, 3]
0.15809274 -0.1161331 0.07984193 0.21419439 -0.17262314 0.13740352 -0.0092592975 -0.04284994
0.047089886 0.15265356 0.3038885 0.19638944 0.062681526 -0.117101796 0.28873083 -0.009624801
-0.0033040196 0.058983803 0.14519076 0.26444563 -0.24346906 0.12609375 -0.09197813 -0.16751829
-0.041011415 0.037017412 -0.06389804 -0.030741483 -0.110222355 0.1054324 0.098196186 -0.09349752
0.26771006 0.21819718 0.091815166 -0.098167576 -0.03900766 -0.036629047 0.07891791 -0.22183977
0.22730213 -0.14105484 -0.23740524 -0.06798719 -0.113698944 0.14049159 0.18793586 0.0125409765
0.038410164 -0.047079917 -0.08406374 0.2022733 0.23854445 0.10085637 0.15490305 -0.2370215
0.0686338 0.050252337 -0.24215814 0.10595633 -0.1615337 0.2500985 0.073297426 0.17131911
-0.030098727 -0.17573284 0.0077762776 -0.20979354 -0.2722578 -0.032590833 0.01380966 -0.0098098945
00000000: 10e3 213e 31d7 edbd 2a84 a33d c655 5b3e
00000010: 1fc4 30be 82b3 0c3e 4fb4 17bc 6b83 2fbd
00000020: 53e1 403d 3751 1c3e 4697 9b3e 501a 493e
00000030: 2c5f 803d 11d3 efbd 87d4 933e 57b1 1dbc
00000040: 4088 58bb 0099 713d e3ac 143e 6b65 873e
00000050: f44f 79be b81e 013e 085f bcbd ea89 2bbe
00000060: 96fb 27bd 929f 173d fadc 82bd 90d5 fbbc
00000070: 42bc e1bd f1ec d73d 151b c93d a17b bfbd
00000080: 4b11 893e 156f 5f3e 9709 bc3d 150c c9bd
00000090: 7fc6 1fbd 5708 16bd b79f a13d f729 63be
000000a0: e4c1 683e ae70 10be 5c1a 73be de3c 8bbd
000000b0: feda e8bd 07dd 0f3e 4272 403e ab78 4d3c
000000c0: fa53 1d3d dfd6 40bd 9c29 acbd bb20 4f3e
000000d0: ff44 743e c98d ce3d e89e 1e3e c4b5 72be
000000e0: e18f 8c3d 65d5 4d3d 4ef8 77be a2ff d83d
000000f0: 1769 25be e90c 803e f61c 963d 476e 2f3e
00000100: 9b91 f6bc 4ff3 33be 25d0 fe3b 1ed4 56be
00000110: 6065 8bbe f77d 05bd ea41 623c aeb9 20bc

u3.E.weight f4 [8, 1, 3, 3]
0.30859464 0.0017218462 -0.14051318 0.1472598 0.08974556 -0.03055077 -0.05715454 -0.10949712
-0.2119824 0.06099901 0.049205914 0.24572147 -0.07937426 -0.13641289 -0.048218008 0.24606214
-0.25359133 0.1271546 -0.073178284 0.22931479 0.19936627 0.12088897 0.04580884 -0.11828285
-0.18711896 0.13313244 -0.11858977 -0.16372861 -0.13769771 0.003943286 0.16486832 0.139748
-0.00843631 -0.1744178 -0.1780702 -0.260612 0.03439348 0.10720446 -0.05893858 -0.027305968
0.24648647 -0.09938231 0.020026779 0.18477906 -0.096197985 0.21837965 -0.08965052 0.14596516
-0.22585715 0.15471944 -0.1038912 0.27541503 -0.24079493 -0.12720424 0.046414185 0.16555193
0.07509585 0.098617956 -0.21105866 -0.03693987 0.09632083 -0.05242381 0.07995003 0.089705236
0.20766243 0.021310996 0.15216212 0.08668518 -0.11259628 -0.029058583 0.17237768 -0.22292642
00000000: 1e00 9e3e 92af e13a b0e2 0fbe 46cb 163e
00000010: 85cc b73d 9c45 fabc e11a 6abd 0740 e0bd
00000020: ea11 59be 19da 793d 248c 493d 699e 7b3e
00000030: f98e a2bd d2af 0bbe 3f80 45bd b7f7 7b3e
00000040: b9d6 81be d134 023e 7fde 95bd 7fd1 6a3e
00000050: ac26 4c3e a394 f73d 0da2 3b3d 473e f2bd
00000060: 1d9c 3fbe df53 083e 31df f2bd 79a8 27be
00000070: a100 0dbe ae36 813b 3ed3 283e 1a1a 0f3e
00000080: 7338 0abc 949a 32be 0958 36be f06e 85be
00000090: 2de0 0c3d 038e db3d 9569 71bd c4b0 dfbc
000000a0: f366 7c3e f488 cbbd 330f a43c b936 3d3e
000000b0: 7303 c5bd ea9e 5f3e b19a b7bd e477 153e
000000c0: 1947 67be c66e 1e3e e9c4 d4bd 3303 8d3e
000000d0: f292 76be d441 02be cd1c 3e3d 7286 293e
000000e0: dacb 993d 36f8 c93d c31f 58be 434e 17bd
000000f0: db43 c53d 59ba 56bd d7bc a33d 61b7 b73d
00000100: 76a5 543e 6694 ae3c 63d0 1b3e 0088 b13d
00000110: e198 e6bd 440c eebc c683 303e d346 64be

u3.E.bias f4 [8]
-0.009190834 -0.002360982 -0.009651784 0.0007683145 -0.006101637 0.008576776 0.0027208782 -0.009638874
00000000: 2795 16bc b4ba 1abb 8422 1ebc b768 493a
00000010: 3ef0 c7bb 9b85 0c3c c350 323b 5eec 1dbc
