src/pretrained/model_S_syn.pt (torch_old, 36831 bytes, 36 tensors)

u1.E.weight f4 [8, 1, 3, 3]
0	0xbe80ac2c	-0.25131357
1	0xbe12266a	-0.14272466
2	0xbd779f22	-0.060454495
3	0xbe4c3d85	-0.19945343
4	0x3d4e3505	0.050343532
5	0xbd8e46c4	-0.06947091
6	0x3c8d80a5	0.017273257
7	0xbc74c53a	-0.014939601
8	0x3b64ca80	0.0034910738
9	0xbdac2246	-0.08404975
10	0xbe86eefb	-0.26354203
11	0x3d747a29	0.059686814
12	0xbbf017e9	-0.007327069
13	0xbe13804e	-0.14404413
14	0xbe745444	-0.2386027
15	0x3ad15100	0.0015969574
16	0xbe72221e	-0.23645827
17	0xbd1f3e50	-0.038877785
18	0x3e0bcc5c	0.13652176
19	0x3ca5e412	0.020250354
20	0x3e3bdecd	0.1834671
21	0x3e6e5131	0.2327316
22	0xbcbcb3ae	-0.023034897
23	0xbe01b2e7	-0.12665902
24	0xbe7aa7d2	-0.24478081
25	0x3d3ac591	0.04559857
26	0xbd5471c8	-0.051866323
27	0x3e83f42d	0.2577223
28	0xbcc8e8d5	-0.024525085
29	0x3d443ecd	0.047911454
30	0x3e023b80	0.1271801
31	0x3db11bad	0.08647857
32	0xbd0f40c0	-0.03497386
33	0x3e2774c1	0.16353132
34	0xbe01c885	-0.12674148
35	0xbe32ba9e	-0.17454001
36	0x3e5b94d6	0.21443495
37	0xbc8232fc	-0.015893452
38	0x3c0cb198	0.0085872635
39	0xbd0b5705	-0.034018535
40	0xbd7f969c	-0.06239949
41	0xbe01cde2	-0.12676194
42	0x3dfb4afc	0.122701615
43	0x3e02805c	0.12744278
44	0xbe409e8b	-0.1881048
45	0x3e8eb973	0.27875862
46	0xbe034f3d	-0.12823196
47	0xbd7f17eb	-0.06227867
48	0x3e01704b	0.12640493
49	0xbdb6e3ae	-0.08930145
50	0xbded30a5	-0.11581544
51	0xbd117130	-0.035508335
52	0xbde6bbb0	-0.11266267
53	0x3d09786d	0.033562113
54	0xbe5ce9a1	-0.21573497
55	0x3da79d07	0.081842475
56	0xbe26f169	-0.16303028
57	0x3e6ea0e6	0.23303565
58	0x3e79c70f	0.24392341
59	0xbc95bd60	-0.018278778
60	0x3e558532	0.20851591
61	0x3e4e2d7c	0.20134538
62	0x3e6750ca	0.22589412
63	0xbe218b11	-0.15775706
64	0x3def86b7	0.11695617
65	0xbd763e9e	-0.06011831
66	0xbdfacd85	-0.12246231
67	0x3dbfde50	0.093685746
68	0x3dcc5ebd	0.099790074
69	0x3e1a6a0e	0.15079519
70	0xbdabbba8	-0.08385402
71	0x3e0a0c3e	0.13481233

u1.E.bias f4 [8]
0	0xbaa41d33	-0.0012520909
1	0xbb01e837	-0.0019822249
2	0x3baafbc4	0.005218001
3	0x3b35bb48	0.0027730037
4	0x3c9f1cfb	0.019422999
5	0xbb3fe01a	-0.0029277862
6	0xbb73a80e	-0.0037179026
7	0x3ba855c1	0.005137176

u1.conv1.weight f4 [8, 8, 3, 3]
0	0xbcecabc4	-0.028890498
1	0x3d5a614a	0.05331544
2	0xbda1fed6	-0.07909934
3	0xbdd50a59	-0.10402364
4	0x3df091e5	0.11746577
5	0x3e098124	0.1342817
6	0xbe201918	-0.15634573
7	0xbdeb3491	-0.114846356
8	0xbd890940	-0.066912174
9	0xbddac251	-0.10681594
10	0x3dca1a5c	0.09868309
11	0xbd0ee404	-0.03488542
12	0xbdaf591b	-0.085619174
13	0x3d363817	0.044487085
14	0xbe3a62dc	-0.18201774
15	0x3e309ccd	0.17247315
16	0xbe3ab734	-0.18233949
17	0xbe22ea82	-0.1590977
18	0xbda1e681	-0.07905293
19	0xbe2f4578	-0.17116344
20	0x3d9407e4	0.072280675
21	0x3d409cee	0.04702466
22	0x3db002df	0.085942976
23	0x3c63617e	0.013878224
24	0x3e130cbf	0.14360331
25	0xbc650083	-0.013977173
26	0xbcbbc03f	-0.022918819
27	0xbe1b24b5	-0.15150721
28	0x3e384c66	0.17997894
29	0xbc613c62	-0.013747307
30	0xbd11d49d	-0.035603154
31	0xbc3475d0	-0.011014417
32	0x3da87711	0.08225835
33	0x3e4e3650	0.20137906
34	0xbe2e9a49	-0.17051043
35	0xbd9b5824	-0.07585171
36	0x3e852ae0	0.26009274
37	0xbdcff18f	-0.101534955
38	0x3e13cf92	0.1443465
39	0x3dc9ae92	0.0984775
40	0xbd3d6aba	-0.04624436
41	0xbe25f51a	-0.1620678
42	0x3e19e67d	0.1502933
43	0x3e26b3d6	0.1627954
44	0x3e3966a6	0.18105564
45	0x3e0e13c2	0.13874725
46	0x3db73cdd	0.089471556
47	0x3d0f9c9d	0.035061467
48	0xbe2908e2	-0.16507295
49	0x3d43e96c	0.04783003
50	0x3df34a26	0.11879377
51	0xbe87c4d5	-0.26517358
52	0xbd8f4196	-0.069949314
53	0xbe19b9f7	-0.15012346
54	0xbda2d2d5	-0.07950369
55	0x3dc566e8	0.096387684
56	0xbd802e9e	-0.062588915
57	0x3e5d66bd	0.21621223
58	0x3d67b5f0	0.056569993
59	0xbc741cc6	-0.014899438
60	0xbda11c23	-0.07866695
61	0xbda88590	-0.082286
62	0xbcfce664	-0.030871578
63	0x3e413f1e	0.18871734
64	0xbcc04be5	-0.02347369
65	0x3e58c0dd	0.21167322
66	0xbe3c2f70	-0.18377471
67	0xbe6104c7	-0.21974479
68	0x3e39afee	0.18133518
69	0x3e310b4d	0.17289467
70	0xbdb7cb8c	-0.0897437
71	0xbd2cd3c5	-0.042194147
72	0x3e48deee	0.19616291
73	0xbe06e788	-0.1317426
74	0x3cb1b4c0	0.021692634
75	0x3d797928	0.06090656
76	0xbc370bb0	-0.01117222
77	0xbc5e3760	-0.013563007
78	0x3c621ab0	0.013800308
79	0xbd506d00	-0.0508852
80	0x3dfdfb2c	0.12401423
81	0xbc3ea490	-0.011635914
82	0x3e3ff902	0.18747333
83	0x3e38356c	0.17989129
84	0x3d0ed400	0.034870148
85	0x3dc9a5e0	0.09846091
86	0x3cb182d8	0.021668836
87	0x3ca3a8d8	0.019977972
88	0x3e124e4e	0.14287683
89	0xbdee7b26	-0.116445825
90	0x3e2c602c	0.16833562
91	0x3c00f233	0.007870245
92	0xbe4f5b4a	-0.20249668
93	0x3dbb86ae	0.091565475
94	0x3dd2f885	0.103013076
95	0xbd820c95	-0.06350056
96	0xbdd5e1f0	-0.10443485
97	0xbe677224	-0.22602135
98	0x3e117351	0.14204146
99	0xbdef63a0	-0.11688924
100	0xbe1118a1	-0.14169551
101	0xbdbc32e1	-0.09189392
102	0xbda77cd8	-0.08178109
103	0xbd2f1053	-0.042740177
104	0xbe3fed23	-0.18742804
105	0xbde68579	-0.11255927
106	0xbd71b291	-0.059008185
107	0xbe3590b5	-0.17730983
108	0x3ce7ed2d	0.028311336
109	0xbce29256	-0.027657669
110	0x3c99b4d1	0.018762978
111	0xbdafa0ed	-0.08575616
112	0xbde55ab0	-0.11198938
113	0x3dc26405	0.094917335
114	0x3e070b02	0.13187793
115	0x3dbf3694	0.09336582
116	0xbda054fe	-0.07828711
117	0xbd8ae94e	-0.067827806
118	0xbdfc5260	-0.12320399
119	0x3d3e31ea	0.04643432
120	0xbe134188	-0.14380467
121	0x3d3ccff3	0.046096753
122	0xbc90f440	-0.017694592
123	0xbcbb1220	-0.022835791
124	0xbd7e8e12	-0.062147208
125	0xbe1c008f	-0.15234588
126	0xbe28f6c6	-0.16500387
127	0x3dd127f5	0.10212699
128	0xbdbb0fa7	-0.09133845
129	0xbd9361cf	-0.0719639
130	0xbe2ab4de	-0.16670558
131	0xbcb882c3	-0.02252329
132	0xbe2db4d0	-0.16963506
133	0xbc0f8016	-0.008758565
134	0xbe4fc8ff	-0.20291518
135	0x3c6cc47d	0.014451143
136	0x3e1febe5	0.1561733
137	0xbe46ee0d	-0.19426747
138	0x3d826820	0.063675165
139	0xbe1233a0	-0.14277506
140	0x3db3feb7	0.087888174
141	0xbe4344ff	-0.19069289
142	0x3dd2b8e9	0.10289175
143	0x3d963a86	0.07335381
144	0x3e56c7b6	0.20974621
145	0x3d4f7970	0.05065292
146	0x3c845708	0.016154781
147	0xbe127c4e	-0.14305231
148	0x3e3c9971	0.18417908
149	0x3bf79153	0.007555166
150	0x3e1e2bcb	0.15446393
151	0x3dd00bac	0.10158476
152	0xbe36ea73	-0.17862873
153	0x3e3a1392	0.18171528
154	0x3b563180	0.0032683313
155	0x3d474530	0.048649967
156	0xbe1044fe	-0.14088818
157	0x3da18c5f	0.07888102
158	0xbd714388	-0.058902293
159	0xbd78046d	-0.060551096
160	0xbc096f13	-0.008388299
161	0x3dbdbc3d	0.09264419
162	0xbe0641a0	-0.13110971
163	0x3c689928	0.014196672
164	0x3d760a6d	0.060068537
165	0x3db1cc5d	0.08681557
166	0xbe11620c	-0.14197558
167	0x3dde50bb	0.10855242
168	0x3e275cf0	0.16344047
169	0xbdd6713a	-0.10470815
170	0xbdd3ab1a	-0.103353694
171	0xbda4391b	-0.080187045
172	0xbe650c9d	-0.22368093
173	0xbe3a0a59	-0.1816801
174	0xbda93da5	-0.08263711
175	0xbe23c34b	-0.15992467
176	0xbd2b191d	-0.041771997
177	0x3d7f92a9	0.062395725
178	0xbcfea9d3	-0.031086838
179	0x3e23da41	0.16001226
180	0x3cfebfad	0.031097258
181	0xbc8499eb	-0.016186675
182	0x3d777de3	0.06042279
183	0x3dfa6321	0.122259386
184	0x3e96e3a7	0.2947056
185	0x3e23aa96	0.15983042
186	0x3e8455bc	0.2584666
187	0xbe10c51f	-0.14137696
188	0x3d35cf0a	0.0443869
189	0x3e85334b	0.26015696
190	0x3e8cc0a6	0.2749073
191	0x3db24b98	0.087058246
192	0xbe033b0b	-0.12815492
193	0x3da12ff1	0.07870472
194	0x3c83cb4e	0.016088154
195	0xbdec9250	-0.115513444
196	0xbe93ed78	-0.28892112
197	0xbeaa7a85	-0.332966
198	0xbd6168e4	-0.055031672
199	0x3df93480	0.12168217
200	0x3e436b04	0.19083792
201	0xbd14e7ef	-0.036354
202	0xbe173bda	-0.14768925
203	0x3d7aa516	0.061192594
204	0x3d93f7f6	0.07225029
205	0xbd9d69ab	-0.0768617
206	0x3e079d6d	0.13243647
207	0x3d509a2a	0.050928272
208	0xbd85e63a	-0.06538053
209	0x3d57f64b	0.052725118
210	0xbdd86b15	-0.10567299
211	0x3d84a7e6	0.064773366
212	0xbcf0088c	-0.02930095
213	0x3dbfc407	0.09363561
214	0xbd960fcf	-0.07327234
215	0xbdb9833f	-0.09058236
216	0xbd9f7e1f	-0.077877276
217	0x3cf1cc4d	0.029516364
218	0xbe2e95a5	-0.17049272
219	0xbe06d6c3	-0.13167863
220	0xbc936287	-0.017991317
221	0x3e4db2c7	0.2008773
222	0xbcea6ea5	-0.028617213
223	0xbc8fd025	-0.017555306
224	0xbe4571e9	-0.19281735
225	0xbe3b1fd8	-0.18273866
226	0x3ba5af00	0.005056262
227	0xbd44c398	-0.048038095
228	0x3dc7033b	0.09717413
229	0xbdedc5f0	-0.11610019
230	0x3ba4bbea	0.005027284
231	0xbc162639	-0.009164386
232	0xbe01170d	-0.1260645
233	0xbc13ab60	-0.009013027
234	0xbd40bbdb	-0.047054153
235	0x3db7fea0	0.08984113
236	0x3d99b196	0.07504575
237	0xbdb87bb7	-0.09007972
238	0xbdfa9c6a	-0.12236865
239	0xbe1fc09c	-0.15600818
240	0x3d9fcf9e	0.07803272
241	0x3e4d6da2	0.20061353
242	0xbd82f817	-0.06394976
243	0xbdb257d1	-0.08708156
244	0xbe418f75	-0.18902381
245	0xbe2358ba	-0.15951815
246	0x3da6fdec	0.081539005
247	0x3d82f8c7	0.06395107
248	0x3e4c1925	0.19931467
249	0x3df64fdc	0.12026951
250	0xbdf2d6b2	-0.11857356
251	0x3d5fa9ea	0.054605402
252	0x3de1ec97	0.11031454
253	0xbd633d41	-0.05547834
254	0xbdc0441e	-0.09387992
255	0xbc38a4ae	-0.011269731

u1.conv1.bias f4 [8]
0	0x3b117c1e	0.0022199224
1	0xbc9ac41c	-0.01889234
2	0xbd44ec88	-0.048077136
3	0x3c41eaa9	0.0118357325
4	0xbb8b5cb1	-0.004252993
5	0x3c088c03	0.008334163
6	0x3c470b9e	0.012148766
7	0xbbf618de	-0.0075102886

u1.conv2.weight f4 [8, 8, 3, 3]
0	0x3e01bd64	0.12669903
1	0x3dde76f9	0.10862536
2	0x3da96f3e	0.08273171
3	0x3e760fd5	0.24029477
4	0xbd2c6888	-0.042091876
5	0xbd274e10	-0.04084593
6	0xbe27740c	-0.16352862
7	0xbc804699	-0.015658664
8	0x3d9a1ce4	0.07525042
9	0xbca93448	-0.020654812
10	0xbe283b6c	-0.16428918
11	0x3d4ce0a0	0.050018907
12	0x3dd6bec9	0.10485608
13	0xbe4bae5f	-0.19890736
14	0xbe0c6adb	-0.13712637
15	0x3ba857da	0.005137426
16	0x3cce6c5f	0.02519816
17	0xbe0e9d16	-0.13927111
18	0x3daa428f	0.08313476
19	0x3dbddecb	0.0927101
20	0x3e311cde	0.17296168
21	0x3e36ab49	0.17838778
22	0x3eb31c6e	0.34982628
23	0x3c9b52f9	0.018960463
24	0x3dfd3c75	0.12365047
25	0x3e56642b	0.20936649
26	0x3e3f7fb4	0.18701059
27	0x3d0e43a7	0.034732487
28	0xbd0a10b7	-0.033707347
29	0xbe0dc5bd	-0.13844962
30	0x3e080d7a	0.13286391
31	0x3e46c3c8	0.19410622
32	0x3e291de9	0.16515316
33	0x3e373940	0.17892933
34	0xbc4c8828	-0.012483634
35	0x3db36806	0.08760075
36	0x3b3d00f7	0.0028839686
37	0xbe224dc7	-0.15849982
38	0xbe0f6131	-0.1400192
39	0xbe310dd6	-0.17290434
40	0xbe253fa4	-0.16137558
41	0xbe005d0b	-0.12535493
42	0xbd9820cb	-0.0742813
43	0x3c929a9f	0.017895995
44	0x3bd881fe	0.006607293
45	0x3d80e8d5	0.06294409
46	0x3df24fb4	0.118316084
47	0x3d19da33	0.037561607
48	0x3d9418e7	0.07231312
49	0xbd4e2054	-0.0503238
50	0xbc0ef985	-0.008726482
51	0x3bb8360b	0.005621677
52	0xbe331939	-0.1749009
53	0xbdb11119	-0.08645839
54	0x3ceeaebd	0.029136056
55	0xbdae41c6	-0.08508639
56	0xbca2d5a3	-0.01987726
57	0xbdda0c42	-0.10646869
58	0xbe25908e	-0.16168424
59	0xbc223b18	-0.009901784
60	0xbd90785c	-0.07054207
61	0xbd941818	-0.07231158
62	0xbd35e26f	-0.044405397
63	0x3e04edbb	0.12981312
64	0x3dc8241e	0.09772514
65	0x3da98019	0.08276386
66	0xbdf7437e	-0.1207342
67	0xbe569792	-0.20956257
68	0xbe4722b7	-0.19446836
69	0x3b184e2c	0.0023239953
70	0xbd0f4291	-0.034975592
71	0xbd1e6548	-0.038670808
72	0xbe2178bf	-0.15768717
73	0xbe8cc49a	-0.27493745
74	0xbe67df82	-0.22643855
75	0x3e0d5a24	0.13803917
76	0xbdacaba2	-0.08431174
77	0xbe55aa21	-0.2086568
78	0xb8c457a9	-9.362336e-05
79	0xbe11b87a	-0.14230528
80	0xbded3777	-0.11582845
81	0xbe283f29	-0.16430344
82	0x3cad43b1	0.021150442
83	0x3e1bd897	0.15219341
84	0x3ded95d9	0.11600847
85	0x3d931373	0.07181444
86	0xbde43da3	-0.11144569
87	0x3d2713ea	0.040790476
88	0xbe1c008a	-0.1523458
89	0xbe0de042	-0.13855079
90	0xbdc6d940	-0.09709406
91	0x3d39f4ac	0.045399353
92	0xbd809964	-0.06279257
93	0xbe0ae6c4	-0.13564593
94	0x3e4f9de0	0.20275068
95	0x3b1501f5	0.0022736762
96	0x3d82a3fa	0.06378932
97	0x3e39041f	0.18067978
98	0x3d95c752	0.07313408
99	0x3d2f78b9	0.04283974
100	0x3dd9c549	0.10633332
101	0xbd9090ef	-0.07058894
102	0x3e16e12b	0.14734332
103	0x3db48177	0.08813756
104	0x3d366e7a	0.044538952
105	0xbe27029f	-0.16309594
106	0x3e1afc84	0.1513539
107	0x3d70c413	0.05878074
108	0x3dfcaf70	0.123381495
109	0x3d085221	0.03328145
110	0x3c2905dc	0.010316338
111	0x3dfddd43	0.12395718
112	0x3b691eff	0.0035571454
113	0x3ce1be0a	0.027556438
114	0xbe165fcf	-0.14684986
115	0xbd7b41cc	-0.061342046
116	0xbbaa151b	-0.0051905042
117	0x3dd38d95	0.10329739
118	0x3df31750	0.11869681
119	0xbe03d94c	-0.12875861
120	0xbdc04507	-0.09388166
121	0xbe128745	-0.14309414
122	0x3c1ff963	0.009764048
123	0x3d3ccba7	0.046092656
124	0x3e8cb4ac	0.27481592
125	0xbdd5769c	-0.104230136
126	0xbe0c6db5	-0.13713725
127	0x3dac4026	0.08410673
128	0xbdb47530	-0.08811414
129	0xbc858d6a	-0.016302783
130	0xbcabbd7e	-0.02096438
131	0x3dc0a5fa	0.094066575
132	0x3e39ed87	0.18157016
133	0x3e31ddf4	0.17369825
134	0xbdc6a0c2	-0.09698631
135	0x3e1fbeca	0.15600124
136	0xbd57ebe4	-0.052715197
137	0xbced8c62	-0.028997604
138	0xbd991e67	-0.07476502
139	0xbe1e0614	-0.15432006
140	0xbd292d06	-0.041302703
141	0xbd3d01a4	-0.046144143
142	0xbe352159	-0.17688502
143	0x3dad8d91	0.08474267
144	0xbd3ae3bd	-0.045627344
145	0x3e19f564	0.15035015
146	0xbe6de784	-0.23232847
147	0x3e66d646	0.22542676
148	0x3d215b4c	0.039393708
149	0x3e216d18	0.15764272
150	0x3bd83388	0.00659794
151	0xbe6cd9b2	-0.23129919
152	0xbe8b3b8b	-0.27193865
153	0xbd8897ea	-0.066696
154	0x3e437c91	0.19090487
155	0xbd68daa8	-0.05684915
156	0xbcfcc88e	-0.03085735
157	0x3c9f356f	0.019434659
158	0x3e453f22	0.19262365
159	0x3e363133	0.17792206
160	0xbd56e828	-0.052467495
161	0xbcb8e2b2	-0.022569034
162	0xbdffba15	-0.12486664
163	0xbd8e6957	-0.06953686
164	0x3e18b307	0.14912044
165	0xbdfdae3a	-0.12386747
166	0xbe48fe01	-0.19628145
167	0x3d96137a	0.073279336
168	0xbe831336	-0.25600594
169	0xbddefc54	-0.108879715
170	0xbe3f7c4f	-0.18699764
171	0xbe0bbf74	-0.13647252
172	0x3c16dbe4	0.009207699
173	0x3d063de9	0.032773886
174	0xbd217b70	-0.03942436
175	0xbcdb9eaa	-0.026809055
176	0x3cc40095	0.023926059
177	0xbdde4923	-0.108537935
178	0x3dd42827	0.10359221
179	0x3d2f3f16	0.042784773
180	0xbccb0b37	-0.024785621
181	0x3dce96fa	0.1008739
182	0x3e50d56a	0.20393911
183	0x3d8c4737	0.06849521
184	0xbda17cc0	-0.07885122
185	0x3de3ef50	0.111296296
186	0xbe895501	-0.26822665
187	0xbe516a63	-0.2045074
188	0xbe08a761	-0.133451
189	0xbea4e397	-0.32204887
190	0x3e12e870	0.1434648
191	0xbe29be90	-0.165766
192	0xbd826521	-0.06366945
193	0x3dfc0c09	0.12306983
194	0xbe85827f	-0.26076123
195	0xbe6d29f5	-0.23160537
196	0x3e983442	0.2972737
197	0xbec47183	-0.38367853
198	0xbc81bb66	-0.015836429
199	0x3d8f53f3	0.06998434
200	0x3e21416f	0.15747617
201	0x3e21cda5	0.15801103
202	0xbe059559	-0.13045253
203	0x3e11c340	0.14234638
204	0xbe03fcbc	-0.1288938
205	0x3e09efd4	0.13470393
206	0xbe07f531	-0.13277127
207	0xbde53413	-0.11191573
208	0x3e466e60	0.19378042
209	0xbc74f248	-0.0149503425
210	0x3c058685	0.008149748
211	0x3d1c713f	0.038193937
212	0x3d478b2a	0.0487167
213	0xbe01acf2	-0.1266363
214	0x3d812221	0.06305338
215	0xbe357d00	-0.17723465
216	0x3dceed11	0.101038106
217	0x3d802b4b	0.062582575
218	0xbea8163f	-0.32829472
219	0x3e1aa929	0.15103592
220	0xbd591879	-0.053001855
221	0xbd46a27a	-0.048494793
222	0x3c3242a7	0.010880149
223	0xbe953831	-0.29144433
224	0xbdba505e	-0.0909736
225	0xbe12ba1d	-0.14328809
226	0xbc060a10	-0.00818111
227	0xbe18d244	-0.1492396
228	0xbceda309	-0.029008405
229	0x3d7f01d2	0.062257595
230	0xbd8054e1	-0.06266189
231	0x3e363a16	0.17795596
232	0xbd1c4cad	-0.03815906
233	0x3dbd5d29	0.092462845
234	0xbd651991	-0.055932585
235	0xbdb080c3	-0.08618309
236	0x3d8caa42	0.068684116
237	0xbdbc0c71	-0.091820605
238	0x3d2eb8f0	0.04265684
239	0xbdbcefb2	-0.09225406
240	0xbe20c351	-0.15699507
241	0x3e55a7a9	0.20864739
242	0xbde64596	-0.11243741
243	0x3c58fd18	0.013243936
244	0x3e6651fb	0.2249221
245	0xbdc9360e	-0.09824763
246	0xbe5290c9	-0.20563044
247	0x3e0a3cf6	0.13499817
248	0x3d883ffb	0.06652828
249	0x3e036d37	0.12834631
250	0x3d41365c	0.04717098
251	0x3ce317e1	0.027721347
252	0x3d7ce432	0.06174106
253	0xbe5ac6bf	-0.21364878
254	0x3da77a12	0.0817758
255	0x3d79399a	0.06084595

u1.conv2.bias f4 [8]
0	0xb87190f8	-5.759389e-05
1	0x3bea1433	0.007143521
2	0xbbabfe82	-0.0052488456
3	0x3cb59c85	0.02216936
4	0xbc28fe6c	-0.010314565
5	0x3c1502d8	0.009094916
6	0xbd6ae92b	-0.057351273
7	0x3c00d327	0.007862843

u1.conv3.weight f4 [8, 8, 3, 3]
0	0xbe1c85b5	-0.1528538
1	0x3b785488	0.0037892181
2	0xbe23eb2f	-0.16007684
3	0xbe6c5176	-0.2307795
4	0xbe1f6884	-0.15567213
5	0xbe4bcc5e	-0.19902179
6	0x3ce29aa1	0.027661623
7	0x3e03650b	0.12831514
8	0xbe006104	-0.12537009
9	0xbdcc1573	-0.099650286
10	0xbdc4edfc	-0.096157044
11	0xbdf5e381	-0.120062836
12	0x3c404491	0.0117350975
13	0x3c9f59c8	0.01945199
14	0xbced266a	-0.028948981
15	0xbe11be9c	-0.14232868
16	0x3dfcca0c	0.12343225
17	0xbe357506	-0.17720422
18	0xbe0e834e	-0.13917276
19	0xbe6f2e94	-0.23357612
20	0x3d48a688	0.04898694
21	0xbe3b5443	-0.18293862
22	0x3c96bf98	0.018401906
23	0xbdc8e4ba	-0.09809251
24	0xbdd88a76	-0.10573284
25	0xbe5cf088	-0.2157613
26	0xbc01c863	-0.007921311
27	0x3ce913dc	0.028451853
28	0xbe04b61c	-0.12960094
29	0xbcda7904	-0.026669033
30	0xbd491782	-0.049094684
31	0xbd7834bd	-0.06059717
32	0xbe235ca2	-0.15953305
33	0xbe0fe635	-0.14052661
34	0x3dce4c5b	0.100731574
35	0x3d26ce04	0.040723816
36	0xbd6045ae	-0.05475395
37	0x3d7c7be6	0.061641596
38	0x3dcbaf8b	0.099455915
39	0x3dbdc7d2	0.09266628
40	0x3d874873	0.066056155
41	0xbe0e29f4	-0.13883191
42	0x3ddbf62c	0.10740313
43	0xbccae163	-0.024765676
44	0x3d452e46	0.048139833
45	0xbdc07b27	-0.093984894
46	0xbe317df7	-0.17333208
47	0xbdbc9923	-0.09208896
48	0xbc11c6ea	-0.008897522
49	0xbc4b01ea	-0.012390593
50	0x3d6a53b2	0.057208724
51	0x3e092a50	0.13395047
52	0xbe7f6b33	-0.24943237
53	0xbd395e31	-0.045255844
54	0x3e3d0a7b	0.18461029
55	0x3b9481d8	0.00453208
56	0xbe0e44f8	-0.13893497
57	0xbc71f56a	-0.014767984
58	0xbe8fe749	-0.28106144
59	0xbddfceeb	-0.10928138
60	0xbde7c8ef	-0.11317622
61	0x3e1771cf	0.14789508
62	0x3d892390	0.06696236
63	0xbde1f282	-0.11032583
64	0x3ddeda54	0.108814865
65	0xbe1748e8	-0.14773905
66	0xbe14c99e	-0.14530036
67	0xbc1fa971	-0.009744988
68	0xbc40b1d1	-0.011761145
69	0x3d8f255e	0.06989549
70	0x3d98f839	0.0746922
71	0x3e1e999c	0.15488285
72	0xbe8369b7	-0.25666592
73	0xbd0ddecf	-0.034636315
74	0xbbb59b79	-0.0055422154
75	0xbec9e0e2	-0.39429384
76	0x3e349561	0.17635109
77	0x3e2ff028	0.17181456
78	0xbc9e5e4b	-0.019332072
79	0x3dd274a2	0.10276152
80	0xbd95f1d3	-0.07321515
81	0xbd9eb4b7	-0.07749312
82	0x3e546f5c	0.20745605
83	0x3d82d132	0.06387557
84	0xbe7ec475	-0.2487963
85	0x3e6175ad	0.22017546
86	0x3c9dd93e	0.019268628
87	0xbe26fc2f	-0.16307138
88	0xbd68d954	-0.056847885
89	0xbe002cf6	-0.12517151
90	0xbe906bc7	-0.28207228
91	0x3c3eba27	0.011641062
92	0x3d8482b6	0.06470244
93	0xbe306be1	-0.17228653
94	0x3de74293	0.11291995
95	0x3c8f0f7e	0.017463442
96	0x3cb0f010	0.021598846
97	0x3d480626	0.04883399
98	0x3d8e7f1c	0.06957838
99	0xbe875b42	-0.26436812
100	0xbd566f32	-0.052352138
101	0xbcf493a2	-0.029855553
102	0xbec58cab	-0.38583884
103	0x3e930c0b	0.28720126
104	0xbce3bd6a	-0.02780028
105	0xbeba07c1	-0.3633404
106	0x3a8602b7	0.0010224198
107	0x3c08c779	0.008348339
108	0xbe890334	-0.26760256
109	0xbe4f2d38	-0.20232093
110	0xbdedb26c	-0.11606297
111	0xbddd6aa4	-0.10811356
112	0x3e085a2c	0.13315648
113	0x3d94e937	0.07271045
114	0xbdfda2a5	-0.123845376
115	0x3e026e1b	0.12737314
116	0xbcb567d9	-0.022144245
117	0xbea2ed78	-0.318218
118	0x3d26dfa0	0.04074061
119	0x3e195f55	0.14977773
120	0xbe919988	-0.28437448
121	0xbe86e2c8	-0.26344895
122	0xbd11859d	-0.035527814
123	0xbe1053bc	-0.14094442
124	0xbc83665f	-0.016040025
125	0xbd9239d0	-0.07139933
126	0xbeefb93a	-0.46821004
127	0xbe063299	-0.13105239
128	0xbd1f789c	-0.03893338
129	0xbef0432f	-0.46926257
130	0x3d31554b	0.043294232
131	0xbe0bcca9	-0.1365229
132	0xbceb5cc4	-0.028730758
133	0xbe0c545f	-0.1370406
134	0x3d618ceb	0.05506603
135	0xbe994342	-0.29934126
136	0x3de75791	0.11295999
137	0x3e0f9905	0.14023216
138	0xbea3c7b6	-0.31988305
139	0xbd801ccc	-0.062554926
140	0xbc8caab8	-0.017171249
141	0xbd5e5582	-0.054280765
142	0x3d91b941	0.071154125
143	0xbdc36594	-0.09540859
144	0x3dab36cb	0.0836006
145	0xbe333b15	-0.17503007
146	0xbdc18268	-0.09448701
147	0xb9eb89c1	-0.00044925328
148	0xbf0149ff	-0.50503534
149	0xbc54115a	-0.01294359
150	0xbda0b32d	-0.07846675
151	0xbeb03305	-0.34413925
152	0x3dc2756c	0.09495053
153	0x3bd172a3	0.0063918396
154	0xbe806f93	-0.25085124
155	0x3caf8a5c	0.02142828
156	0xbd2b1434	-0.041767314
157	0xbdec7aea	-0.115468815
158	0x3de4443e	0.11145829
159	0xbd14de28	-0.036344677
160	0xbe022a54	-0.1271146
161	0xbd8862f6	-0.066595
162	0xbd44c3c8	-0.048038274
163	0x3dad0f1d	0.08450148
164	0xbdb1f06d	-0.08688436
165	0xbe18ea4e	-0.1493313
166	0x3e1afe2f	0.15136026
167	0xbe13b1f9	-0.1442336
168	0x3de1304e	0.109955415
169	0x3e086f6a	0.13323751
170	0xbd68d68e	-0.05684524
171	0x3df3f053	0.119110726
172	0xbd9c6511	-0.076364644
173	0xbe00d0fe	-0.12579724
174	0xbe3828ea	-0.17984357
175	0xbe78e568	-0.24306262
176	0xbd0ceeb6	-0.03440734
177	0x3d487f33	0.04894943
178	0xbdd38f65	-0.10330085
179	0xbd9e29b8	-0.07722801
180	0x3dd19eed	0.10235391
181	0x3df6e2b6	0.120549604
182	0xbd69e6b8	-0.057104796
183	0x3dcb316e	0.09921537
184	0x3e38ff46	0.18066129
185	0xbd8490b2	-0.06472911
186	0xbcd19046	-0.02558149
187	0x3e76b2a7	0.24091588
188	0xbda7b3e6	-0.0818861
189	0x3d5030cc	0.050827786
190	0x3e3d2014	0.18469268
191	0xbe4179f7	-0.18894182
192	0xbdaa22a3	-0.08307388
193	0x3d982798	0.07429427
194	0xbe36078a	-0.17776313
195	0xbe70ba38	-0.23508537
196	0x3e435fc1	0.19079496
197	0xbe3b55ad	-0.18294401
198	0xbe2b7277	-0.16742884
199	0x3e118208	0.14209759
200	0x3e011c86	0.12608537
201	0x3de80162	0.11328389
202	0xbdbd8820	-0.092544794
203	0x3e21ecb8	0.15812957
204	0xbe19fec9	-0.15038599
205	0xbab668a0	-0.0013916679
206	0x3d7d9763	0.06191195
207	0x3db35deb	0.08758148
208	0xbe1869ed	-0.14884157
209	0x3db01358	0.085974395
210	0xbd92c6b3	-0.07166805
211	0x3e1d15ff	0.15340422
212	0xbaafe951	-0.0013420974
213	0x3e0e6e91	0.13909365
214	0x3ddaad84	0.10677627
215	0x3cc91d08	0.024549976
216	0x3c907a69	0.017636495
217	0xbdb9fa00	-0.09080887
218	0x3dfcdb66	0.123465344
219	0x3c4ad181	0.012379051
220	0xbdebd3f3	-0.115150355
221	0xbd4f4f6f	-0.050612863
222	0xbe4d3381	-0.20039178
223	0xbc8294a8	-0.015940025
224	0xbbec2aea	-0.007207264
225	0x3dc95930	0.09831464
226	0xbdab053b	-0.08350607
227	0xbdd1fe57	-0.102535896
228	0x3e1d431b	0.1535763
229	0x3d988037	0.0744633
230	0x3dba8869	0.091080494
231	0xbd358ec7	-0.044325616
232	0xbd324259	-0.043520305
233	0xbe43a178	-0.19104564
234	0xbdbe8230	-0.09302175
235	0x3e26067f	0.16213416
236	0xbe225dc7	-0.15856086
237	0x3e165eea	0.14684644
238	0x3da84b1e	0.082174525
239	0x3e63b122	0.2223554
240	0x3d9d282d	0.076736785
241	0xbc5529fb	-0.013010497
242	0xbd8e8463	-0.069588445
243	0x3d45539f	0.04817545
244	0x3e074303	0.13209157
245	0x3ac1ff34	0.0014800788
246	0xbe14562f	-0.14486001
247	0x3d1258ba	0.035729147
248	0xbcc927a2	-0.024555031
249	0xbd234d4e	-0.039868645
250	0x3d62e51e	0.055394284
251	0x3db96cff	0.090539925
252	0xbead9b30	-0.3390746
253	0xbd7a7a5e	-0.061151855
254	0xbe4e4117	-0.20142017
255	0x3db00171	0.08594025

u1.conv3.bias f4 [8]
0	0xbd586c7f	-0.052837845
1	0xbbae2e83	-0.005315603
2	0x3ae0bc17	0.0017145899
3	0x3c05b22e	0.008160157
4	0xbc2b0b46	-0.0104396995
5	0xbbf5d173	-0.007501775
6	0xbc10b7fc	-0.008832928
7	0x3bbc7edb	0.005752427

u1.G.weight f4 [1, 8, 3, 3]
0	0x3dc66f16	0.09689157
1	0xbe315504	-0.17317587
2	0xbe39311e	-0.18085143
3	0x3a787e0d	0.0009479232
4	0x3e488601	0.19582368
5	0x3db3d9ba	0.087817624
6	0x3e14e0eb	0.14538924
7	0xbdded1d1	-0.10879863
8	0x3e3a85dd	0.18215127
9	0x3cfad04e	0.030616906
10	0xbc1d69b6	-0.009607723
11	0xbd2d741c	-0.04234706
12	0xbe01e8a3	-0.126864
13	0xbe551192	-0.20807484
14	0x3e246139	0.16052713
15	0x3e1f4aa1	0.15555812
16	0x3dc8b26d	0.09799657
17	0x3e704345	0.23463161
18	0xbd735016	-0.059402548
19	0x3e6e0011	0.23242213
20	0xbdbcf5ec	-0.092265934
21	0x3e1326db	0.14370291
22	0x3e135d43	0.14391045
23	0xbe068c33	-0.1313942
24	0x3d9ee45e	0.07758401
25	0x3b6ecec1	0.0036439153
26	0x3e304fcc	0.1721794
27	0x3ddec6a8	0.108777344
28	0x3c9ac0a6	0.01889069
29	0x3e96ae12	0.2942968
30	0xbdd01f07	-0.10162168
31	0x3dcd668a	0.100293234
32	0xbe353e61	-0.17699577
33	0x3cd9e1ef	0.026596991
34	0x3c3dd5ba	0.011586601
35	0x3e429865	0.19003446
36	0xbe7c94ab	-0.24666087
37	0xbd550d01	-0.052014355
38	0xbe2361b9	-0.15955247
39	0xbe6cbc88	-0.23118794
40	0x3d318418	0.043338865
41	0xbe358853	-0.17727785
42	0xbe78d865	-0.24301298
43	0x3d8d5346	0.06900649
44	0x3e161767	0.14657365
45	0x3dde973b	0.10868689
46	0xbde7c658	-0.11317128
47	0x3d927237	0.07150691
48	0x3ccc93f9	0.024972903
49	0xbda6656e	-0.08124815
50	0x3dd760c1	0.10516501
51	0x3e0c5525	0.13704355
52	0x3d8be9db	0.06831714
53	0xbe018baa	-0.12650934
54	0x3e70a93c	0.23502058
55	0x3e1b597b	0.15170853
56	0xbe0c961b	-0.13729136
57	0xbd821b9c	-0.06352922
58	0x3e73f784	0.23824888
59	0xbd8a2b67	-0.067465596
60	0x3e15c815	0.14627106
61	0xbdee6abf	-0.11641454
62	0x3c7ca4c9	0.015420147
63	0xbe5ce939	-0.21573342
64	0xbe14016a	-0.14453664
65	0x3bbd1d08	0.005771283
66	0x3dded2d7	0.10880058
67	0x3dfe808d	0.12426863
68	0xbe254902	-0.16141132
69	0x3d95b034	0.07308999
70	0x3d9f9a61	0.07793117
71	0xb9965c79	-0.00028679127

u2.E.weight f4 [8, 1, 3, 3]
0	0x3b65e157	0.003507694
1	0xbe6917b4	-0.22762948
2	0x3de377c4	0.11106828
3	0x3cf9ae52	0.03047863
4	0x3de732a5	0.112889566
5	0x3c062ab5	0.008188893
6	0x3dca9496	0.09891622
7	0xbe1e24ff	-0.154438
8	0x3e0672e3	0.13129763
9	0xbdb20ee9	-0.0869425
10	0xbe96800e	-0.29394573
11	0x3e1bbeb5	0.15209468
12	0xbd9a0072	-0.07519616
13	0xbe9bfcdf	-0.30466363
14	0xbbceaf51	-0.0063075204
15	0xbd94287c	-0.07234284
16	0x3dea0411	0.11426557
17	0xbe02edac	-0.12785977
18	0xbe64d1b0	-0.22345614
19	0x3e1a2210	0.15052056
20	0x3e348dc3	0.17632203
21	0xbeab80a9	-0.33496597
22	0x3d8b17c6	0.06791644
23	0xbcaf3664	-0.02138824
24	0xbdd43fef	-0.10363757
25	0x3e2eb1f7	0.17060076
26	0x3e0e0478	0.13868892
27	0x3d1db661	0.03850401
28	0xbe276595	-0.16347344
29	0xbcadec09	-0.021230714
30	0x3e276947	0.16348754
31	0xbdc7fa97	-0.09764593
32	0x3e623774	0.22091466
33	0xbda58b9a	-0.080832675
34	0x3e062236	0.13098988
35	0x3caf5fd1	0.021407994
36	0xbe393b5c	-0.1808905
37	0x3e022b1f	0.12711762
38	0xbe1a953a	-0.15095988
39	0x3e69234b	0.2276737
40	0xbe1b2cb6	-0.15153775
41	0x3dda75f1	0.10667027
42	0x3d85048f	0.0649501
43	0x3e59464d	0.21218224
44	0x3e0bc6c4	0.13650042
45	0xbc82828e	-0.015931394
46	0xbddadd5c	-0.10686752
47	0x3d3d5d92	0.046231814
48	0x3e73aad6	0.23795637
49	0xbdb483a9	-0.08814175
50	0x3df321c8	0.11871678
51	0xbd124582	-0.03571082
52	0x3d962250	0.07330763
53	0x3e28d369	0.16486897
54	0x3e44cd92	0.19219044
55	0x3d0d32d5	0.034472305
56	0x3cc36653	0.023852503
57	0x3d1f0f56	0.038832985
58	0x3e1fc1be	0.1560125
59	0x3e574f08	0.21026242
60	0xbd31029f	-0.04321539
61	0x3e18132d	0.14851065
62	0x3e5911ef	0.21198247
63	0xbe26022c	-0.16211766
64	0xbdbf059c	-0.09327242
65	0x3e38582b	0.18002383
66	0xbe2b0793	-0.16702108
67	0x3da0ca62	0.078511015
68	0x3e0d009a	0.1376976
69	0x3d066838	0.032814234
70	0xbd9ab834	-0.07554665
71	0x3cc5d203	0.024147993

u2.E.bias f4 [8]
0	0xbb8422b4	-0.0040324572
1	0xbd59ab75	-0.05314203
2	0xbcf9da11	-0.03049949
3	0x3c62fc09	0.013854035
4	0x396ca82e	0.00022569366
5	0xbb492d0b	-0.0030697014
6	0xbc3809c7	-0.0112328
7	0x3ae844a7	0.0017720655

u2.conv1.weight f4 [8, 8, 3, 3]
0	0x3d91684f	0.070999734
1	0x3d5b546f	0.05354732
2	0x3e1eee01	0.15520479
3	0x3e1dde4b	0.1541683
4	0xbd3518a3	-0.04421295
5	0xbcacb61a	-0.021082927
6	0x3e14613b	0.14490215
7	0x3d5b631d	0.05356132
8	0x3e1fbc4e	0.15599176
9	0x3d4694f8	0.04848191
10	0xbe5c7d1c	-0.215321
11	0x3babd20b	0.005243545
12	0xbe1bd14a	-0.15216556
13	0x3e20a400	0.15687561
14	0x3de981e3	0.11401727
15	0xbca2595f	-0.019818006
16	0x3dc62dc8	0.09676701
17	0xbe3d8b07	-0.18510066
18	0xbe112032	-0.14172438
19	0xbdba80b5	-0.0910658
20	0xbe303c7f	-0.17210577
21	0x3dd95fb7	0.10613959
22	0xbc4213ca	-0.011845538
23	0x3c6bc2be	0.014389692
24	0x3dfb3f0d	0.12267885
25	0x3e67d48b	0.22639672
26	0x3da1b145	0.078951396
27	0x3e3aa527	0.18227063
28	0xbdfcc73e	-0.1234269
29	0xbe2d141f	-0.16902207
30	0x3dd03699	0.10166664
31	0x3e31f6ed	0.17379351
32	0x3e48004a	0.1953136
33	0xbd07f850	-0.033195794
34	0xbd80026b	-0.06250461
35	0xbcdff6fc	-0.027339451
36	0xbddc0a0c	-0.10744104
37	0xbe30533c	-0.17219251
38	0x3cb06540	0.021532655
39	0xbd320a1f	-0.043466683
40	0xbcbd42af	-0.023103086
41	0xbdb8a73b	-0.09016272
42	0xbe012f00	-0.12615585
43	0x3e091cc9	0.13389887
44	0x3c8d5338	0.017251596
45	0xbc86ea11	-0.016469033
46	0x3e1ece26	0.15508327
47	0x3cdece53	0.027197992
48	0x3d9d3d8e	0.07677756
49	0x3e29c21f	0.16577958
50	0x3dce19c5	0.10063509
51	0x3c88ff26	0.016723227
52	0x3da05104	0.078279525
53	0x3dba603c	0.091003865
54	0x3d519661	0.051168803
55	0xbe484379	-0.19556989
56	0x3ddcbb76	0.10777943
57	0xbde022b6	-0.109441206
58	0x3dc2f6de	0.095197424
59	0xbcca4bb0	-0.024694294
60	0x3daa5f33	0.08318939
61	0x3d41b7c2	0.047294386
62	0xbdb47913	-0.088121556
63	0x3e6436d7	0.22286545
64	0xbecc5b8b	-0.39913592
65	0xbeb30dea	-0.34971553
66	0xbd27ade5	-0.040937323
67	0xbda35fa5	-0.07977227
68	0xbc2e1739	-0.010625654
69	0x3d64884d	0.05579405
70	0xbd862263	-0.065495275
71	0x3d5ad68a	0.053427257
72	0xbe193e26	-0.14965114
73	0xbd6b52c9	-0.057451997
74	0xbd7117e0	-0.05886066
75	0xbdaca072	-0.0842904
76	0xbdf3193a	-0.11870046
77	0x3e97cc28	0.29647946
78	0xbdbc9c84	-0.092095405
79	0xbca5ecb1	-0.020254465
80	0x3e2b56d9	0.16732349
81	0x3e352e88	0.17693532
82	0xbb1d4fa3	-0.0024003766
83	0xbe33dc3d	-0.17564483
84	0x3e012ac4	0.1261397
85	0x3e20b8c1	0.15695478
86	0x3ddbe89b	0.10737725
87	0xbdc8fbe4	-0.09813669
88	0xbdcaffcb	-0.0991207
89	0x3dbc49ef	0.09193789
90	0xbd9b910b	-0.07596024
91	0x3e6abb96	0.22923121
92	0x3e8f7120	0.28015995
93	0xbdd5241d	-0.10407279
94	0x3e111612	0.14168575
95	0x3c8888eb	0.01666685
96	0xbedcf5b8	-0.4315622
97	0x3d254f83	0.04035903
98	0x3e1bf9a8	0.15231955
99	0xbdeadace	-0.11467515
100	0xbe1791e0	-0.1480174
101	0xbe3bb28d	-0.1832983
102	0x3d949b70	0.0725621
103	0xbd59b3bc	-0.053149924
104	0x3bf73e0e	0.0075452393
105	0xbdd9acf4	-0.10628691
106	0x3dd8e7bd	0.105910756
107	0x3e2852a9	0.16437782
108	0x3d1e6bd9	0.03867707
109	0x3e5d2a63	0.215982
110	0xbd992480	-0.07477665
111	0x3dea1ee7	0.114316754
112	0x3e425564	0.18977886
113	0x3dc91920	0.09819245
114	0x3dd6dbd0	0.10491145
115	0xbccbc9dc	-0.024876527
116	0xbd7ffe36	-0.062498294
117	0x3d5ab1a2	0.05339206
118	0x3deb0f7f	0.11477565
119	0x3d0dd158	0.034623474
120	0xbcb53c2a	-0.022123415
121	0xbb2b9f3b	-0.0026187438
122	0xbd35e37e	-0.044406407
123	0xbdb80fb7	-0.08987372
124	0xbe51c0ba	-0.20483676
125	0xbcb8e36d	-0.022569383
126	0x3dbb340f	0.09140789
127	0x3de02946	0.10945372
128	0xbda90bd8	-0.08254212
129	0x3d47c009	0.048767123
130	0xbcf1bf65	-0.02951021
131	0xbe4fb47e	-0.20283696
132	0x3e19cdfb	0.15019982
133	0xbc96e9da	-0.018422056
134	0xbe2b644a	-0.16737476
135	0x3d9ac769	0.07557566
136	0x3b4a1844	0.0030837217
137	0xbe942c16	-0.28939885
138	0x3e8e6782	0.27813345
139	0x3e4611e5	0.19342764
140	0x3e7d82b5	0.24756892
141	0xbeb7becf	-0.35887763
142	0xbd3e374a	-0.046439447
143	0x3ce686ea	0.028140504
144	0x3d6885dd	0.056768287
145	0x3e8cc971	0.27497438
146	0x3d620288	0.055178195
147	0xbc83be10	-0.01608184
148	0xbd206cea	-0.03916637
149	0x3d57e693	0.052710127
150	0xbc8386e2	-0.016055528
151	0xbdd19a6e	-0.10234533
152	0xbdf4af70	-0.119475245
153	0xbe499791	-0.19686724
154	0x3e4ce1fc	0.20008081
155	0x3e012a66	0.1261383
156	0xbda077ef	-0.078353755
157	0xbca78866	-0.020450782
158	0x3d19f9f5	0.037591893
159	0x3e1f200b	0.15539567
160	0x3e0fe538	0.14052284
161	0xbe1877fa	-0.14889517
162	0xbd3d0b65	-0.046153445
163	0xbd222e6a	-0.039595045
164	0x3d898e31	0.06716574
165	0xbdc1f93f	-0.09471368
166	0xbe4ad41e	-0.19807479
167	0xbbf4fbe0	-0.007476315
168	0x3a960e5d	0.0011448372
169	0xbe6222e6	-0.22083625
170	0x3e7d4d5b	0.2473654
171	0xbde23391	-0.11044992
172	0xbd3f1f84	-0.046660915
173	0x3cd52c51	0.026022108
174	0xbd225cbf	-0.03963923
175	0x3cebe16b	0.028794011
176	0xbd860088	-0.0654307
177	0xbd866414	-0.06562057
178	0xbd5cc2b2	-0.053896613
179	0x3ba6e342	0.005093009
180	0xbdf1fb26	-0.11815481
181	0xbe8162d4	-0.25270712
182	0xbcf9478c	-0.030429624
183	0xbc124ddc	-0.008929696
184	0xbddbc9fd	-0.107318856
185	0xbdb9e857	-0.090775184
186	0x3c61714a	0.01375992
187	0x3dd9fd99	0.10644073
188	0x3c8e9e56	0.017409485
189	0xbe0caae9	-0.13737072
190	0xbe3dea6d	-0.18546458
191	0x3e2d69c9	0.16934885
192	0x3bb49f8f	0.005512185
193	0xbe02d833	-0.12777786
194	0x3dd98f55	0.106230415
195	0xbe3f0dc4	-0.18657595
196	0x3d5a4902	0.053292282
197	0x3c885b93	0.016645228
198	0x3e1a8ff2	0.15093973
199	0xbc913e2e	-0.017729845
200	0xbcae1c1b	-0.021253636
201	0x3e17e147	0.1483203
202	0xbd59fc99	-0.05321941
203	0xbe056417	-0.13026462
204	0xbdcf1d5b	-0.10113021
205	0x3dfe7dca	0.12426336
206	0xbe1b9918	-0.1519512
207	0x3e0c1c6a	0.13682714
208	0x3e312a30	0.1730125
209	0xbd460610	-0.048345625
210	0xbe015621	-0.12630512
211	0x3e1f1fbb	0.15539448
212	0x3d256f39	0.040389273
213	0xbe62691a	-0.22110406
214	0x3e1b0418	0.1513828
215	0x3d699b68	0.057032973
216	0x3baae82d	0.005215666
217	0x3d188b89	0.037242446
218	0xbd1ed8d4	-0.038781002
219	0x3dd0c009	0.10192878
220	0xbbb1f585	-0.0054308795
221	0x3e3ac42d	0.18238898
222	0x3e2778c3	0.1635466
223	0x3e413dce	0.18871233
224	0x3e2c8ea4	0.16851288
225	0xbe37a1a1	-0.1793275
226	0x3db9be23	0.09069469
227	0xbd6d90ee	-0.057999544
228	0x3c208806	0.0097980555
229	0x3d60c92d	0.054879356
230	0xbce44086	-0.027862798
231	0xbdb401d6	-0.08789413
232	0x3ced9cc2	0.029005412
233	0x3d443188	0.0478988
234	0x3d67717f	0.056504723
235	0xbdfa36e1	-0.122174986
236	0xbe34bbe3	-0.17649798
237	0xbd912c4a	-0.070885256
238	0xbdf32c07	-0.11873632
239	0x3da6bc4b	0.08141383
240	0x3bf1a041	0.00737384
241	0x3e0d27fa	0.13784781
242	0xbc2e4830	-0.010637328
243	0xbd9fd633	-0.07804527
244	0xbe0f9a74	-0.14023763
245	0xbdb5eb70	-0.08882797
246	0x3e056bd1	0.1302941
247	0x3e133207	0.14374553
248	0x3e2233d8	0.1584009
249	0xbdf34302	-0.11878015
250	0xbd47eb4e	-0.04880839
251	0xbe277d23	-0.1635633
252	0x3dd2e7fb	0.10298153
253	0x3e20693d	0.15665145
254	0xbe2871ce	-0.16449663
255	0x3e1d8e3a	0.15386286

u2.conv1.bias f4 [8]
0	0x3bac1dcc	0.0052525755
1	0xbc1870f4	-0.009304274
2	0x3d57c030	0.05267352
3	0x399cd964	0.00029916607
4	0x3c87fa7f	0.016598938
5	0xbb4eab79	-0.003153531
6	0xbb3ca7bc	-0.00287865
7	0x3b628ae5	0.003456765

u2.conv2.weight f4 [8, 8, 3, 3]
0	0x3bbe79a1	0.005812839
1	0x3d1567a3	0.03647579
2	0x3e0a8bfc	0.13529962
3	0xbe245b74	-0.16050512
4	0x3e0d6146	0.13806638
5	0x3e326fe3	0.17425494
6	0x3e3c1fc6	0.18371496
7	0x3d54b699	0.05193195
8	0xbd4c4423	-0.049869668
9	0xbda9b550	-0.08286536
10	0x3d829e70	0.06377876
11	0x3e90628a	0.2820018
12	0xbe46d508	-0.19417202
13	0xbe883ae3	-0.26607427
14	0x3d885a88	0.066578925
15	0x3e2a5780	0.16634941
16	0xbdb312c9	-0.08743817
17	0xbd477bb6	-0.048701964
18	0x3d0327ea	0.032020487
19	0xbd670b3c	-0.0564072
20	0xbd2696b6	-0.040671073
21	0x3e2d037e	0.16895863
22	0x3df516e1	0.119672544
23	0x3e945b81	0.28976062
24	0x3e16e887	0.1473714
25	0xbd856664	-0.0651367
26	0xbd920272	-0.07129373
27	0xbd3f12a0	-0.04664862
28	0xbdf779d5	-0.120837845
29	0x3db88bbe	0.09011029
30	0xbbd77354	-0.0065750275
31	0x3e5cc5df	0.21559857
32	0x3ce203c0	0.027589679
33	0x3e27f19d	0.16400762
34	0xbdc47b85	-0.09593872
35	0x3e48c0a8	0.19604743
36	0xbd67a3b2	-0.056552596
37	0x3e2a4239	0.16626824
38	0xbd2eb148	-0.042649537
39	0xbdccdc26	-0.100029275
40	0x3d8d1c5e	0.06890176
41	0xbe42c173	-0.19019108
42	0x3e055892	0.13022068
43	0xbd61a5f0	-0.05508989
44	0xbd51c465	-0.051212687
45	0xbadfb014	-0.0017066025
46	0xbd7499a7	-0.059716847
47	0x3df6c80b	0.12049874
48	0x3e5c77cc	0.21530074
49	0x3d668681	0.056280617
50	0xbcad9f34	-0.021194078
51	0xbdc0de3c	-0.09417388
52	0x3e0370ba	0.1283597
53	0xbd83c269	-0.06433565
54	0xbdf6b079	-0.12045378
55	0x3e2fd707	0.1717187
56	0xbdee03bc	-0.11621806
57	0x3cb2e2fd	0.021836752
58	0xbccfa320	-0.025346339
59	0x3dd39101	0.10330392
60	0xbe0b8a21	-0.13626911
61	0xbde778b2	-0.11302318
62	0xbe4fd1da	-0.20294896
63	0x3b0bfce8	0.002136046
64	0xbe1b8098	-0.15185773
65	0x3e038c9f	0.12846611
66	0x3e1dc777	0.15408121
67	0x3e14f875	0.14547904
68	0x3e1f3573	0.15547733
69	0xbdc8ddbf	-0.0980792
70	0x3cce678c	0.02519586
71	0xbc48e45b	-0.012261475
72	0xbd59f80c	-0.05321507
73	0xbbdcbb0b	-0.0067361644
74	0xbdb15035	-0.086578764
75	0xbdb0ff4c	-0.08642444
76	0x3e1a2ae0	0.15055418
77	0xbaaee79d	-0.0013344173
78	0xbe8b0e28	-0.27159238
79	0xbea34f12	-0.31896263
80	0xbd0bda36	-0.03414365
81	0xbf1b1b48	-0.605885
82	0x3e620426	0.22071895
83	0x3df16db8	0.11788505
84	0xbea02818	-0.3128059
85	0x3da5c841	0.08094836
86	0x3dc61e52	0.09673752
87	0xbaf980a3	-0.0019035529
88	0x3e53bba2	0.20677045
89	0xbdec2807	-0.11531072
90	0x3ddf3514	0.10898796
91	0x3e1226eb	0.14272659
92	0x3e221acf	0.15830539
93	0xbd804929	-0.06263954
94	0xbccdb99e	-0.025112923
95	0xbce8512b	-0.028359016
96	0xbed454ce	-0.4147095
97	0xbf22fcd3	-0.6366703
98	0xbf44d4d2	-0.7688724
99	0x3e05a56b	0.13051383
100	0x3dd1678e	0.102248296
101	0x3d89752d	0.06711803
102	0xbd2eb2f9	-0.04265115
103	0x3e115475	0.14192374
104	0xbd348894	-0.044075564
105	0xbe6bdf3f	-0.2303438
106	0xbcef58fc	-0.029217236
107	0xbe2d921c	-0.16950268
108	0xbdaa8cd7	-0.08327644
109	0x3d2579ab	0.040399235
110	0xbe0e25a6	-0.13881549
111	0x3dd3a674	0.10334483
112	0x3e81e9c9	0.25373676
113	0x3e049cd8	0.12950456
114	0xbe111fbe	-0.14172265
115	0x3d35688f	0.044289168
116	0xbe6b8251	-0.2299893
117	0xbd5e804b	-0.05432157
118	0x3d04bdd7	0.032407608
119	0x3e227fd4	0.15869075
120	0x3e209d88	0.15685093
121	0x3db67024	0.08908108
122	0x3d979576	0.07401554
123	0x3bd6f8dd	0.0065604285
124	0xbd9bcaed	-0.076070644
125	0xbdc54385	-0.09632019
126	0x3e1d4d86	0.15361604
127	0xbe2dd501	-0.16975786
128	0x3d99eb6d	0.07515607
129	0xbbebdf5d	-0.007198258
130	0x3a3fff7e	0.0007324143
131	0xbb80a1ea	-0.0039255517
132	0xbe52d0b9	-0.20587434
133	0xbdbb4722	-0.09144427
134	0x3d8157ee	0.063155994
135	0xbe43069b	-0.19045489
136	0x3e36385b	0.17794935
137	0x3c518416	0.012787839
138	0x3e865649	0.26237705
139	0x3b5024de	0.0031760256
140	0xbd210a6d	-0.039316583
141	0xbe094f23	-0.13409095
142	0xbc86985c	-0.016430072
143	0xbd80712f	-0.06271588
144	0x3dd78ea9	0.10525257
145	0xbe4f0ec6	-0.2022048
146	0xbd012cce	-0.03153687
147	0x3c037436	0.008023312
148	0x3b31e78b	0.0027146067
149	0xbdeb676a	-0.11494334
150	0xbd90a0e7	-0.0706194
151	0xbe512136	-0.20422825
152	0xbd448ce3	-0.047985923
153	0xbd8a84d8	-0.06763619
154	0x3c74a5ad	0.014932078
155	0xbdc00240	-0.09375429
156	0x3e482405	0.1954499
157	0xbe9da44d	-0.30789414
158	0xbd7a309e	-0.06108152
159	0xbe8005dc	-0.2500447
160	0xbe8d0c90	-0.27548647
161	0xbe056812	-0.13027981
162	0x3dc018ac	0.09379706
163	0xb98299cb	-0.00024910117
164	0x3d199a66	0.03750076
165	0xbd9e1acb	-0.07719954
166	0xbe6e7c40	-0.23289585
167	0x3e22bfdc	0.15893501
168	0xbc9ea946	-0.019367825
169	0xbd6757dc	-0.056480274
170	0xbdda5411	-0.10660566
171	0xbd8589f9	-0.06520457
172	0xbdf45b11	-0.11931432
173	0xbe0e689e	-0.13907096
174	0xbdac352e	-0.08408581
175	0x3e2b8aa6	0.16752109
176	0xbc454d88	-0.012042411
177	0x3e36c0d1	0.17846991
178	0xbd932bc3	-0.07186081
179	0xbd1a76ee	-0.037711076
180	0x3e27d10f	0.16388343
181	0xbe153a26	-0.14572963
182	0x3d46961c	0.048483
183	0x3e360b7c	0.17777818
184	0xbdc3db40	-0.09563303
185	0xbe132086	-0.14367875
186	0xbd682514	-0.056675985
187	0x3e6091a3	0.21930556
188	0x3e32a2dc	0.17444938
189	0x3e4fc846	0.20291242
190	0xbddfeaf5	-0.10933486
191	0xbe242007	-0.16027842
192	0xbe0db319	-0.13837852
193	0x3d8977f1	0.0671233
194	0xbc83dd0a	-0.01609661
195	0x3d8d29d1	0.068927415
196	0x3ddde645	0.10834936
197	0xbae449a8	-0.0017416971
198	0xbded8468	-0.1159752
199	0x3e292352	0.1651738
200	0x3e07d760	0.13265753
201	0x3e2b0052	0.16699341
202	0x3e495f88	0.19665349
203	0xbd88c0ec	-0.06677422
204	0x3e2aa66e	0.1666505
205	0x3df24e41	0.11831332
206	0x3cd15118	0.025551364
207	0x3d4dfd73	0.050290536
208	0x3c9a9454	0.018869556
209	0xba6d60f1	-0.0009055278
210	0x3d9a7212	0.075412884
211	0xbe05a4b8	-0.13051116
212	0x3df2f2ae	0.11862694
213	0x3de5922b	0.1120952
214	0x3e383fba	0.1799306
215	0x3e04ec05	0.1298066
216	0xbf00b33d	-0.50273496
217	0xbebfa6db	-0.37431988
218	0xbec431b3	-0.38319167
219	0x3e8b1a33	0.27168426
220	0x3dce0ef4	0.10061446
221	0x3d942cc0	0.07235098
222	0x3d2af298	0.04173526
223	0x3dfbfee1	0.12304474
224	0xbcf5a2d9	-0.029984878
225	0xbe38949e	-0.18025443
226	0xbe6e7515	-0.23286851
227	0xbe33d056	-0.17559943
228	0xbdf0205c	-0.11724922
229	0xbdb1cbcd	-0.0868145
230	0xbe92ba20	-0.28657627
231	0xbd88fc8e	-0.06688796
232	0x3e887cb8	0.26657653
233	0xbe597702	-0.21236804
234	0xbea11479	-0.31460932
235	0xbe6a8246	-0.22901258
236	0xbf0f2b64	-0.55925584
237	0xbcb54745	-0.02212871
238	0x3e9a48d7	0.30133697
239	0x3d8f2ee8	0.069913685
240	0xbe167242	-0.14692023
241	0x3e4381ca	0.1909248
242	0xbe105082	-0.14093211
243	0xbecaa658	-0.39580035
244	0xbe8d8be3	-0.27645788
245	0xbf1471ed	-0.57986337
246	0x3e1153d4	0.14192134
247	0x3b75e049	0.0037517718
248	0xbde65d67	-0.11248284
249	0x3c9b6164	0.018967338
250	0x3d91cf65	0.071196355
251	0xbe2bc86f	-0.16775678
252	0xbf2e15ac	-0.6800182
253	0xbf2937b1	-0.66100603
254	0xbf076e87	-0.52903026
255	0xbe0e243b	-0.13881008

u2.conv2.bias f4 [8]
0	0x3cb94260	0.022614658
1	0xbccc9e05	-0.024977693
2	0xbc6c3b75	-0.014418473
3	0x3c39fdb8	0.011351995
4	0xbafc5c13	-0.0019253514
5	0xbae9ca93	-0.0017836861
6	0xbbea3f82	-0.007148684
7	0xbb435299	-0.002980387

u2.conv3.weight f4 [8, 8, 3, 3]
0	0x3d929d54	0.07158914
1	0x3de29547	0.11063629
2	0xbdad0560	-0.08448291
3	0xbde849e3	-0.11342218
4	0x3d1e0fd6	0.03858932
5	0xbe116fff	-0.1420288
6	0x3d93dd28	0.072199166
7	0xbcb42658	-0.02199094
8	0x3e09d075	0.13458426
9	0x3e13524f	0.14386867
10	0x3dfce40d	0.12348185
11	0x3dd99f7e	0.10626124
12	0x3dcf7657	0.101299934
13	0x3d8e481f	0.0694735
14	0xbc01f8ed	-0.007932884
15	0x3d60cebc	0.054884657
16	0x3dd47231	0.10373343
17	0xbd02aa60	-0.031900764
18	0xbdfa4659	-0.12220449
19	0x3d0b4fed	0.03401177
20	0x3e0b1ed1	0.13585974
21	0x3e280778	0.16409099
22	0x3e1a8e22	0.15093282
23	0x3e349501	0.17634965
24	0x3e3ae77e	0.1825237
25	0xbdb1f3d7	-0.08689087
26	0xbce90335	-0.028443912
27	0x3e080b94	0.13285667
28	0xbcc8cb3f	-0.024510978
29	0x3d356fca	0.044296063
30	0x3e2a3340	0.16621113
31	0xbcdc4f3e	-0.026893254
32	0xbc70f641	-0.014707149
33	0x3daec26f	0.08533179
34	0x3e435c38	0.19078147
35	0xbd94d79f	-0.07267689
36	0x398d889f	0.00026995406
37	0xbe2e8578	-0.17043102
38	0x3d2d6420	0.042331815
39	0x3d0ac5b0	0.033879936
40	0x3e1082d1	0.14112402
41	0xbe1ecb28	-0.15507185
42	0xbddc7a5f	-0.10765528
43	0x3e37e135	0.17957003
44	0xbd94353b	-0.072367154
45	0x3d02fef2	0.031981416
46	0x3e40464d	0.18776818
47	0x3e5011cf	0.20319293
48	0xbc19f4fe	-0.00939679
49	0xbe525326	-0.20539531
50	0xbdfcce8c	-0.12344083
51	0xbe29f013	-0.16595487
52	0xbc25125a	-0.010075176
53	0xbe00082f	-0.12503122
54	0x3e334fcd	0.1751091
55	0xbe24d99e	-0.1609864
56	0xbc871372	-0.016488764
57	0x3db94a56	0.090473816
58	0xbdc116ac	-0.094281524
59	0x3e2d4b96	0.16923365
60	0x3d8b9035	0.06814615
61	0x3e5dc8f3	0.21658687
62	0x3d58886e	0.052864484
63	0x3e3488f6	0.17630371
64	0xbdbf0cab	-0.09328588
65	0x3ca0b178	0.019615874
66	0x3d7045ef	0.058660444
67	0xbdb0402c	-0.0860599
68	0x3d7f144e	0.062275223
69	0xbdec334a	-0.1153322
70	0x3d303d31	0.043027107
71	0x3cba7a5d	0.022763425
72	0xbec8f80e	-0.3925175
73	0x3d41c858	0.047310203
74	0x3dcdf394	0.100562245
75	0xbef9476b	-0.486873
76	0x3dc89182	0.097933784
77	0x3d8b4d67	0.06801873
78	0xbddb2361	-0.10700107
79	0xbe45a6e8	-0.19301951
80	0x3c7c9008	0.015415199
81	0x3d8a1ffe	0.06744383
82	0xbe609970	-0.21933532
83	0xbed7f3c5	-0.4217817
84	0xbe8f3eb1	-0.27977517
85	0xbdad51b5	-0.0846285
86	0x3ea0ffc1	0.31445125
87	0xbdf8cce1	-0.121484526
88	0xbecb4c0b	-0.39706454
89	0x3e3a55e4	0.18196827
90	0xbede7df3	-0.43455467
91	0xbe0a367e	-0.1349735
92	0xbd072c18	-0.033001035
93	0xbf019165	-0.5061248
94	0x3e158bdf	0.14604138
95	0x3dd93993	0.106066845
96	0xbec18735	-0.37798467
97	0x3dc7d44a	0.09757288
98	0xbe140897	-0.14456402
99	0xbe8f0f1f	-0.27941224
100	0xbdb12368	-0.08649331
101	0x3c71268c	0.014718663
102	0xbe8ce6bf	-0.27519795
103	0xb94e12d6	-0.00019652708
104	0x3dd03a2f	0.10167348
105	0xbe97a43f	-0.29617497
106	0x3dd9b4ad	0.10630164
107	0x3e155d09	0.14586271
108	0xbed708c1	-0.41998866
109	0xbd635d0a	-0.05550865
110	0x3dfe3d34	0.12414017
111	0xbec05fe5	-0.37573162
112	0xbd9dc1c8	-0.077029765
113	0xbb076ded	-0.0020664886
114	0xbedf852c	-0.4365629
115	0x3e52e4eb	0.20595138
116	0x3ce0b2e9	0.027429061
117	0xbe3194fd	-0.17341991
118	0x3d881cb0	0.06646097
119	0xbe321e5b	-0.17394392
120	0xbef23670	-0.47307158
121	0xbc882593	-0.01661948
122	0xba7145eb	-0.0009203839
123	0xbddd69ac	-0.10811171
124	0xbe338115	-0.1752971
125	0x3e00c8de	0.12576625
126	0xbea79599	-0.3273132
127	0x3d9162a3	0.070988916
128	0x3cb7cfe1	0.022437992
129	0xbea943ff	-0.3305969
130	0x3cdec8c4	0.027195342
131	0x3df2fc50	0.11864531
132	0xbecebbd4	-0.40377676
133	0x3e0fe9d3	0.1405404
134	0xbdf72dd7	-0.1206929
135	0xbea962d3	-0.3308321
136	0xbd59067b	-0.052984696
137	0xbe1618ed	-0.14657946
138	0xbf082a06	-0.5318912
139	0xbe6d705e	-0.23187396
140	0xbd1f2a31	-0.038858596
141	0xbea14d45	-0.31504264
142	0x3db33b52	0.08751549
143	0xbe2492d6	-0.16071638
144	0x3d921bb6	0.07134192
145	0xbddb76ad	-0.10715995
146	0x3d32301e	0.04350292
147	0xbe609083	-0.21930127
148	0xbe6f85c4	-0.23390871
149	0xbc7b823e	-0.015350876
150	0x3be37967	0.0069419625
151	0xbe1f37b2	-0.1554859
152	0x3de4f2e2	0.11179139
153	0xbe33d59e	-0.17561957
154	0x3bb0c6e7	0.0053948048
155	0xbdc8ba7a	-0.098011926
156	0x3da0b5a0	0.07847142
157	0xbeab51c1	-0.3346081
158	0x3d28cdc7	0.04121187
159	0xbdfeaeca	-0.12435682
160	0xbe0e98e6	-0.13925514
161	0x3b8e262d	0.004338047
162	0xbe1a33d7	-0.15058838
163	0xbda731d4	-0.08163801
164	0xbdd8df05	-0.105894126
165	0xbe15aef0	-0.14617515
166	0x3e2e0436	0.16993794
167	0xbdeab523	-0.1146033
168	0x3dcfb8bb	0.101426564
169	0x3e3075b8	0.17232406
170	0xbd0b49a3	-0.034005772
171	0xbc1f576f	-0.009725436
172	0xbd117e63	-0.035520922
173	0xbd9c23a7	-0.07623988
174	0xbc26fc44	-0.010191981
175	0xbdd93846	-0.106064364
176	0xbe5a7589	-0.21333899
177	0x3e5cb18b	0.21552102
178	0xbd5b8996	-0.05359801
179	0x3c236939	0.0099738175
180	0xbd9fa042	-0.077942386
181	0x3d490487	0.049076583
182	0xbe0598bc	-0.13046545
183	0xbdddb5b1	-0.108256705
184	0x3e295fe9	0.16540493
185	0x3dd71e2f	0.10503804
186	0x3c8cd028	0.0171891
187	0xbd783f1a	-0.060607053
188	0x3c216f95	0.009853263
189	0xbda1136c	-0.078650326
190	0xbd36e19b	-0.044648748
191	0xbdb54763	-0.088515066
192	0xbe0c436c	-0.13697594
193	0x3e1239e8	0.14279902
194	0x3e1e966e	0.15487072
195	0xbc23bf05	-0.009994273
196	0x3c80ff0b	0.015746614
197	0xbe1827a3	-0.1485887
198	0xbc54d80e	-0.012990965
199	0xbde52a7c	-0.11189744
200	0x3dea033c	0.11426398
201	0x3c553ab2	0.013014482
202	0x3e1d35ec	0.15352601
203	0x3e287e19	0.16454352
204	0xbd1752ee	-0.036944322
205	0x3d878149	0.06616456
206	0x3e108b13	0.14115553
207	0xbe283df8	-0.16429889
208	0x3e327515	0.17427476
209	0xbd90fe15	-0.07079712
210	0x3e294f4d	0.16534157
211	0x3e88330c	0.26601446
212	0x3e47a8a4	0.19497925
213	0xbcebcc4a	-0.028783936
214	0xbca5b361	-0.020227136
215	0x3da295b4	0.0793871
216	0xbef5c912	-0.48004967
217	0xbefe52c7	-0.4967253
218	0xbe987467	-0.29776308
219	0x3db166b0	0.08662164
220	0x3e3fa45b	0.1871504
221	0x3dbeaae1	0.09309936
222	0x3df8a84a	0.121414736
223	0x3db2122c	0.08694872
224	0x3e1d64c8	0.15370476
225	0xbe81d200	-0.2535553
226	0xbe9c08f2	-0.30475575
227	0xbdaa5835	-0.083176054
228	0xbf0853e8	-0.5325303
229	0x3cf0a373	0.029374814
230	0x3de1433b	0.10999151
231	0xbe94286a	-0.28937083
232	0x3e191900	0.14950943
233	0x3c475bf0	0.012167916
234	0xbee5a41a	-0.44851762
235	0xbf00cfab	-0.50316876
236	0xbe86fd5d	-0.26365176
237	0x3e2bb7bd	0.1676931
238	0x3cba5367	0.022744847
239	0xbd8aa435	-0.06769601
240	0x3e14a014	0.1451419
241	0x3e199496	0.14998087
242	0xbd6edf0a	-0.058318175
243	0xbee6ae6f	-0.45054957
244	0xbe8ac94d	-0.27106705
245	0xbf065ffa	-0.524902
246	0x3e392c59	0.18083324
247	0x3e51bdc3	0.20482545
248	0x3d88a8dc	0.06672832
249	0xbe0de912	-0.1385844
250	0xbd3e55f8	-0.046468705
251	0x3c8d9460	0.017282665
252	0xbe56b105	-0.20965965
253	0xbec00242	-0.37501723
254	0xbf044b47	-0.51677364
255	0xbe006ce7	-0.12541543

u2.conv3.bias f4 [8]
0	0x3bbc52df	0.0057471837
1	0x3bbae2ac	0.005703291
2	0x3c31bd91	0.010848419
3	0xbd09b1cd	-0.03361683
4	0x3c7c368a	0.0153938625
5	0xbc061cbb	-0.008185561
6	0x3c98091f	0.018559037
7	0xbc694825	-0.014238392

u2.G.weight f4 [1, 8, 3, 3]
0	0x3e21abfd	0.15788265
1	0xbded2e65	-0.11581115
2	0x3daf7ad8	0.085683525
3	0x3e5f1c38	0.21788108
4	0xbe34f2cf	-0.17670749
5	0x3e0d355c	0.13789886
6	0xbbaa90ad	-0.005205235
7	0xbd2bf06a	-0.041977324
8	0x3d4d4a80	0.050119877
9	0x3e2a0ec5	0.16607197
10	0x3e91c513	0.28470668
11	0x3e427e8d	0.18993588
12	0x3d5d9d03	0.054104816
13	0xbe2ae715	-0.16689713
14	0x3e8c514d	0.27405778
15	0xbceeb1d7	-0.029137535
16	0xbd1cea7b	-0.038309556
17	0x3d7e3cf6	0.062069856
18	0x3e189820	0.14901781
19	0x3e85de0a	0.26145965
20	0xbe7e681e	-0.24844405
21	0x3dfd038a	0.12354191
22	0xbdcadd82	-0.099055305
23	0xbe2ff290	-0.17182374
24	0xbd24e7de	-0.04026019
25	0x3d24c12f	0.040223297
26	0xbd72f296	-0.05931338
27	0xbceaf22e	-0.028679933
28	0xbde805ca	-0.11329229
29	0x3ddc0aba	0.107442334
30	0x3dbd0cde	0.0923097
31	0xbdd07e9f	-0.10180401
32	0x3e8768d0	0.26447153
33	0x3e674114	0.22583419
34	0x3dc67efa	0.096921876
35	0xbdd16e99	-0.10226173
36	0xbd1cbf2c	-0.038268253
37	0xbd05ca87	-0.03266385
38	0x3db0c92c	0.086321205
39	0xbe67d1db	-0.22638647
40	0x3e68b7e2	0.22726396
41	0xbe152b5c	-0.14567322
42	0xbe777a57	-0.24167763
43	0xbd8e9c6d	-0.069634296
44	0xbde71d5f	-0.11284899
45	0x3e1331e2	0.14374498
46	0x3e41def9	0.18932714
47	0x3c8d3f2e	0.01724204
48	0x3d310515	0.043217737
49	0xbd3efa05	-0.046625156
50	0xbdb5fed2	-0.08886494
51	0x3e58944b	0.2115032
52	0x3e7c3839	0.24630822
53	0x3dd7d146	0.105379626
54	0x3e1f8c91	0.15580966
55	0xbe7b16f1	-0.2452047
56	0x3d89097f	0.06691264
57	0x3d41ff32	0.047362514
58	0xbe7d5a7d	-0.2474155
59	0x3ddb514d	0.10708866
60	0xbe29a417	-0.16566502
61	0x3e7d809d	0.24756093
62	0x3d940bc3	0.07228806
63	0x3e4409a5	0.19144304
64	0xbcc5826c	-0.024110042
65	0xbe30f310	-0.17280221
66	0x3c38ca4b	0.011278699
67	0xbe590f9a	-0.21197358
68	0xbe86744d	-0.26260605
69	0xbcf8a95a	-0.03035419
70	0x3c3ab422	0.011395486
71	0xbba026e9	-0.004887451
