src/pretrained/model_S_real_noisy.pt (torch_old, 36831 bytes, 36 tensors)

u1.E.weight f4 [8, 1, 3, 3]
0	0xbeb5124f	-0.3536553
1	0xbe35b82f	-0.17746042
2	0xbcfbc749	-0.030734675
3	0xbe025e88	-0.12731373
4	0x3e2004ab	0.1562678
5	0x3c045cf6	0.008078804
6	0xbd94cd14	-0.07265678
7	0x3bcbf5e7	0.006224382
8	0x3d4fd69d	0.05074178
9	0xbdac2246	-0.08404975
10	0xbe86eefb	-0.26354203
11	0x3d747a29	0.059686814
12	0xbbf017e9	-0.007327069
13	0xbe13804e	-0.14404413
14	0xbe745444	-0.2386027
15	0x3ad15100	0.0015969574
16	0xbe72221e	-0.23645827
17	0xbd1f3e50	-0.038877785
18	0x3e0f1a76	0.13974938
19	0x3cc05f2d	0.023482883
20	0x3e3db860	0.18527365
21	0x3e703feb	0.23461883
22	0xbc7722a6	-0.015083944
23	0xbdecd7ae	-0.11564575
24	0xbe79b241	-0.24384405
25	0x3d4c418c	0.049867198
26	0xbd3cf8c2	-0.04613567
27	0x3e86e0da	0.26343423
28	0xbcd4b451	-0.025964888
29	0x3d818cf9	0.063257165
30	0x3dfb8a54	0.12282243
31	0x3db16bcc	0.08663139
32	0xbd1dbf41	-0.038512472
33	0x3e328f9f	0.174376
34	0xbdf58433	-0.119881056
35	0xbe293d26	-0.16527233
36	0x3e5d5642	0.21614936
37	0xbc67b01d	-0.01414111
38	0x3c083b90	0.008314982
39	0xbd0c8964	-0.034310713
40	0xbd81096c	-0.06300625
41	0xbe025af2	-0.12730005
42	0x3dff249e	0.12458156
43	0x3e0562a4	0.1302591
44	0xbe3e0ba8	-0.18559134
45	0x3e871417	0.26382515
46	0xbdf3627f	-0.11884021
47	0xbd0f7581	-0.03502417
48	0x3e04c636	0.12966236
49	0xbd97945f	-0.074013464
50	0xbda725f0	-0.08161533
51	0xbc8255a0	-0.01590997
52	0xbdaf852f	-0.08570325
53	0x3d826453	0.063667916
54	0xbe5cbbc1	-0.21555997
55	0x3dab2eed	0.0835856
56	0xbe249c17	-0.16075169
57	0x3e6bca88	0.23026478
58	0x3e7b4fa3	0.24542098
59	0xbc8b1635	-0.016978363
60	0x3e553f16	0.20824847
61	0x3e4fd401	0.20295717
62	0x3e68cbc6	0.22733983
63	0xbe2688b8	-0.16263092
64	0x3e05e9b9	0.1307744
65	0xbd69cca1	-0.057079915
66	0xbe1d00db	-0.15332358
67	0x3da53c2d	0.08068118
68	0x3dbbfda3	0.09179237
69	0x3e3ce8fa	0.18448249
70	0xbd8cbb23	-0.06871631
71	0x3dec940e	0.11551677

u1.E.bias f4 [8]
0	0xbbe4742b	-0.006971856
1	0xbb01e837	-0.0019822249
2	0x3c1c4148	0.009537049
3	0xbb490848	-0.0030675102
4	0x3cc104cd	0.02356186
5	0x3bec18e6	0.0072051166
6	0xbb80a5c5	-0.0039260113
7	0x3ba87b31	0.0051416387

u1.conv1.weight f4 [8, 8, 3, 3]
0	0x3e2e411f	0.17017029
1	0xbc2d2f07	-0.010570294
2	0xbe3c8677	-0.1841067
3	0x3d32adef	0.043622907
4	0xbe160981	-0.14652063
5	0x3baafe73	0.005218321
6	0xbee73936	-0.45160836
7	0xbe266b67	-0.16251908
8	0x3d81e7ee	0.06343065
9	0xbddac251	-0.10681594
10	0x3dca1a5c	0.09868309
11	0xbd0ee404	-0.03488542
12	0xbdaf591b	-0.085619174
13	0x3d363817	0.044487085
14	0xbe3a62dc	-0.18201774
15	0x3e309ccd	0.17247315
16	0xbe3ab734	-0.18233949
17	0xbe22ea82	-0.1590977
18	0xbd9c1f49	-0.07623155
19	0xbe2b581d	-0.16732831
20	0x3d8c3a40	0.06847048
21	0x3d3924eb	0.045201223
22	0x3dce60ec	0.1007708
23	0x3cb11065	0.021614263
24	0x3e1ecc25	0.15507562
25	0xbc8fdcfc	-0.017561428
26	0xbcd98249	-0.026551383
27	0xbe1c2b1d	-0.15250821
28	0x3e397af8	0.18113315
29	0xbc3b9743	-0.011449638
30	0xbcfbcb9a	-0.030736733
31	0xbc070dda	-0.008243049
32	0x3daa62dd	0.08319638
33	0x3e48ecee	0.19621632
34	0xbe373beb	-0.1789395
35	0xbd95b34c	-0.07309589
36	0x3e7de418	0.24794042
37	0xbdb31288	-0.08743769
38	0x3e0b374c	0.13595313
39	0x3da3a097	0.079896145
40	0xbd754a41	-0.059885267
41	0xbe3513fd	-0.17683406
42	0x3e0aa268	0.13538516
43	0x3e29790b	0.1655008
44	0x3e4ac7dd	0.19802804
45	0x3e00c8c5	0.12576587
46	0x3d4ad9cc	0.049524114
47	0x3c4877c8	0.012235589
48	0xbe3de3d1	-0.18543936
49	0x3cbcc549	0.023043292
50	0x3df07114	0.11740318
51	0xbe89d266	-0.26918334
52	0xbde7ae1d	-0.11312506
53	0xbe1430f6	-0.14471802
54	0xbda30ec9	-0.079618044
55	0x3dc4d5a1	0.09611059
56	0xbd77cde1	-0.060499076
57	0x3e5f0db8	0.21782577
58	0x3d76bfaf	0.060241397
59	0xbc331ff1	-0.010932908
60	0xbd9dfcce	-0.07714234
61	0xbd9f2b8f	-0.0777198
62	0xbcd89a21	-0.026440682
63	0x3e413ec5	0.18871601
64	0xbcc32996	-0.02382354
65	0x3e65cc71	0.2244127
66	0xbe31e47d	-0.17372318
67	0xbe5e128d	-0.21686764
68	0x3e38717c	0.18012041
69	0x3e34849e	0.17628714
70	0xbd94683d	-0.072464444
71	0xbd0ba351	-0.034091298
72	0x3e48deee	0.19616291
73	0xbe06e788	-0.1317426
74	0x3cb1b4c0	0.021692634
75	0x3d797928	0.06090656
76	0xbc370bb0	-0.01117222
77	0xbc5e3760	-0.013563007
78	0x3c621ab0	0.013800308
79	0xbd506d00	-0.0508852
80	0x3dfdfb2c	0.12401423
81	0xbc3ea490	-0.011635914
82	0x3e3ff902	0.18747333
83	0x3e38356c	0.17989129
84	0x3d0ed400	0.034870148
85	0x3dc9a5e0	0.09846091
86	0x3cb182d8	0.021668836
87	0x3ca3a8d8	0.019977972
88	0x3e124e4e	0.14287683
89	0xbdee7b26	-0.116445825
90	0x3e2a823e	0.16651246
91	0x3bd5fb0d	0.0065301717
92	0xbe4f5b4a	-0.20249668
93	0x3db85e68	0.090023816
94	0x3dd008d5	0.101579346
95	0xbd820c95	-0.06350056
96	0xbdd5e1f0	-0.10443485
97	0xbe677224	-0.22602135
98	0x3e117351	0.14204146
99	0xbdf27eae	-0.118405685
100	0xbe126d1b	-0.14299433
101	0xbdbc32e1	-0.09189392
102	0xbdaa616e	-0.083193645
103	0xbd349037	-0.044082846
104	0xbe3fed23	-0.18742804
105	0xbde68579	-0.11255927
106	0xbd71b291	-0.059008185
107	0xbe3590b5	-0.17730983
108	0x3ce0a584	0.027422674
109	0xbcee81b2	-0.029114578
110	0x3c99b4d1	0.018762978
111	0xbdb1f232	-0.08688773
112	0xbde7e250	-0.113224626
113	0x3dc26405	0.094917335
114	0x3e070b02	0.13187793
115	0x3dbf3694	0.09336582
116	0xbda054fe	-0.07828711
117	0xbd8ae94e	-0.067827806
118	0xbdfc5260	-0.12320399
119	0x3d3e31ea	0.04643432
120	0xbe13cf06	-0.14434442
121	0x3d3a298c	0.04544978
122	0xbc90f440	-0.017694592
123	0xbcbb1220	-0.022835791
124	0xbd7e8e12	-0.062147208
125	0xbe1c008f	-0.15234588
126	0xbe28f6c6	-0.16500387
127	0x3dcd6ff3	0.10031118
128	0xbdbb0fa7	-0.09133845
129	0xbd9402dc	-0.07227108
130	0xbe2c2415	-0.16810639
131	0xbcb882c3	-0.02252329
132	0xbe2db4d0	-0.16963506
133	0xbc0f8016	-0.008758565
134	0xbe4fc8ff	-0.20291518
135	0x3c6cc47d	0.014451143
136	0x3e1e2fb1	0.1544788
137	0xbe46ee0d	-0.19426747
138	0x3d8254cc	0.0636383
139	0xbe12cbdb	-0.14335577
140	0x3db3feb7	0.087888174
141	0xbe4344ff	-0.19069289
142	0x3dd2b8e9	0.10289175
143	0x3d963a86	0.07335381
144	0x3f31a0de	0.6938609
145	0x3e1794c9	0.14802851
146	0xbe6bf88b	-0.2304403
147	0xbe97380c	-0.29534948
148	0x3f1fe97e	0.62465656
149	0x3e01f1c7	0.12689887
150	0xbcd3fd8c	-0.025877737
151	0x3dcf4b4e	0.10121785
152	0xbe57261e	-0.21010634
153	0x3e3a1392	0.18171528
154	0x3b563180	0.0032683313
155	0x3d474530	0.048649967
156	0xbe1044fe	-0.14088818
157	0x3da18c5f	0.07888102
158	0xbd714388	-0.058902293
159	0xbd78046d	-0.060551096
160	0xbc096f13	-0.008388299
161	0x3dbdbc3d	0.09264419
162	0xbe18d7c3	-0.14926057
163	0x3a31c97f	0.00067820394
164	0x3d4d55b8	0.050130576
165	0x3d9cd88f	0.07658493
166	0xbe072bdc	-0.13200325
167	0x3db55083	0.08853247
168	0x3e31411f	0.17309998
169	0xbdbe7153	-0.09298959
170	0xbdb817db	-0.08988925
171	0xbdbc26b1	-0.09187067
172	0xbe636398	-0.22205961
173	0xbe36888b	-0.17825525
174	0xbdb01503	-0.08597758
175	0xbe1432d9	-0.14472522
176	0xbd22414a	-0.039613046
177	0x3d85f46b	0.0654076
178	0xbca03592	-0.019556794
179	0x3e1eb311	0.15497996
180	0x3d1194f3	0.03554244
181	0x3c2532c9	0.010082909
182	0x3dd559cb	0.10417517
183	0x3dbd9242	0.09256412
184	0x3eaa4273	0.33253822
185	0x3e41167f	0.18856238
186	0x3e857c21	0.26071265
187	0xbdec23a1	-0.11530233
188	0x3d83ebe4	0.06441477
189	0x3e6c0807	0.23049937
190	0x3e8c6485	0.2742044
191	0x3df84dc5	0.12124208
192	0xbdda57f8	-0.1066131
193	0x3e1c7c09	0.1528169
194	0x3d2efb33	0.04272003
195	0xbde5a403	-0.112129234
196	0xbe43fb91	-0.19138934
197	0xbe7664dc	-0.24061912
198	0xbd3c00d6	-0.045899235
199	0x3e02fede	0.12792537
200	0x3e3f1d2a	0.18663469
201	0xbce908dc	-0.028446607
202	0xbe18efca	-0.14935222
203	0x3d7e6af6	0.062113725
204	0x3d6ca03c	0.05777
205	0xbdb27523	-0.08713748
206	0x3e03dab9	0.12876405
207	0x3d733046	0.05937221
208	0xbd4df5fb	-0.050283413
209	0x3d1b10fe	0.037858002
210	0xbdd43c87	-0.10363107
211	0x3cf9bade	0.030484613
212	0xbd0b29f4	-0.033975556
213	0x3d94b139	0.07260365
214	0xbdb8cb1d	-0.09023116
215	0xbdfab9ce	-0.12242471
216	0x3eb922de	0.36159414
217	0x3d8b0a13	0.06789031
218	0xbda6f902	-0.08152963
219	0x3e998b92	0.29989296
220	0xbcad8925	-0.02118356
221	0xbdf2dfab	-0.118590675
222	0x3e27299f	0.16324471
223	0xbe30d509	-0.17268766
224	0xbe52a299	-0.20569839
225	0xbe3b1fd8	-0.18273866
226	0x3ba5af00	0.005056262
227	0xbd44c398	-0.048038095
228	0x3dc7033b	0.09717413
229	0xbdedc5f0	-0.11610019
230	0x3ba4bbea	0.005027284
231	0xbc162639	-0.009164386
232	0xbe01170d	-0.1260645
233	0xbc13ab60	-0.009013027
234	0xbd233f80	-0.03985548
235	0x3dc28512	0.094980374
236	0x3d7ef7e3	0.062248122
237	0xbdaf77b3	-0.08567753
238	0xbdf0650f	-0.117380254
239	0xbe16060d	-0.14650746
240	0x3d9b122c	0.075718254
241	0x3e525c84	0.20543104
242	0xbd6fb400	-0.05852127
243	0xbdabea91	-0.08394349
244	0xbe401020	-0.18756151
245	0xbe1a63b9	-0.15077104
246	0x3da1a692	0.07893099
247	0x3d972d9c	0.07381746
248	0x3e4daf71	0.20086457
249	0x3df9d361	0.121985205
250	0xbde56386	-0.11200623
251	0x3d826b1c	0.06368086
252	0x3dd95f4a	0.10613878
253	0xbd73fdb3	-0.05956812
254	0xbdb9740b	-0.090553366
255	0x3a349500	0.0006888658

u1.conv1.bias f4 [8]
0	0xba642307	-0.0008702729
1	0xbcad9e4f	-0.021193651
2	0xbd3b9ba6	-0.045802735
3	0x3c4c6e4d	0.01247747
4	0xbc1ac8e8	-0.009447314
5	0x3c2997f0	0.010351166
6	0x3c873e70	0.016509265
7	0xbb48779a	-0.0030588866

u1.conv2.weight f4 [8, 8, 3, 3]
0	0x3e354078	0.17700374
1	0xbc8852c8	-0.016641036
2	0x3de6d9d6	0.11272018
3	0x3e07d44d	0.1326458
4	0xbcff976e	-0.031200137
5	0xbc64e5e7	-0.013970829
6	0xbda92fad	-0.082610466
7	0xbde29c8b	-0.110650145
8	0x3d411035	0.047134597
9	0xbca93448	-0.020654812
10	0xbe283b6c	-0.16428918
11	0x3d4ce0a0	0.050018907
12	0x3dd6bec9	0.10485608
13	0xbe4bca9b	-0.19901507
14	0xbe0c57c2	-0.13705352
15	0x3ba857da	0.005137426
16	0x3cd069f6	0.025441151
17	0xbe0f1a2c	-0.13974828
18	0x3d753e21	0.059873704
19	0x3e08b2de	0.13349482
20	0x3daebb57	0.08531826
21	0x3e1561d2	0.14588097
22	0x3ed27961	0.4110823
23	0xbd51815f	-0.05114877
24	0x3db7a3e9	0.0896681
25	0x3e332ada	0.17496815
26	0x3e0128bf	0.126132
27	0x3ccd8a33	0.025090313
28	0xbcef601a	-0.02922063
29	0xbdeb6449	-0.11493737
30	0x3e125e0c	0.14293689
31	0x3e3e31d8	0.18573701
32	0x3e2042d1	0.15650488
33	0x3e192882	0.14956859
34	0x3d355f37	0.044280257
35	0x3dc797e0	0.09745765
36	0x3cc79ffe	0.024368282
37	0xbd91e5b8	-0.071238935
38	0xbde1bb96	-0.11022107
39	0xbe56efea	-0.20989957
40	0xbe786ed7	-0.24261032
41	0xbdccfa21	-0.10008646
42	0xbe14fb66	-0.14549026
43	0x3db87f79	0.090086885
44	0x3d9768ee	0.073930606
45	0xbd3ee4eb	-0.046605032
46	0x3d4aa666	0.049475096
47	0xbc9bcb1f	-0.019017754
48	0x3dead680	0.11466694
49	0x3d991b8f	0.074759595
50	0xbc8caadf	-0.017171321
51	0x3dc259cc	0.09489784
52	0xbe4fd8b0	-0.20297503
53	0x39f84397	0.00047352604
54	0xbccb22cb	-0.024796864
55	0xbd9ddb94	-0.07707897
56	0x3bbe17d7	0.005801182
57	0xbdd0129a	-0.10159798
58	0xbdf3eb10	-0.11910069
59	0xbb19f6a6	-0.0023492961
60	0xbd2984f1	-0.04138655
61	0xbd74fb20	-0.059809804
62	0xbd1c116f	-0.038102563
63	0x3e603667	0.21895753
64	0x3da78f19	0.081815906
65	0x3d945ab5	0.072438635
66	0xbcef582c	-0.029216848
67	0xbe3345af	-0.17507051
68	0xbe332096	-0.174929
69	0xbcb57f19	-0.022155331
70	0x3d9852e0	0.07437682
71	0x3cbd0d71	0.023077698
72	0xbe0ab88b	-0.1354696
73	0xbe87fe66	-0.26561278
74	0xbe431595	-0.19051202
75	0x3e1aa444	0.15101725
76	0xbda09f81	-0.07842923
77	0xbe651de2	-0.2237468
78	0x3bfee72d	0.007779023
79	0xbe0e2df6	-0.1388472
80	0xbddda709	-0.10822875
81	0xbe283f29	-0.16430344
82	0x3cad43b1	0.021150442
83	0x3e1bd897	0.15219341
84	0x3ded95d9	0.11600847
85	0x3d92729a	0.07150765
86	0xbde43da3	-0.11144569
87	0x3d2713ea	0.040790476
88	0xbe1c3466	-0.15254363
89	0xbe0de042	-0.13855079
90	0xbdae5224	-0.08511761
91	0x3d06e9b7	0.03293773
92	0xbd333532	-0.043751903
93	0xbddc1966	-0.10747032
94	0x3e7a87e0	0.24465895
95	0x3cb5d7d1	0.022197636
96	0x3d19ab05	0.037516613
97	0x3e28a797	0.1647018
98	0x3da2a0e4	0.07940844
99	0x3d084009	0.033264194
100	0x3dd13a61	0.10216213
101	0xbd550d74	-0.052014783
102	0x3e0b3273	0.13593464
103	0x3dadc0da	0.08484049
104	0x3d2489a9	0.040170345
105	0xbe3594b2	-0.17732504
106	0x3e07b0a1	0.13250972
107	0x3d25d56f	0.04048675
108	0x3dabd32e	0.08389889
109	0x3ce676d2	0.02813283
110	0x3cf953e2	0.030435506
111	0x3e2123de	0.15736338
112	0x3d3846b1	0.04498929
113	0x3d8beff0	0.06832874
114	0xbe360b94	-0.17777854
115	0xbdcb4508	-0.09925276
116	0xbca2449c	-0.019808106
117	0x3d5cd7b8	0.053916663
118	0x3d8d7120	0.069063425
119	0xbe1f960d	-0.15584584
120	0xbdea288c	-0.11433515
121	0xbd7f566f	-0.06233829
122	0x3d2bf15d	0.04197823
123	0x3ce6302e	0.028099146
124	0x3e8a3fee	0.270019
125	0xbe0a7299	-0.13520278
126	0xbe0cc8a0	-0.13748407
127	0x3dbf37b4	0.093367964
128	0xbda06ed7	-0.07833641
129	0xbcdecc78	-0.027197108
130	0xbcdf1971	-0.027233811
131	0x3db94712	0.09046759
132	0x3e22a740	0.15884113
133	0x3e2b3652	0.1671994
134	0xbdca3820	-0.09873986
135	0x3e193f1c	0.1496548
136	0xbd387495	-0.045033056
137	0xbcf8afe0	-0.030357301
138	0xbdb48a8f	-0.088154905
139	0xbe359ffd	-0.17736812
140	0xbd106ce3	-0.035260092
141	0xbd67e6ff	-0.05661678
142	0xbe2f8c86	-0.17143449
143	0x3db36bfe	0.08760832
144	0xbd1f4141	-0.03888059
145	0x3dfa26a5	0.12214402
146	0xbe743442	-0.2384806
147	0x3e71bfbc	0.23608297
148	0x3b9627b7	0.004582371
149	0x3e2fa204	0.17151648
150	0x3d80db01	0.06291772
151	0xbe7639ec	-0.24045533
152	0xbe881ea2	-0.2658587
153	0xbd8897ea	-0.066696
154	0x3e437c91	0.19090487
155	0xbd68daa8	-0.05684915
156	0xbcfcc88e	-0.03085735
157	0x3c97ff06	0.018554222
158	0x3e44bf1e	0.1921353
159	0x3e363133	0.17792206
160	0xbd55f5e2	-0.052236445
161	0xbcc2cb9b	-0.023778727
162	0xbda82661	-0.08210445
163	0xbda585d5	-0.08082167
164	0x3e06f7f6	0.13180527
165	0xbe000352	-0.12501267
166	0xbe5886b0	-0.21145129
167	0x3d1f8838	0.038948268
168	0xbe7167c7	-0.23574744
169	0xbdcf3e32	-0.10119285
170	0xbe26501b	-0.16241495
171	0xbe0e27bd	-0.13882346
172	0x3b3f7dff	0.0029219387
173	0x3c568c61	0.013094992
174	0xbd2c8c5c	-0.042126045
175	0xbd170a5f	-0.036875125
176	0x3cc9514e	0.024574902
177	0xbd99c1ea	-0.07507689
178	0x3db8f7bb	0.09031626
179	0x3d46fffc	0.04858397
180	0x3cb813b6	0.022470336
181	0x3dcb30a0	0.09921384
182	0x3e3a273b	0.18179028
183	0x3e0b4bb1	0.13603093
184	0xbdbfc903	-0.09364512
185	0x3dd1a22b	0.10236009
186	0xbe6d170f	-0.23153327
187	0xbe819f98	-0.25317073
188	0xbe05598a	-0.13022438
189	0xbe846cf7	-0.25864384
190	0x3e0a4af0	0.13505149
191	0xbe1cbccc	-0.15306395
192	0x3be27dcf	0.00691197
193	0x3db2867d	0.08717058
194	0xbe5eed88	-0.21770298
195	0xbe0f779c	-0.14010471
196	0x3e9457ea	0.28973323
197	0xbea6fa6b	-0.3261293
198	0xbc66ea5b	-0.014093961
199	0x3d714764	0.058905974
200	0x3e051465	0.12996061
201	0x3e291623	0.1651235
202	0xbdf1f029	-0.11813385
203	0x3e1ccbde	0.15312144
204	0xbdbba4d8	-0.09162301
205	0x3e090137	0.1337937
206	0xbde73350	-0.11289084
207	0xbdea987e	-0.11454867
208	0x3e39082c	0.18069524
209	0xbd027a70	-0.031855047
210	0x3cd6bdd7	0.02621357
211	0x3d7c5507	0.061604526
212	0x3d83a6ec	0.06428322
213	0xbdc2c68e	-0.095105276
214	0x3dd5e1b1	0.10443438
215	0xbe23da62	-0.16001275
216	0x3dbe5f22	0.09295489
217	0x3d89f02d	0.06735263
218	0xbea3d513	-0.319985
219	0x3e22888b	0.158724
220	0xbd53708c	-0.051621005
221	0xbd3fa158	-0.04678473
222	0x3c7fd8da	0.015615666
223	0xbe8d791d	-0.27631465
224	0xbda7244d	-0.08161221
225	0xbe12ba1d	-0.14328809
226	0xbc060a10	-0.00818111
227	0xbe18d244	-0.1492396
228	0xbceda309	-0.029008405
229	0x3d7b4390	0.06134373
230	0xbd82a854	-0.06379762
231	0x3e363a16	0.17795596
232	0xbd1e4833	-0.038643073
233	0x3dbcf9c9	0.0922733
234	0xbd5dafff	-0.05412292
235	0xbdb93b63	-0.0904453
236	0x3d7bf466	0.061512373
237	0xbdb390b0	-0.08767831
238	0x3d2cd3f2	0.042194314
239	0xbdce8d1d	-0.10085509
240	0xbe1b0242	-0.1513758
241	0x3e5a2491	0.21303011
242	0xbddd923e	-0.10818909
243	0x3c0bd586	0.008534795
244	0x3e669cb3	0.22520714
245	0xbdc6abdd	-0.09700749
246	0xbe525c91	-0.20543124
247	0x3e0e2ff3	0.13885479
248	0x3d8ab7eb	0.06773361
249	0x3e0081d6	0.12549528
250	0x3d46e195	0.048554976
251	0x3ccedd43	0.02525199
252	0x3d82299c	0.063555926
253	0xbe505255	-0.20343907
254	0x3dbc6b2a	0.092001274
255	0x3d84e0fd	0.064882256

u1.conv2.bias f4 [8]
0	0xbb15709a	-0.0022802711
1	0x3b076b70	0.0020663403
2	0xbb30c7ee	-0.0026974636
3	0x3ca01cf1	0.01954505
4	0xbb98ab3c	-0.0046590846
5	0x3c793d06	0.015212303
6	0xbd6ae92b	-0.057351273
7	0x3bb12513	0.005406031

u1.conv3.weight f4 [8, 8, 3, 3]
0	0xbe2b253a	-0.1671342
1	0xbc6e8399	-0.0145577425
2	0xbe3624fe	-0.17787549
3	0xbe7d2a77	-0.2472323
4	0xbe31a926	-0.17349681
5	0xbe609f3c	-0.21935743
6	0x3ca416bd	0.020030374
7	0x3defedb9	0.11715264
8	0xbe142d34	-0.14470369
9	0xbddcb2a0	-0.107762575
10	0xbdeb972c	-0.11503443
11	0xbe0a183d	-0.13485809
12	0x3b904588	0.00440282
13	0xbad6a91d	-0.0016377304
14	0xbd5cb28e	-0.05388122
15	0xbe2333eb	-0.15937774
16	0x3dc95688	0.09830958
17	0xbe4ccdc0	-0.20000362
18	0xbe1a263f	-0.15053652
19	0xbe814a24	-0.25251877
20	0x3d0936e0	0.0334996
21	0xbe48dcc8	-0.19615471
22	0x3a527672	0.0008028514
23	0xbdeacbde	-0.11464666
24	0xbde0a42c	-0.10968813
25	0xbe711261	-0.23542167
26	0xbca2e70e	-0.019885566
27	0x3c88375e	0.016627964
28	0xbe1b2d0a	-0.151539
29	0xbd354d43	-0.044263136
30	0xbd8b4c91	-0.06801713
31	0xbdb0ab89	-0.08626468
32	0xbe374a0e	-0.17899343
33	0xbe184273	-0.14869098
34	0x3d9cf4a0	0.07663846
35	0x3c852569	0.01625319
36	0xbd864c39	-0.06557507
37	0x3d2cfb96	0.04223212
38	0x3daafcb2	0.08348979
39	0x3da9c48b	0.08289441
40	0x3d2f51df	0.042802688
41	0xbe1ff902	-0.15622333
42	0x3dbd3de8	0.09240323
43	0xbd1d59c8	-0.0384157
44	0x3d1ba393	0.037997793
45	0xbddb5197	-0.107089214
46	0xbe44b594	-0.19209892
47	0xbde0f7ea	-0.10984786
48	0xbcc64e3e	-0.02420723
49	0xbd061a77	-0.032740083
50	0x3d16dac5	0.03682973
51	0x3dec2d83	0.11532118
52	0xbe899644	-0.26872456
53	0xbd867986	-0.065661475
54	0x3e31731e	0.1732907
55	0xbc8573be	-0.016290542
56	0xbe203caf	-0.15648149
57	0xbd19a0ac	-0.037506744
58	0xbe9dfd24	-0.30857193
59	0xbe0505eb	-0.12990539
60	0xbdffc900	-0.124895096
61	0x3dfb50cd	0.12271271
62	0x3d2e7dad	0.042600323
63	0xbdf5b3ee	-0.119972095
64	0x3db8cd6f	0.09023558
65	0xbe279085	-0.16363724
66	0xbe22e796	-0.15908656
67	0xbd043390	-0.032275736
68	0xbd067830	-0.032829463
69	0x3d6982c8	0.05700949
70	0x3d4e1a8b	0.050318282
71	0x3e06c285	0.13160141
72	0xbe457a53	-0.19284944
73	0xbdcfa27b	-0.101384126
74	0xbd24be5a	-0.040220596
75	0xbdd7149f	-0.1050198
76	0x3e711823	0.23544364
77	0x3dca7c59	0.09886999
78	0x3df7e45d	0.12104104
79	0x3debae4f	0.11507856
80	0xbd96ebca	-0.07369192
81	0x3d345bd9	0.044032905
82	0x3e3b12d5	0.18268903
83	0x3cffcc2a	0.031225283
84	0x3c9d94b8	0.019235954
85	0x3e947fcd	0.29003754
86	0x3d4d03aa	0.050052322
87	0xbd9a243f	-0.07526445
88	0xbcb31670	-0.021861285
89	0xbdc3aa3a	-0.095539525
90	0xbe372d36	-0.1788834
91	0xbc4d9dc5	-0.012549822
92	0x3c92b4cb	0.017908474
93	0x3d9b631d	0.07587264
94	0x3e280a2d	0.16410132
95	0xbd2e62f6	-0.042574845
96	0x3e0ed096	0.13946757
97	0x3d7f26c5	0.062292833
98	0x3d850cdf	0.064965956
99	0xbe35540f	-0.17707847
100	0xbd66f2b5	-0.056383807
101	0xbd22db4e	-0.039759926
102	0xbe361dd7	-0.1778482
103	0x3ea142c9	0.31496266
104	0xbcffe134	-0.031235315
105	0xbe467f7f	-0.19384573
106	0x3d495322	0.049151547
107	0x3d03885a	0.032112457
108	0xbdda3b6d	-0.10655866
109	0xbe8ca662	-0.2747069
110	0xbdbd5d97	-0.092463665
111	0xbd0a70cb	-0.033798974
112	0x3da424e2	0.08014847
113	0x3dbc9e2d	0.09209857
114	0xbd940788	-0.07227999
115	0x3c305095	0.0107614
116	0x3d52e583	0.05148841
117	0xbe453499	-0.19258346
118	0x3c2117b1	0.009832309
119	0x3db9efed	0.09078965
120	0xbe44fed6	-0.19237837
121	0xbe119f33	-0.14220886
122	0xbce0f179	-0.027458893
123	0xbcbe6d6b	-0.023245534
124	0xbbbd1644	-0.0057704765
125	0xbd9432e0	-0.07236266
126	0xbeabbe6b	-0.33543715
127	0xbe20b651	-0.15694548
128	0xbd72da05	-0.05928995
129	0xbe632ba9	-0.22184624
130	0x3cee4416	0.0290852
131	0xbe07ed3b	-0.1327409
132	0x3e087495	0.13325723
133	0xbe03e69e	-0.12880942
134	0x3d8d5c77	0.06902402
135	0xbe28e7d3	-0.16494684
136	0x3dd5ceb2	0.104398146
137	0x3daa3f43	0.083128475
138	0xbdd5f9f8	-0.104480684
139	0xbe0dbd65	-0.1384178
140	0xbc8cbd12	-0.01718
141	0x3de4e65f	0.11176752
142	0x3da5d2d1	0.08096851
143	0xbdaec43a	-0.08533521
144	0x3d969116	0.07351892
145	0xbe1c10c0	-0.15240765
146	0xbcca5b42	-0.024701718
147	0x3c8d2477	0.017229302
148	0xbec20e71	-0.37901643
149	0x3d5f1fcf	0.054473694
150	0x3c1fc94a	0.009752581
151	0xbe8fc4d1	-0.28079847
152	0x3e0af9bc	0.13571829
153	0xbc88bc7a	-0.016691435
154	0xbe3bbcce	-0.18333742
155	0x3caf8d2e	0.021429624
156	0x3bceee15	0.0063150027
157	0xbdeeb1a4	-0.11654976
158	0x3e025da6	0.12731037
159	0xbc9b5ba6	-0.0189646
160	0xbe75a82a	-0.23989931
161	0xbd9bf256	-0.07614581
162	0xbda1e957	-0.07905834
163	0x3d8cb3e8	0.06870252
164	0xbd73b279	-0.059496377
165	0xbde9c959	-0.11415357
166	0x3e4455d0	0.1917336
167	0xbe0e93ee	-0.13923618
168	0x3e0313ed	0.1280057
169	0x3e1d1087	0.15338336
170	0xbd9660f6	-0.073427126
171	0x3dedb406	0.11606602
172	0xbd94af02	-0.072599426
173	0xbdd5e6e3	-0.10444429
174	0xbe1214de	-0.14265773
175	0xbe66510c	-0.22491854
176	0xbcca1bf8	-0.02467154
177	0x3dd14564	0.10218313
178	0xbda70dce	-0.0815693
179	0xbda57b3e	-0.08080147
180	0x3b00a488	0.0019629318
181	0x3dadad54	0.08480325
182	0xbd0d7b47	-0.034541395
183	0x3de9a9a7	0.11409312
184	0x3e1f2d27	0.15544568
185	0x3d50f732	0.051016994
186	0xbdc68ddb	-0.096950255
187	0x3e4a8d08	0.19780362
188	0xbca4f8cb	-0.020138165
189	0x3b8efb68	0.004363466
190	0x3e43604e	0.19079706
191	0xbe4733b4	-0.19453317
192	0xbdeb9ca1	-0.11504484
193	0x3db53889	0.08848674
194	0xbe3c1640	-0.18367863
195	0xbe77196c	-0.24130791
196	0x3e467edc	0.1938433
197	0xbe025966	-0.12729415
198	0xbe15582b	-0.14584415
199	0x3e0845c2	0.1330786
200	0x3def4f03	0.11684992
201	0x3d9d6da0	0.07686925
202	0xbd0eb434	-0.034839824
203	0x3e1a4703	0.15066151
204	0xbdea6198	-0.11444396
205	0x3c53c841	0.012926162
206	0x3d821094	0.06350818
207	0x3dec3c90	0.11534989
208	0xbe0a89f0	-0.13529181
209	0x3d97ee48	0.074184954
210	0xbd9fde51	-0.07806075
211	0x3e54a049	0.20764269
212	0x3ba887cb	0.005143141
213	0x3e0db891	0.13839938
214	0x3e04b2ad	0.12958784
215	0x3cf22159	0.029556917
216	0x3de71e46	0.11285071
217	0xbdc594ec	-0.09647545
218	0x3df1d112	0.11807455
219	0x3d7db595	0.06194075
220	0xbd9dc8a7	-0.07704287
221	0xbd2741b1	-0.040834133
222	0xbe65a0eb	-0.22424667
223	0xbd56811e	-0.05236923
224	0xbd220cf1	-0.039563123
225	0x3e0451d1	0.12921835
226	0xbda7e20b	-0.08197411
227	0xbdf12aea	-0.11775763
228	0x3e054bda	0.13017216
229	0x3d97c42d	0.074104644
230	0x3d952208	0.072818816
231	0xbcefc3d9	-0.029268192
232	0xbd1b8db9	-0.037976954
233	0xbe3ee0e7	-0.18640481
234	0xbd4cd05c	-0.050003394
235	0x3e199109	0.14996733
236	0xbe1fd01d	-0.15606733
237	0x3e719687	0.23592578
238	0x3e11fd36	0.14256749
239	0x3e8aef62	0.2713576
240	0x3d8012ba	0.06253572
241	0xbc99dcc9	-0.018782036
242	0xbdab21cd	-0.08356056
243	0x3dc3e28d	0.095646955
244	0x3ded7ebc	0.11596438
245	0x3bbce381	0.0057644253
246	0xbe0b8a64	-0.1362701
247	0x3d5beedb	0.053694587
248	0xbcbd892b	-0.023136696
249	0xbd52d0a2	-0.0514685
250	0x3d45526b	0.048174303
251	0x3d82e67b	0.06391617
252	0xbe2fca65	-0.17167051
253	0xbcb8966c	-0.022532664
254	0xbe0fb85a	-0.14035168
255	0x3e04bc8e	0.12962553

u1.conv3.bias f4 [8]
0	0xbda1be03	-0.0789757
1	0x3b60b270	0.0034286045
2	0xbb47d3e0	-0.0030491278
3	0x3b84b5cf	0.0040499936
4	0xbcc69c15	-0.024244348
5	0xbbbc69d7	-0.005749922
6	0xbc12107c	-0.008915063
7	0x3bbc77e2	0.005751596

u1.G.weight f4 [1, 8, 3, 3]
0	0x3dbddebe	0.09271
1	0xbe3bdc18	-0.18345678
2	0xbe4024e6	-0.18764076
3	0x3b29a8f5	0.002588806
4	0x3e4ff5e5	0.20308645
5	0x3dd89480	0.10575199
6	0x3e122971	0.14273621
7	0xbdd8f2cf	-0.10593187
8	0x3e3d2f03	0.18474965
9	0x3cb9478f	0.02261713
10	0xbc3428fe	-0.010996101
11	0xbd47af88	-0.048751384
12	0xbe05853b	-0.13039105
13	0xbe562f3e	-0.20916459
14	0x3e197d30	0.14989161
15	0x3e13fcc8	0.14451897
16	0x3db76c69	0.089562245
17	0x3e684c9c	0.22685474
18	0xbd74dd40	-0.059781313
19	0x3e6978a2	0.22799924
20	0xbdd16df4	-0.1022605
21	0x3e111519	0.14168204
22	0x3e115c3a	0.14195338
23	0xbe071a77	-0.1319369
24	0x3db3a6c4	0.087720424
25	0x3c9170f6	0.01775406
26	0x3e356d94	0.17717582
27	0x3dd0b429	0.10190613
28	0x3cc39036	0.023872476
29	0x3e9a8c8a	0.30185348
30	0xbdd70f5a	-0.10500975
31	0x3dd70906	0.10499768
32	0xbe2ddad8	-0.16978014
33	0x3ca5f405	0.02025796
34	0x3c2d01b5	0.010559489
35	0x3e3da477	0.1851977
36	0xbe87b6c1	-0.26506618
37	0xbca8d838	-0.020610914
38	0xbe09ec8e	-0.13469145
39	0xbe837e20	-0.25682163
40	0x3d09f115	0.03367718
41	0xbe365bbf	-0.17808436
42	0xbe6f7f56	-0.23388419
43	0x3d932973	0.0718564
44	0x3e24c420	0.16090441
45	0x3dcaa5ed	0.09894929
46	0xbdefa5a2	-0.11701514
47	0x3d7c9c17	0.061672296
48	0x3c7e0553	0.015504199
49	0xbdad03d7	-0.08447998
50	0x3dc8e792	0.098097935
51	0x3e0369c3	0.12833314
52	0x3d852385	0.065009154
53	0xbe0a23b3	-0.1349018
54	0x3e7071e1	0.23480941
55	0x3e1fac47	0.15593062
56	0xbe09c732	-0.13454893
57	0xbd81d5f1	-0.06339634
58	0x3e790cc6	0.24321279
59	0xbd82bd3c	-0.0638375
60	0x3e10595d	0.1409659
61	0xbdecb352	-0.1155764
62	0x3c6b3a20	0.01435712
63	0xbe59050a	-0.21193328
64	0xbe1194e2	-0.1421695
65	0x3c00f19f	0.007870107
66	0x3ddac65a	0.10682364
67	0x3df99994	0.12187496
68	0xbe2a3ee0	-0.16625547
69	0x3d87ab1e	0.06624435
70	0x3d8d58f0	0.06901729
71	0xbc2c60a5	-0.010521089

u2.E.weight f4 [8, 1, 3, 3]
0	0x3c0bff85	0.008544807
1	0xbe62e9de	-0.22159526
2	0x3de31130	0.11087263
3	0x3d0418de	0.032250278
4	0x3de95542	0.11393215
5	0x3c13fcdf	0.009032457
6	0x3dc3f5bc	0.095683545
7	0xbe1c664c	-0.15273398
8	0x3e08c5cc	0.13356704
9	0xbdb11b57	-0.08647793
10	0xbe96e3f7	-0.29470798
11	0x3e1c278f	0.15249465
12	0xbd98f3f7	-0.074684076
13	0xbe9bc023	-0.30420026
14	0xbbc8c94f	-0.0061275135
15	0xbd938d76	-0.07204716
16	0x3dea8719	0.11451549
17	0xbe040922	-0.12894109
18	0xbe66b67c	-0.2253055
19	0x3e076758	0.13223016
20	0x3e252206	0.1612626
21	0xbea98dee	-0.33116096
22	0x3d54c8de	0.051949374
23	0xbc7e078c	-0.015504729
24	0xbdc61e16	-0.09673707
25	0x3e3033b1	0.17207219
26	0x3e263ff5	0.16235335
27	0x3d22e06b	0.039764803
28	0xbe20e7ae	-0.15713379
29	0xbc136ec3	-0.008998576
30	0x3e2e1d92	0.17003468
31	0xbdd33a54	-0.103138596
32	0x3e628edf	0.22124813
33	0xbdcd4ae8	-0.10024053
34	0x3e09dd28	0.1346327
35	0x3c00eeda	0.007869447
36	0xbe3c2f2d	-0.18377371
37	0x3dfd5369	0.12369425
38	0xbe1f1232	-0.15534285
39	0x3e64988d	0.22323819
40	0xbe1cc994	-0.15311271
41	0x3dcf4174	0.10119906
42	0x3d7f6d43	0.06236006
43	0x3e563f9e	0.20922706
44	0x3e0848f2	0.13309076
45	0xbc76f5c3	-0.015073243
46	0xbdce5fab	-0.10076841
47	0x3d3b4a26	0.04572501
48	0x3e6fc6ee	0.2341573
49	0xbdba86d2	-0.09107746
50	0x3df2289a	0.118241504
51	0xbd0aa3fd	-0.033847798
52	0x3d9cd86e	0.07658468
53	0x3e2817a5	0.1641527
54	0x3e3bdfe0	0.1834712
55	0x3d083fe1	0.033264045
56	0x3caae650	0.020861775
57	0x3d1d0749	0.038337026
58	0x3e1a0fac	0.15045041
59	0x3e516698	0.20449293
60	0xbd2d4e2d	-0.042310882
61	0x3e1271b8	0.14301193
62	0x3e52127d	0.20514865
63	0xbe176a08	-0.14786541
64	0xbd9edfc1	-0.077575214
65	0x3e34d487	0.17659198
66	0xbe3694a5	-0.17830141
67	0x3d9f716d	0.07785306
68	0x3dffc15d	0.12488053
69	0x3cd52f24	0.026023455
70	0xbd8c61f2	-0.06854619
71	0x3d00e102	0.031464584

u2.E.bias f4 [8]
0	0xbc3d50a8	-0.0115548745
1	0xbd57ec22	-0.05271543
2	0xbd0837e9	-0.033256445
3	0x3c86abd7	0.016439361
4	0x3b24574a	0.0025076442
5	0xbb64383a	-0.0034823553
6	0xbc5d2599	-0.0134977335
7	0xbb0332a6	-0.0020019202

u2.conv1.weight f4 [8, 8, 3, 3]
0	0x3d9b5fb0	0.0758661
1	0x3d3a2071	0.045441095
2	0x3e1402f5	0.14454253
3	0x3e1be2c5	0.15223224
4	0xbd85fd7f	-0.06542491
5	0xbcc72bfe	-0.02431297
6	0x3e0f8bec	0.1401822
7	0x3d2477be	0.040153258
8	0x3e27654e	0.16347238
9	0x3d461e2e	0.048368625
10	0xbe5d5d6f	-0.21617673
11	0x3bd4b519	0.006491315
12	0xbe19ee73	-0.15032367
13	0x3e217bab	0.15769832
14	0x3debb931	0.11509932
15	0xbc88ea78	-0.016713366
16	0x3dc61248	0.096714556
17	0xbe3cb38d	-0.18427868
18	0xbdd7f2af	-0.10544335
19	0xbd9ff343	-0.0781007
20	0xbe3a9405	-0.18220527
21	0x3dc4a0d1	0.09600986
22	0xbd2591c0	-0.0404222
23	0x3d816657	0.06318348
24	0x3df4ad05	0.11947063
25	0x3e59007a	0.21191588
26	0xbc23e6e6	-0.010003781
27	0x3e3ad40e	0.18244955
28	0xbe038565	-0.12843855
29	0xbe2dd5d5	-0.16976102
30	0x3dc4a1de	0.09601186
31	0x3e331d9a	0.17491761
32	0x3e49c233	0.19702987
33	0xbd08bee0	-0.033385158
34	0xbd75e7ad	-0.060035396
35	0xbcf89e21	-0.03034884
36	0xbdd7d698	-0.105389774
37	0xbe307365	-0.1723152
38	0x3cbfe295	0.023423472
39	0xbd44f2f9	-0.04808328
40	0xbcae33f6	-0.021265011
41	0xbdb5f66d	-0.088848926
42	0xbdf5b3e3	-0.11997201
43	0x3e0b8703	0.13625722
44	0x3c94e0d0	0.018173605
45	0xbc8a434f	-0.016877798
46	0x3e1d5555	0.15364583
47	0x3cdd2e2a	0.026999552
48	0x3d996ef9	0.074918695
49	0x3e2ac2d4	0.16675884
50	0x3dce1458	0.10062474
51	0x3c8df46f	0.01732847
52	0x3d9ae9d9	0.07564134
53	0x3db3cfeb	0.087798916
54	0x3d4f560c	0.05061917
55	0xbe4860ba	-0.19568148
56	0x3dde1c82	0.10845281
57	0xbde13e7d	-0.10998247
58	0x3dc68f07	0.09695249
59	0xbcc0c07b	-0.023529282
60	0x3da97d96	0.08275907
61	0x3d43d6c1	0.047812227
62	0xbdb8f64b	-0.09031352
63	0x3e762587	0.24037753
64	0xbeb9bf18	-0.36278605
65	0xbeb672c2	-0.35634428
66	0xbda73fb2	-0.08166446
67	0xbd7f350b	-0.062306445
68	0x3d8e102f	0.069366805
69	0x3b94929b	0.0045340783
70	0x3d18c7ab	0.037299793
71	0x3dba66af	0.091016166
72	0xbe0964b2	-0.13417318
73	0xbd4df00c	-0.050277755
74	0xbd48917a	-0.048966862
75	0xbd9c8163	-0.07641866
76	0xbdd6193c	-0.10454032
77	0x3e90ff1d	0.28319636
78	0xbdc232ab	-0.094823204
79	0x38d9f952	0.00010393806
80	0x3e171e2e	0.14757606
81	0x3e356121	0.17712833
82	0xbbc69d89	-0.00606126
83	0xbe33dc3d	-0.17564483
84	0x3e01491f	0.1262555
85	0x3e1f9f7c	0.15588182
86	0x3ddbe89b	0.10737725
87	0xbdcbb770	-0.09947097
88	0xbdc4cb6a	-0.09609111
89	0x3dbe31cc	0.09286842
90	0x3c851f84	0.01625038
91	0x3e81ad65	0.25327602
92	0x3e9ffb5f	0.31246468
93	0xbc4c0b44	-0.012453858
94	0x3e19b802	0.150116
95	0x3c83078d	0.015994811
96	0xbe893ae7	-0.2680275
97	0x3d741dd9	0.059598777
98	0x3e1bc3b1	0.15211369
99	0xbdc8c4f9	-0.098031946
100	0xbe17beab	-0.14818828
101	0xbe3f3bca	-0.18675151
102	0x3da3fc79	0.0800714
103	0xbd7a9b0f	-0.06118303
104	0x3a061204	0.0005114379
105	0xbdf1660a	-0.117870405
106	0x3dd40bbb	0.103538
107	0x3e2ce802	0.16885379
108	0x3d6b6e55	0.057478268
109	0x3e6f41d7	0.2336496
110	0xbd7bbe46	-0.061460756
111	0x3e01f284	0.12690169
112	0x3e49b4e5	0.19697912
113	0x3dc9d1a5	0.0985444
114	0x3ddfe0c6	0.10931544
115	0xbcad311b	-0.02114158
116	0xbd802a2f	-0.06258046
117	0x3d78a6a8	0.06070581
118	0x3de45de4	0.11150721
119	0x3cfce6da	0.030871797
120	0xbc942397	-0.018083377
121	0xbb62ef57	-0.003462752
122	0xbd4667e4	-0.04843892
123	0xbdc3ffd1	-0.095702775
124	0xbe4c42ac	-0.19947308
125	0xbcb654b1	-0.02225718
126	0x3db84d48	0.08999115
127	0x3dd23c59	0.10265417
128	0xbdc00817	-0.09376543
129	0x3d5c5f68	0.053801924
130	0xbd091677	-0.03346869
131	0xbe550e3c	-0.20806211
132	0x3e1bf999	0.15231933
133	0xbc9d5b10	-0.019208461
134	0xbe2df7c8	-0.16989052
135	0x3d19acfe	0.037518494
136	0x3b5d1f9b	0.0033740762
137	0xbe60d978	-0.21957958
138	0x3e94b45a	0.29043847
139	0x3e425d6b	0.18980949
140	0x3e650866	0.22366485
141	0xbe638a94	-0.22220832
142	0xbd19ee9d	-0.037581075
143	0xbcaffa3f	-0.021481631
144	0x3dd694ce	0.10477601
145	0x3eb30056	0.34961194
146	0x3d294f7e	0.041335575
147	0x3c916bc3	0.01775158
148	0xba14103a	-0.000564817
149	0x3d6ac3f6	0.05731579
150	0xbcf91172	-0.030403826
151	0xbd7257a9	-0.05916563
152	0xbdc69aed	-0.096975185
153	0xbe47d8bf	-0.19516276
154	0x3e49a057	0.19690071
155	0x3dfd033f	0.12354135
156	0xbda2490f	-0.07924091
157	0xbcc5c323	-0.0241409
158	0x3d1b3f1a	0.037901975
159	0x3e1f200b	0.15539567
160	0x3e0cee02	0.13762668
161	0xbe1660f6	-0.14685425
162	0xbdb94e34	-0.09048119
163	0xbd28a74d	-0.041175175
164	0x3d02a6a2	0.031897195
165	0xbdafcfd1	-0.0858456
166	0xbe3fa10d	-0.1871378
167	0xbd6b8412	-0.057499
168	0x3c9ffdc7	0.01953019
169	0xbe49011a	-0.19629326
170	0x3e5e369c	0.2170052
171	0xbde3f368	-0.111304104
172	0xbd85f351	-0.065405495
173	0x3aec12d6	0.0018010985
174	0xbcf1f2d6	-0.029534739
175	0x3cbb54f5	0.02286766
176	0xbd645f8f	-0.055755194
177	0xbd914af0	-0.07094371
178	0xbd8f7a91	-0.070057996
179	0xbbe359e5	-0.0069382065
180	0xbe08e78c	-0.13369578
181	0xbe85b9b1	-0.26118234
182	0xbc3eddb7	-0.011649541
183	0xbc933129	-0.017967777
184	0xbde66257	-0.112492256
185	0xbdb03b43	-0.08605053
186	0x3d0527d2	0.03250868
187	0x3e02409c	0.12719959
188	0x3d070526	0.032963894
189	0xbdfc0f03	-0.12307551
190	0xbe2e9e34	-0.17052537
191	0x3e4304e3	0.19044833
192	0x3c98ab1f	0.018636284
193	0xbdf2fbbd	-0.118644215
194	0x3e0268b0	0.12735248
195	0xbe2cbc70	-0.16868758
196	0x3d8e1c17	0.069389515
197	0x3d05f59b	0.03270493
198	0x3e3001e4	0.17188221
199	0x3c9c1102	0.019051079
200	0x3cd9ffd9	0.026611255
201	0x3e1da9a3	0.15396743
202	0xbd1355af	-0.035970386
203	0xbdb77a9b	-0.08958932
204	0xbdb8aed7	-0.09017723
205	0x3e0aa493	0.13539343
206	0xbdfca393	-0.12335887
207	0x3cfd42ac	0.03091558
208	0x3e045aef	0.12925313
209	0xbe09c8bd	-0.13455482
210	0xbe07d15e	-0.13263461
211	0x3e5357b4	0.20638925
212	0xbd55d29b	-0.052202802
213	0xbe549cff	-0.20763014
214	0x3e2d44ba	0.16920748
215	0xbc325444	-0.010884348
216	0xbc24bc20	-0.010054618
217	0x3cfc33b4	0.030786373
218	0xbd1177c4	-0.035514608
219	0x3dc42b20	0.09578538
220	0xbc78d315	-0.015187045
221	0x3e33e9d4	0.17569667
222	0x3e2629cb	0.1622688
223	0x3e3c01a7	0.18360005
224	0x3e2d0a48	0.16898453
225	0xbe37f94b	-0.17966191
226	0x3dbc30a4	0.09188965
227	0xbd684625	-0.05670752
228	0x3c520b5c	0.012820091
229	0x3d6b0244	0.057375208
230	0xbcdd7a44	-0.02703584
231	0xbdb43d60	-0.08800769
232	0x3d044ec5	0.032301683
233	0x3d53a733	0.051673125
234	0x3d8d7bfd	0.069084145
235	0xbe134ea8	-0.14385474
236	0xbe5d201b	-0.21594279
237	0xbd82e9fe	-0.06392287
238	0xbe0d9c96	-0.13829264
239	0x3d90771e	0.0705397
240	0x3d1e28a5	0.03861298
241	0x3da562ee	0.0807551
242	0xbcf0a03a	-0.029373277
243	0xbd9e6f7f	-0.0773611
244	0xbe11d61a	-0.1424183
245	0xbdb49efb	-0.088193856
246	0x3e066cfd	0.13127513
247	0x3e0e1f0c	0.13879031
248	0x3e1fe47c	0.15614504
249	0xbdfabd3c	-0.12243125
250	0xbd4009f9	-0.04688451
251	0xbe2bc9e7	-0.16776238
252	0x3dd887c0	0.10572767
253	0x3e1c5592	0.15267017
254	0xbe2705f4	-0.16310865
255	0x3e1cee57	0.15325294

u2.conv1.bias f4 [8]
0	0x3b4ea5e3	0.0031531982
1	0xbc7235a3	-0.014783296
2	0x3cf757e0	0.03019327
3	0xbb1a9c22	-0.0023591598
4	0x3c9c6046	0.019088876
5	0xbbf7b921	-0.007559911
6	0xbd0e612a	-0.03476063
7	0x3b904050	0.004402198

u2.conv2.weight f4 [8, 8, 3, 3]
0	0x3af49c98	0.0018662391
1	0x3d039c05	0.032131214
2	0x3dfed768	0.12443429
3	0xbe296107	-0.16540919
4	0x3e0837c8	0.13302529
5	0x3e2e1249	0.16999163
6	0x3e3de561	0.18544532
7	0x3d41d22b	0.047319572
8	0xbd4a849c	-0.049442872
9	0xbd713a3b	-0.058893424
10	0x3d83b8ee	0.06431757
11	0x3e7dce8a	0.2478582
12	0xbe83f3bf	-0.257719
13	0xbeb3d1c7	-0.35120985
14	0x3e09b384	0.13447386
15	0x3e1b4eb2	0.15166739
16	0xbe18c052	-0.14917114
17	0xbc996117	-0.018723054
18	0x3d0c7e86	0.03430035
19	0xbd7697b6	-0.060203277
20	0xbc05bc06	-0.008162504
21	0x3e1b7e40	0.1518488
22	0x3d86c4bc	0.06580493
23	0x3e5a06c2	0.2129164
24	0x3e17b700	0.14815903
25	0xbd3bad19	-0.045819376
26	0xbd7623f0	-0.060092866
27	0xbd4afbe3	-0.049556624
28	0xbdf55b22	-0.11980273
29	0x3db2b60b	0.08726128
30	0xbbffd347	-0.0078071686
31	0x3e5a9fa1	0.21349956
32	0x3cb491c9	0.022042172
33	0x3e29c86e	0.16580364
34	0xbdcb6a6d	-0.099324085
35	0x3e449962	0.19199136
36	0xbd5d9505	-0.054097194
37	0x3e288eb4	0.16460687
38	0xbd4210be	-0.047379248
39	0xbdc91e2f	-0.0982021
40	0x3d93a3fb	0.07209011
41	0xbe43acf7	-0.1910895
42	0x3e0ceb2b	0.13761584
43	0xbd4c5568	-0.049886137
44	0xbd47348a	-0.04863409
45	0xbadce69c	-0.0016853395
46	0xbd734b49	-0.05939797
47	0x3ded366b	0.11582645
48	0x3e5e0fd1	0.21685721
49	0x3d6d0f9e	0.05787622
50	0xbcd1870d	-0.025577093
51	0xbdb4ff70	-0.08837783
52	0x3e044e38	0.12920463
53	0xbd81447e	-0.06311892
54	0xbdf94071	-0.12170494
55	0x3e2ce711	0.1688502
56	0xbdee9414	-0.116493374
57	0x3cae7bad	0.021299208
58	0xbcd3b32a	-0.025842268
59	0x3dcd8354	0.100348145
60	0xbe0b8fe5	-0.1362911
61	0xbde146d4	-0.109998375
62	0xbe4d999e	-0.20078132
63	0xb9235a99	-0.00015578642
64	0xbe192978	-0.14957225
65	0x3dfd710f	0.1237508
66	0x3e20caa3	0.157023
67	0x3e14e189	0.1453916
68	0x3e170a64	0.14750057
69	0xbdb9dc88	-0.09075266
70	0x3ce612fb	0.028085222
71	0xbc13fac3	-0.009031954
72	0xbd3fd011	-0.046829287
73	0xbad9ff70	-0.0016631912
74	0xbdb5c976	-0.08876316
75	0xbd86b1bd	-0.0657687
76	0x3e271690	0.163172
77	0xbb76770b	-0.0037607576
78	0xbe81e9f1	-0.25373796
79	0xbe93907b	-0.28821167
80	0x3d8e0ef7	0.06936448
81	0xbf2eeaf0	-0.68327236
82	0x3db6fc34	0.08934823
83	0x3db98d20	0.090601206
84	0xbed587e9	-0.41705254
85	0xbc4e4f25	-0.012592112
86	0x3c9ba968	0.019001678
87	0x3d8a53da	0.06754275
88	0x3e403bfd	0.18772884
89	0xbe0ab414	-0.13545257
90	0x3d375e8f	0.044767912
91	0xbc1c0f3d	-0.009525117
92	0xbdaf0295	-0.08545414
93	0xbd70ddf6	-0.05880543
94	0xbe176f67	-0.1478859
95	0xbe4d3c75	-0.20042594
96	0xbecbf2fa	-0.39833814
97	0xbf1bfecb	-0.6093566
98	0xbf4fe612	-0.81210434
99	0x3e11da5c	0.14243454
100	0x3de1de96	0.11028783
101	0x3d857c4f	0.065178506
102	0xbd29984a	-0.041405
103	0x3e0f18cb	0.13974302
104	0xbd730d81	-0.05933905
105	0xbe583d2b	-0.21117084
106	0xbd221498	-0.03957042
107	0xbe147887	-0.14499103
108	0xbda0736c	-0.07834515
109	0x3d32e712	0.043677397
110	0xbe0d3318	-0.13789022
111	0x3deac529	0.114633866
112	0x3e8800db	0.26563153
113	0x3df76b32	0.12080993
114	0xbde1562f	-0.11002766
115	0x3d358d87	0.044324424
116	0xbe392fe2	-0.18084672
117	0xbd42e6af	-0.04758328
118	0x3d14ec25	0.036358017
119	0x3e1c09b8	0.15238082
120	0x3e34b0a2	0.17645505
121	0x3dcad104	0.09903148
122	0x3d67c26d	0.056581903
123	0x3d5a2424	0.053257123
124	0xbdc99001	-0.0984192
125	0xbd199eda	-0.03750501
126	0x3e22dfd7	0.159057
127	0xbe22d7f1	-0.15902688
128	0x3d952b34	0.07283631
129	0x3b166059	0.0022945611
130	0x3c3b4cec	0.011431914
131	0xbc20f88e	-0.009824885
132	0xbe46dd89	-0.19420446
133	0xbdacdc94	-0.084405094
134	0x3db9d634	0.09074059
135	0xbe30f319	-0.17280234
136	0x3e370e88	0.17876637
137	0x3c518a44	0.012789313
138	0x3e8c2fc1	0.27380183
139	0xba8034ef	-0.00097814
140	0xbd05a72d	-0.032630134
141	0xbde22b26	-0.11043386
142	0xba9bd399	-0.0011888623
143	0xbdb6c207	-0.089237265
144	0x3db5d663	0.08878782
145	0xbe4ba28a	-0.19886222
146	0xbd316862	-0.043312438
147	0xbbb16ebb	-0.0054148114
148	0xbc1c9237	-0.009556345
149	0xbe050a85	-0.12992294
150	0xbd815309	-0.06314666
151	0xbe4f28ea	-0.20230451
152	0xbd8d0562	-0.06885792
153	0x3c5e4ce6	0.013568139
154	0x3c08e885	0.008356218
155	0xbe0266b4	-0.1273449
156	0x3e369c26	0.17833003
157	0xbebaecd4	-0.3650881
158	0xbdda2ba1	-0.10652853
159	0xbe619a51	-0.22031523
160	0xbe98646a	-0.2976411
161	0xbdfea334	-0.12433472
162	0x3db4938d	0.088172056
163	0xbc77c47c	-0.015122529
164	0x3d3e3464	0.046436682
165	0xbd0f1da4	-0.034940377
166	0xbe7ba368	-0.24574053
167	0x3e182752	0.1485875
168	0xbcc03c4b	-0.02346625
169	0xbc6f9e8a	-0.014625201
170	0xbda2c0c1	-0.07946921
171	0xbd887d54	-0.066645294
172	0xbdeee154	-0.11664072
173	0xbe09ff32	-0.13476256
174	0xbda98535	-0.0827736
175	0x3e236490	0.1595633
176	0xbcaf33b6	-0.021386962
177	0x3e367386	0.17817506
178	0xbdae2285	-0.08502678
179	0xbd18028d	-0.037111808
180	0x3e207cec	0.15672654
181	0xbe14709c	-0.14496082
182	0x3d400934	0.046883777
183	0x3e30a2b2	0.17249563
184	0xbdbe94de	-0.09305738
185	0xbe1173ad	-0.14204283
186	0xbd6566c0	-0.056006193
187	0x3e665da9	0.22496666
188	0x3e338aae	0.17533371
189	0x3e47cea9	0.19512428
190	0xbddb23a7	-0.107001595
191	0xbe24e106	-0.16101465
192	0xbe0d4f1a	-0.13799706
193	0x3d8e234e	0.069403276
194	0xbcd43c9b	-0.025907805
195	0x3d9f19f3	0.07768621
196	0x3dd0a153	0.1018702
197	0xbc4b8709	-0.012422332
198	0xbdfad1cf	-0.12247049
199	0x3e21a303	0.1578484
200	0x3e044635	0.12917407
201	0x3e1f4ea5	0.15557344
202	0x3e4a5994	0.19760734
203	0xbd927322	-0.07150866
204	0x3e22a8c9	0.15884699
205	0x3de616f4	0.11234847
206	0x3ccd880d	0.025089288
207	0x3d23005a	0.039795257
208	0x3ac801ec	0.0015259362
209	0x3c50d480	0.012745976
210	0x3d977725	0.07395772
211	0xbe05eda3	-0.13078932
212	0x3df35085	0.11880592
213	0x3dd4ac64	0.103844434
214	0x3e32c5da	0.17458287
215	0x3e0d782a	0.1381537
216	0xbf210382	-0.6289598
217	0xbf01b849	-0.5067182
218	0xbf00699e	-0.5016116
219	0x3e896038	0.26831222
220	0x3de1d4ac	0.11026892
221	0x3d99f334	0.075170904
222	0x3ce9dce4	0.028547712
223	0x3dfce74a	0.123488024
224	0xbcd8ee2e	-0.02648076
225	0xbe593ed9	-0.2121538
226	0xbe8572d3	-0.26064166
227	0xbe4abbd2	-0.1979821
228	0xbdc2c76c	-0.09510693
229	0xbcbf17c7	-0.023326768
230	0xbe5b5643	-0.21419625
231	0xbe353a5f	-0.17698048
232	0x3e831bc2	0.25607115
233	0xbe2218a1	-0.15829708
234	0xbed6ba15	-0.41938844
235	0xbeacac77	-0.3372533
236	0xbf293a64	-0.6610472
237	0xbde18149	-0.11010987
238	0x3f0542f8	0.5205531
239	0xbdca94a5	-0.09891633
240	0xbda420e6	-0.080140874
241	0x3e2d8987	0.16946994
242	0xbe3bf9a1	-0.18356945
243	0xbf063181	-0.52419287
244	0xbecfd9be	-0.40595812
245	0xbf3310d8	-0.69947577
246	0x3e0818c3	0.13290696
247	0x3b8a2d81	0.0042168503
248	0xbde8e13f	-0.11371087
249	0x3c00181c	0.007818248
250	0x3d95926d	0.07303319
251	0xbe29ae05	-0.1657029
252	0xbf4e76c3	-0.80649966
253	0xbf4a82c7	-0.791058
254	0xbf26e25e	-0.6518916
255	0xbe17b411	-0.14814784

u2.conv2.bias f4 [8]
0	0x3cc620fb	0.024185648
1	0xbd008fff	-0.031387325
2	0xbc378861	-0.011201949
3	0x3bf8f081	0.0075970297
4	0x3b4bb1d0	0.0031081326
5	0x3ac40014	0.0014953637
6	0xbcc9fc81	-0.024656536
7	0xbbde347b	-0.0067811585

u2.conv3.weight f4 [8, 8, 3, 3]
0	0x3d60cef2	0.05488486
1	0x3dd8d99a	0.10588379
2	0xbdaa8ea3	-0.08327987
3	0xbdefd77d	-0.11711023
4	0x3d09bbe4	0.033626452
5	0xbe13158f	-0.14363693
6	0x3d8477fb	0.06468197
7	0xbcf7be42	-0.03024209
8	0x3e01b6b0	0.12667346
9	0x3decddcb	0.11565741
10	0x3e051ca8	0.12999213
11	0x3d8cf204	0.06882098
12	0x3d47b2e5	0.04875459
13	0x3c9a9307	0.018868936
14	0xbd069831	-0.032859985
15	0x3d40696e	0.046975546
16	0x3dc45b51	0.0958773
17	0xbd0f454b	-0.034978192
18	0xbdfd8147	-0.12378173
19	0x3cfc2f43	0.030784255
20	0x3e005e17	0.12535892
21	0x3e242962	0.16031411
22	0x3e1a9c1d	0.15098615
23	0x3e334985	0.17508514
24	0x3e33af38	0.1754731
25	0xbdaee583	-0.0853987
26	0xbcebb961	-0.028774919
27	0x3dff6fd4	0.124725014
28	0xbcd47aeb	-0.025937518
29	0x3d521283	0.051287185
30	0x3e26f8fd	0.16305919
31	0xbce5efc3	-0.028068429
32	0xbc73bfd9	-0.014877283
33	0x3da6ed78	0.08150762
34	0x3e3f28c7	0.18667899
35	0xbd92a76e	-0.07160841
36	0xbaf41931	-0.001862323
37	0xbe2f9431	-0.17146374
38	0x3d219d58	0.039456695
39	0x3d14bfb4	0.036315635
40	0x3e1204e7	0.14259683
41	0xbe1deabe	-0.15421578
42	0xbdd5d9f1	-0.1044196
43	0x3e3be14a	0.1834766
44	0xbd900e4c	-0.07033977
45	0x3cf3e312	0.029771362
46	0x3e3df9f2	0.18552378
47	0x3e499cfe	0.19688794
48	0xbc6856e1	-0.01418087
49	0xbe53eadf	-0.20695065
50	0xbe01e7fa	-0.12686148
51	0xbe2b034a	-0.16700473
52	0xbc5119b4	-0.012762476
53	0xbe046e22	-0.12932637
54	0x3e297993	0.16550283
55	0xbe2ae8be	-0.16690347
56	0xbc800d44	-0.015631326
57	0x3db8d311	0.09024633
58	0xbdc74cc6	-0.0973144
59	0x3e289de5	0.16466482
60	0x3d91bf0b	0.07116517
61	0x3e647a3c	0.22312254
62	0x3d65ba76	0.056086026
63	0x3e33e29c	0.17566913
64	0xbda34177	-0.07971471
65	0x3d114ac4	0.035471693
66	0x3d48ee8f	0.049055632
67	0xbdc8444c	-0.097786516
68	0x3d7f5c2a	0.062343754
69	0xbdedc765	-0.11610297
70	0x3d1cb423	0.03825773
71	0x3cac1a18	0.021008536
72	0xbedaa82d	-0.42706433
73	0x3d2f964e	0.04286795
74	0x3dba5c62	0.09099652
75	0xbf0b1c87	-0.54340404
76	0x3dc1fe8d	0.0947238
77	0x3d569fab	0.052398365
78	0xbe0f68f2	-0.14004877
79	0xbe46e634	-0.19423753
80	0x3c8198ff	0.015820025
81	0x3d8a1ffe	0.06744383
82	0xbddef118	-0.10885829
83	0xbea7b6f7	-0.3275678
84	0xbea35aad	-0.31905118
85	0x3b9b1b27	0.0047334614
86	0x3ed1583f	0.4088764
87	0xbdfdeba2	-0.12398459
88	0xbec34420	-0.38137913
89	0x3e2a8042	0.16650489
90	0xbef0907d	-0.46985236
91	0xbe03604d	-0.12829705
92	0xbceb3384	-0.028711088
93	0xbf0d970a	-0.5530859
94	0x3e0711e6	0.13190421
95	0x3dd561e9	0.104190655
96	0xbed1802c	-0.409181
97	0x3dcbdb02	0.09953882
98	0xbe0aaaf3	-0.13541774
99	0xbea120ea	-0.31470424
100	0xbdaafe01	-0.08349229
101	0x3cce29aa	0.025166351
102	0xbeaa0878	-0.33209586
103	0xbbf6d61d	-0.0075328485
104	0x3dab28ed	0.08357415
105	0xbea8af5a	-0.32946283
106	0x3dc7c139	0.09753651
107	0x3e1546cf	0.14577793
108	0xbee957fa	-0.45574933
109	0xbd3564ad	-0.044285465
110	0x3dfadb97	0.12248915
111	0xbeddcbfe	-0.43319696
112	0xbd9dcc8a	-0.07705028
113	0xbc10e84b	-0.008844445
114	0xbef0538b	-0.46938738
115	0x3e4d0214	0.20020324
116	0x3cbaeb58	0.022817299
117	0xbe56a479	-0.20961179
118	0x3d7cdb27	0.061732437
119	0xbe339735	-0.1753815
120	0xbf07ae42	-0.5300027
121	0xbc85baef	-0.016324488
122	0xbc35ff58	-0.011108242
123	0xbe100a9c	-0.14066547
124	0xbe301b8d	-0.1719801
125	0x3e04f38c	0.12983531
126	0xbeba3108	-0.36365533
127	0x3d8d4e59	0.06899709
128	0x3ca04b06	0.019567024
129	0xbec5b904	-0.38617718
130	0x3ccdf57e	0.025141474
131	0x3dcd046d	0.1001061
132	0xbedf9063	-0.43664846
133	0x3e09e4f8	0.13466251
134	0xbde6e027	-0.112732224
135	0xbebbce15	-0.36680666
136	0xbd5f999e	-0.05458986
137	0xbdfb8dde	-0.122829184
138	0xbf163803	-0.5867922
139	0xbe87697f	-0.26447675
140	0xbd3c9774	-0.046042874
141	0xbeb1ab04	-0.34700787
142	0x3d9636a8	0.073346436
143	0xbe1a3a33	-0.15061264
144	0x3d79a1c8	0.060945302
145	0xbdeb3539	-0.11484761
146	0x3c9b36b5	0.018946985
147	0xbe4ad19c	-0.19806522
148	0xbe689d90	-0.22716355
149	0xbcb21036	-0.021736246
150	0x3cb83800	0.02248764
151	0xbe00ed79	-0.12590589
152	0x3ddd2bf3	0.10799398
153	0xbe73f154	-0.23822528
154	0x3cd6cb9d	0.026220137
155	0xbde52f82	-0.11190702
156	0xbc8e7036	-0.01738749
157	0xbe8ef1b1	-0.2791877
158	0x3dd20adf	0.1025598
159	0xbe0452bf	-0.1292219
160	0xbdbb6e69	-0.091519184
161	0xbcc29d28	-0.023756579
162	0xbe014d11	-0.12627055
163	0xbdf51b74	-0.11968127
164	0xbde238b1	-0.11045969
165	0xbdf04831	-0.117325194
166	0x3e40eb01	0.18839647
167	0xbde2fcdc	-0.11083385
168	0x3da6788f	0.081284635
169	0x3e264ef0	0.1624105
170	0xbd1c37bf	-0.0381391
171	0x3ba4e82b	0.0050325594
172	0xbc3348fa	-0.010942692
173	0xbce067ca	-0.02739324
174	0xbca4da65	-0.02012367
175	0xbdef1f8e	-0.116759405
176	0xbe640d93	-0.22270803
177	0x3e426b67	0.18986283
178	0xbd5440f5	-0.05181976
179	0xbc2481d1	-0.010040716
180	0xbd9150c1	-0.07095481
181	0x3d54dacb	0.05196647
182	0xbde43444	-0.111427814
183	0xbdc7bc6b	-0.09752735
184	0x3e3b6a9d	0.18302388
185	0x3e0784ca	0.13234249
186	0xbc0efcaa	-0.008727232
187	0xbd8a4621	-0.06751657
188	0x3b9264d5	0.0044675865
189	0xbd778b55	-0.06043561
190	0xbd430612	-0.04761321
191	0xbd9731cb	-0.07382544
192	0xbddc96b3	-0.10770931
193	0x3e19a76a	0.1500527
194	0x3e29a9d2	0.16568688
195	0xba188bd2	-0.00058191747
196	0x3d0defaf	0.03465241
197	0xbdfc161c	-0.123089045
198	0x3c365046	0.011127537
199	0xbdcfd973	-0.10148897
200	0x3ddc4da6	0.10756998
201	0x3c976226	0.018479418
202	0x3e181f49	0.14855684
203	0x3e06cd1c	0.1316418
204	0xbd3ed916	-0.046593748
205	0x3d8561fc	0.0651283
206	0x3deb1686	0.114789054
207	0xbe081d88	-0.13292515
208	0x3e077862	0.13229516
209	0xbdbefa76	-0.093251154
210	0x3e0217ca	0.12704387
211	0x3e68bff1	0.2272947
212	0x3e13136a	0.14362875
213	0xbd1475b4	-0.036245063
214	0xbbb8aaad	-0.0056355805
215	0x3ce72953	0.028217947
216	0xbf02faed	-0.5116413
217	0xbf07a4e2	-0.52985966
218	0xbeb27815	-0.3485724
219	0x3daac6a4	0.08338669
220	0x3e4310f4	0.19049436
221	0x3d97376f	0.0738362
222	0x3dda89bb	0.10670801
223	0x3dabebc1	0.08394576
224	0x3e0c8be8	0.13725245
225	0xbe8e079f	-0.2774019
226	0xbea9e585	-0.33182922
227	0xbdc8ba4b	-0.098011576
228	0xbee17c56	-0.44040173
229	0x3e07556c	0.1321618
230	0x3e3f9be3	0.1871181
231	0xbe8d5ed9	-0.27611426
232	0x3e0f187e	0.13974187
233	0x3cde639d	0.027147109
234	0xbef5e5f9	-0.48027018
235	0xbf0b1fce	-0.54345405
236	0xbe9b2c34	-0.30307162
237	0x3e2075bb	0.1566991
238	0x3cf6492e	0.030064192
239	0xbd8c2448	-0.068428576
240	0x3dffbd03	0.12487223
241	0x3e1318ce	0.14364931
242	0xbd70b0ff	-0.058762547
243	0xbef89df4	-0.4855801
244	0xbe9ecde8	-0.3101647
245	0xbf13cd28	-0.5773492
246	0x3e34ec8a	0.17668357
247	0x3e584cf4	0.21123105
248	0x3d80a4e6	0.06281452
249	0xbe12c854	-0.14334232
250	0xbd24a0b5	-0.040192325
251	0x3c380391	0.011231319
252	0xbe79cad1	-0.24393775
253	0xbed52f8a	-0.41637832
254	0xbf10f0d7	-0.5661749
255	0xbe004a7b	-0.12528412

u2.conv3.bias f4 [8]
0	0x3b7637d3	0.0037569895
1	0x3bbb109f	0.0057087685
2	0xbabcfbb3	-0.0014418274
3	0xbcaa5814	-0.020793952
4	0xb92d2af6	-0.0001651457
5	0xbb4fc3d6	-0.003170242
6	0x3c111f08	0.008857496
7	0xbc5e581a	-0.01357081

u2.G.weight f4 [1, 8, 3, 3]
0	0x3e20df15	0.15710099
1	0xbdf0ad54	-0.1175181
2	0x3da461e6	0.08026485
3	0x3e5b5c14	0.21421844
4	0xbe32f66b	-0.17476813
5	0x3e0c7a5f	0.13718556
6	0xbc1781cc	-0.009247255
7	0xbd3131f3	-0.043260526
8	0x3d42c767	0.047553446
9	0x3e1cee6d	0.15325327
10	0x3ea02d33	0.31284484
11	0x3e48a296	0.19593272
12	0x3d476ebc	0.04868959
13	0xbdfb2a5c	-0.12263939
14	0x3e9415ef	0.28922984
15	0xbcd727b0	-0.026264042
16	0xbc45adde	-0.012065379
17	0x3d78c400	0.060733795
18	0x3e187598	0.14888608
19	0x3e87bf82	0.26513296
20	0xbe794cf5	-0.24345763
21	0x3e02475e	0.12722537
22	0xbdbef8c8	-0.09324795
23	0xbe2b4ba8	-0.1672808
24	0xbd1c54f4	-0.038166955
25	0x3d259242	0.040422685
26	0xbd6e37a3	-0.058158528
27	0xbd00b11c	-0.031418905
28	0xbde68cab	-0.11257299
29	0x3dd68718	0.10474986
30	0x3dc4a057	0.09600895
31	0xbdc51370	-0.09622848
32	0x3e88cee1	0.26720336
33	0x3e617830	0.22018504
34	0x3dbcdba0	0.09221578
35	0xbdcc70f7	-0.09982484
36	0xbd1aef84	-0.037826076
37	0xbd0674c7	-0.03282621
38	0x3dab8975	0.08375827
39	0xbe64ea61	-0.22355033
40	0x3e6b031a	0.22950402
41	0xbe10392a	-0.14084306
42	0xbe73fcaf	-0.2382686
43	0xbd88cbcd	-0.06679497
44	0xbde734aa	-0.11289342
45	0x3e12ae2c	0.14324254
46	0x3e41dcbd	0.18931861
47	0x3c5e6dd3	0.013575989
48	0x3d25e9e0	0.040506244
49	0xbd3d7453	-0.046253514
50	0xbdae6bfb	-0.085166894
51	0x3e52b71f	0.20577668
52	0x3e777589	0.2416593
53	0x3dd12a54	0.102131516
54	0x3e1fd36d	0.15607996
55	0xbe760277	-0.24024378
56	0x3d8afc4f	0.06786405
57	0x3d4fc131	0.05072135
58	0xbe79a190	-0.24378037
59	0x3dd92b9d	0.10604022
60	0xbe2632cc	-0.16230315
61	0x3e800f94	0.25011885
62	0x3d97350e	0.07383166
63	0x3e36526e	0.17804882
64	0xbce8f237	-0.02843581
65	0xbe32735e	-0.17426822
66	0x3c18dc39	0.009329849
67	0xbe57e93d	-0.21085067
68	0xbe89dbe8	-0.26925588
69	0xbcffb6cc	-0.031215094
70	0x3c7058c6	0.014669603
71	0xbbc0ce9c	-0.0058840048
