src/pretrained/model_S_cap.pt (torch_old, 36831 bytes, 36 tensors)

u1.E.weight f4 [8, 1, 3, 3]
0	0xbe89d228	-0.2691815
1	0xbe2214f6	-0.15828308
2	0xbd938246	-0.07202582
3	0xbe3fe21a	-0.18738595
4	0x3dc84c7c	0.09780213
5	0xbb6072eb	-0.0034248184
6	0x3c7f9368	0.015599109
7	0x3d0065e4	0.03134717
8	0x3d87cc72	0.06630792
9	0xbda89c1c	-0.082329005
10	0xbe860d32	-0.26181942
11	0x3d7c9390	0.061664164
12	0xbbb31340	-0.0054649413
13	0xbe11bd3a	-0.1423234
14	0xbe727c89	-0.23680319
15	0x3ad15100	0.0015969574
16	0xbe72221e	-0.23645827
17	0xbd1f3e50	-0.038877785
18	0x3e24d699	0.16097488
19	0xbd0c3407	-0.034229305
20	0x3dd44b33	0.103659056
21	0x3e7ed4b6	0.2488583
22	0x3cdca17d	0.026932472
23	0xbc5a4acd	-0.013323498
24	0xbee0b94b	-0.43891367
25	0xbda2c902	-0.079484954
26	0xbea481cb	-0.32130274
27	0x3e85911e	0.26087278
28	0xbcd36c9f	-0.02580863
29	0x3d2d8300	0.04236126
30	0x3df0c2d1	0.11755908
31	0x3dafba96	0.0858051
32	0xbd124941	-0.03571439
33	0x3e28b1da	0.16474095
34	0xbe01b1ef	-0.12665533
35	0xbe2e026a	-0.16993108
36	0x3e5e4aee	0.21708271
37	0xbc81929c	-0.01581698
38	0x3bcb5297	0.006204914
39	0xbcf07b31	-0.029355617
40	0xbd7ae148	-0.06125
41	0xbe062dc1	-0.13103391
42	0x3df6add0	0.12044871
43	0x3e03cec6	0.12871847
44	0xbe3ff3b8	-0.18745315
45	0x3e861345	0.26186576
46	0xbe3030e6	-0.17206153
47	0xbe5aaa64	-0.21354061
48	0x3d06727f	0.032824036
49	0xbded1cf3	-0.11577787
50	0xbe4f6562	-0.20253518
51	0xbe1e8f97	-0.15484463
52	0xbe2aeaf3	-0.16691189
53	0x3cf06a98	0.029347703
54	0xbe5f44c5	-0.21803577
55	0x3d990e51	0.07473434
56	0xbe2c6afa	-0.16837683
57	0x3e7218f7	0.23642336
58	0x3e75b0af	0.2399318
59	0xbcd8f6e9	-0.026484923
60	0x3e558219	0.2085041
61	0x3e4f1425	0.20222528
62	0x3e6576d1	0.22408606
63	0xbe74904a	-0.23883167
64	0x3dd5833e	0.10425423
65	0xbd7bf14b	-0.06150941
66	0xbe12fc99	-0.14354171
67	0x3dc93136	0.09823839
68	0x3e18d91a	0.14926568
69	0x3e806eaa	0.2508443
70	0xbdc7c066	-0.09753494
71	0x3df2e2da	0.11859675

u1.E.bias f4 [8]
0	0xbb23bfb9	-0.0024986102
1	0x00000000	0.0
2	0x3bde0f2d	0.0067767114
3	0xbb1c09e9	-0.0023809618
4	0x3c6c0ffa	0.014408106
5	0xbbb58ea5	-0.005540686
6	0xbbbf552d	-0.005839011
7	0xbbca5cc9	-0.0061756116

u1.conv1.weight f4 [8, 8, 3, 3]
0	0x3bbd494f	0.0057765613
1	0x3cfb1650	0.030650288
2	0xbd838d3d	-0.064234234
3	0xbdd736ef	-0.105085246
4	0x3e048f99	0.12945403
5	0x3decaf1d	0.11556838
6	0xbe3bddcf	-0.18346332
7	0xbde60de2	-0.11233117
8	0xbd84c6b5	-0.06483213
9	0xbddac251	-0.10681594
10	0x3dca1a5c	0.09868309
11	0xbd0ee404	-0.03488542
12	0xbdaef167	-0.085421376
13	0x3d36ed94	0.044660166
14	0xbe3aa9a4	-0.18228775
15	0x3e3132ce	0.17304537
16	0xbe3a9077	-0.18219171
17	0xbe22942d	-0.15876837
18	0x3c747f53	0.014922935
19	0x3c5b946e	0.013402088
20	0x3e4ad875	0.19809134
21	0x3e614f30	0.22002864
22	0x3e9a719c	0.30164802
23	0x3e34c7e9	0.17654385
24	0x3e568250	0.20948148
25	0x3d72f86d	0.05931895
26	0x3a5ffce7	0.000854446
27	0xbe37c0c8	-0.17944634
28	0x3e285ebc	0.16442388
29	0xbc7818d6	-0.01514264
30	0xbd99580f	-0.07487499
31	0xbcc3925d	-0.023873502
32	0x3d5be6cc	0.053686902
33	0x3e39c594	0.18141776
34	0xbe368559	-0.17824306
35	0xbdae62ca	-0.08514936
36	0x3e529569	0.20564808
37	0xbe12ff0b	-0.14355104
38	0x3dd0e0a9	0.101991005
39	0xbbba89ca	-0.0056926953
40	0xbd8861d7	-0.066592865
41	0xbe4f41bc	-0.2023992
42	0x3e0ae4ac	0.13563794
43	0x3e33cfdb	0.1755976
44	0x3e2dbbcd	0.16966172
45	0x3e14aad1	0.14518286
46	0x3d632e17	0.055463877
47	0xbbe020e1	-0.006839857
48	0x3d3d1d52	0.04617054
49	0xbe0faf79	-0.14031781
50	0x3c816612	0.015795741
51	0xbd06a813	-0.03287513
52	0x3d801369	0.06253702
53	0xbe48061b	-0.19533579
54	0xbdd26b94	-0.10274425
55	0x3da0e3d9	0.078559585
56	0xbda2ffaa	-0.0795892
57	0x3e633685	0.22188766
58	0x3d7252f8	0.059161156
59	0xbc9ac23d	-0.018891448
60	0xbd950b51	-0.07277549
61	0xbd8388ea	-0.06422599
62	0xbcd6f0df	-0.026237903
63	0x3e2bf72c	0.16793507
64	0xbc9d855d	-0.019228632
65	0x3e46e465	0.19423063
66	0xbe0912b9	-0.13386048
67	0xbe618c0b	-0.22026078
68	0x3e307831	0.1723335
69	0x3e289368	0.16462481
70	0xbdd7b810	-0.10533154
71	0xbd8e8c33	-0.06960335
72	0x3e48deee	0.19616291
73	0xbe06e788	-0.1317426
74	0x3cb1b4c0	0.021692634
75	0x3d797928	0.06090656
76	0xbc370bb0	-0.01117222
77	0xbc5e3760	-0.013563007
78	0x3c621ab0	0.013800308
79	0xbd506d00	-0.0508852
80	0x3dfdfb2c	0.12401423
81	0xbc3ea490	-0.011635914
82	0x3e3ff902	0.18747333
83	0x3e38356c	0.17989129
84	0x3d0ed400	0.034870148
85	0x3dc9a5e0	0.09846091
86	0x3cb182d8	0.021668836
87	0x3ca3a8d8	0.019977972
88	0x3e124e4e	0.14287683
89	0xbdee7b26	-0.116445825
90	0x3e346288	0.17615712
91	0x3c8ea514	0.0174127
92	0xbe4c7ebb	-0.19970219
93	0x3dccb8bf	0.09996175
94	0x3ddd0b52	0.10793175
95	0xbd74fff5	-0.059814412
96	0xbdb252f3	-0.087072276
97	0xbe5b2f24	-0.21404701
98	0x3e1a2f5f	0.15057133
99	0xbddc4a6f	-0.107563846
100	0xbe02df76	-0.12780556
101	0xbdbdbd25	-0.09264592
102	0xbd99321e	-0.07480262
103	0xbd15b6cb	-0.036551278
104	0xbe39795e	-0.18112704
105	0xbdd394ef	-0.10331141
106	0xbd4faf58	-0.05070433
107	0xbe358a18	-0.1772846
108	0x3d0f6f03	0.03501798
109	0xbcaee88e	-0.021351125
110	0x3c9c2f70	0.019065589
111	0xbd9b0d92	-0.07570948
112	0xbddc5ac4	-0.107595
113	0x3dbb0c83	0.09133246
114	0x3e18ed3f	0.14934252
115	0x3dd9d328	0.10635978
116	0xbda03e5b	-0.07824393
117	0xbd8a8e70	-0.06765449
118	0xbdfc92da	-0.12332697
119	0x3d3a3d68	0.045468718
120	0xbe10f05d	-0.14154191
121	0x3d440f90	0.047866404
122	0xbc90f440	-0.017694592
123	0xbcbb1220	-0.022835791
124	0xbd7cbf40	-0.061705828
125	0xbe1c008f	-0.15234588
126	0xbe220959	-0.15823878
127	0x3de027c2	0.10945083
128	0xbdafd7ee	-0.08586107
129	0xbd807ec3	-0.06274178
130	0xbe222f2a	-0.15838304
131	0xbc8c4d05	-0.01712657
132	0xbe2362aa	-0.15955606
133	0xbab3a539	-0.0013705856
134	0xbe4d07b3	-0.20022468
135	0x3cbb5f68	0.022872642
136	0x3e24f84f	0.16110347
137	0xbe422c52	-0.1896222
138	0x3d9c3e5c	0.076290816
139	0xbe0d5435	-0.13801654
140	0x3dbc474e	0.09193288
141	0xbe395491	-0.18098666
142	0x3ddfc4f4	0.10926238
143	0x3da6bc8a	0.0814143
144	0x3e9a451d	0.30130854
145	0x3e37bebf	0.17943858
146	0x3dab041b	0.083503924
147	0xbe57b08e	-0.21063444
148	0x3eadb7f0	0.33929396
149	0x3de459be	0.111499295
150	0x3da4ce96	0.08047216
151	0x3e154da3	0.14580397
152	0xbe457326	-0.19282207
153	0x3e3a1392	0.18171528
154	0x3b563180	0.0032683313
155	0x3d474530	0.048649967
156	0xbe0ff865	-0.14059599
157	0x3da25b34	0.07927552
158	0xbd714388	-0.058902293
159	0xbd78c998	-0.06073913
160	0xbc0c4a80	-0.008562684
161	0x3dbe900c	0.093048185
162	0xbda26fa3	-0.07931449
163	0xbd053995	-0.032525618
164	0xbc55e6f5	-0.013055553
165	0xbe81bc5c	-0.2533902
166	0xbf15df27	-0.5854363
167	0xbe238c2f	-0.15971445
168	0xbcb51713	-0.02210573
169	0xbe1c3d26	-0.15257701
170	0x3d848712	0.06471075
171	0xbdf07162	-0.11740376
172	0xbe2d5069	-0.16925205
173	0xbe018497	-0.12648235
174	0xbbf751b6	-0.0075475825
175	0xbe45ac10	-0.19303918
176	0x3c923e81	0.01785207
177	0x3d9b6520	0.075876474
178	0xbd7248cc	-0.059151456
179	0x3e497ba3	0.1967607
180	0x3d203916	0.03911694
181	0x3e0bbac2	0.13645461
182	0x3cb00543	0.021486884
183	0x3a896162	0.0010481293
184	0x3e852025	0.26001087
185	0x3e4b9a25	0.1988302
186	0x3ec8abbc	0.39193523
187	0x3d7c5bc7	0.061610963
188	0xbe09ceed	-0.13457842
189	0xbdd225a9	-0.10261089
190	0x3c7311ab	0.014835755
191	0xbdff4186	-0.124636695
192	0xbe4e6f41	-0.20159627
193	0x3df6a4fe	0.120431885
194	0x3df6a1f2	0.12042607
195	0x3d190566	0.037358664
196	0x3cac6806	0.021045696
197	0xbe83f2af	-0.2577109
198	0xbd91628a	-0.07098873
199	0x3e0ce71d	0.13760038
200	0x3e4a3199	0.19745483
201	0xbd940560	-0.07227588
202	0xbe299248	-0.16559708
203	0x3dade7c9	0.08491475
204	0x3d2c6cb8	0.04209587
205	0xbdb80d33	-0.089868926
206	0x3e3b3b76	0.18284401
207	0x3dcd7884	0.10032752
208	0xbd0625a5	-0.032750744
209	0x3dee5c75	0.116387285
210	0xbc6f77df	-0.014615982
211	0xbd4fa38f	-0.05069309
212	0xbc6ae78a	-0.01433743
213	0x3d6066bc	0.054785475
214	0x3d451a89	0.04812101
215	0x3c164120	0.0091708
216	0x3d3080e7	0.04309168
217	0x3d9a869b	0.07545205
218	0xbd9827f2	-0.07429494
219	0x3bfe6483	0.007763447
220	0xbc49f3cf	-0.012326195
221	0x3dcf6363	0.101263784
222	0x3cd80dd9	0.02637379
223	0xbd6ab5f8	-0.057302445
224	0xbe475b93	-0.19468527
225	0xbe3b1fd8	-0.18273866
226	0x3ba5af00	0.005056262
227	0xbd44c398	-0.048038095
228	0x3dc79d38	0.09746784
229	0xbdedc5f0	-0.11610019
230	0x3ba4ea20	0.0050327927
231	0xbc1294f0	-0.008946642
232	0xbe01bb2a	-0.12669054
233	0xbc13ab60	-0.009013027
234	0x3e3c1085	0.18365677
235	0x3e58e2e2	0.21180299
236	0xbdc106e3	-0.09425142
237	0x3e108639	0.14113702
238	0xbf0944cb	-0.53620595
239	0x3d18e3d5	0.037326653
240	0x3e29c216	0.16577944
241	0x3ebc65ac	0.3679632
242	0x3e6d4861	0.23172142
243	0xbd4c5087	-0.049881484
244	0xbe49f76a	-0.19723287
245	0xbe273eef	-0.16332601
246	0x3dbe4c2d	0.09291873
247	0x3d6504ac	0.05591266
248	0x3e35cd15	0.17754014
249	0x3dc829a5	0.09773568
250	0xbe15ff7e	-0.14648244
251	0x3d205a39	0.039148543
252	0x3dbdf5e5	0.09275416
253	0xbe2346d5	-0.15944989
254	0xbe11854f	-0.1421101
255	0x3d8d6812	0.069046155

u1.conv1.bias f4 [8]
0	0xba78796e	-0.00094785437
1	0xbc84e63b	-0.016223064
2	0xbc3a4999	-0.011370086
3	0x3c0a14b0	0.008427784
4	0x3c02d621	0.007985623
5	0x3bc374d2	0.005964854
6	0x3c0bc28f	0.008530273
7	0x3b88e89f	0.004178121

u1.conv2.weight f4 [8, 8, 3, 3]
0	0xbde4816b	-0.11157497
1	0x3e4cf51d	0.20015378
2	0x3e88c493	0.26712474
3	0x3defa477	0.11701291
4	0xbe6e6723	-0.23281531
5	0xbd338c19	-0.04383478
6	0xbe8ca458	-0.27469134
7	0xbd389759	-0.04506621
8	0x3ccf4721	0.025302472
9	0xbc7694e6	-0.015050149
10	0xbe26e105	-0.16296776
11	0x3d43e963	0.047829997
12	0x3dcdd7e6	0.10050945
13	0xbe538e53	-0.20659761
14	0xbe16b128	-0.14716017
15	0x3bd0bceb	0.006370177
16	0x3caaf94e	0.02087083
17	0xbe0df5c1	-0.13863279
18	0x3dd12161	0.10211445
19	0xbdc22e05	-0.09481434
20	0x3e236c59	0.159593
21	0x3d27b8e0	0.040947795
22	0x3e85eba9	0.26156357
23	0x3d8b006d	0.067871906
24	0xbbff0f59	-0.007783812
25	0x3db22b76	0.08699696
26	0x3ea0573e	0.3131656
27	0xbde9a526	-0.11408453
28	0x3c0d6bb4	0.008631635
29	0xbe3589d9	-0.17728366
30	0x3d4ddc1a	0.050258733
31	0x3e1b70cb	0.15179746
32	0x3e229278	0.15876186
33	0x3e50a0e6	0.20373878
34	0x3cf92f19	0.030417966
35	0x3ce2591d	0.027630383
36	0x3e18fa9a	0.14939347
37	0xbd89841c	-0.06714651
38	0xbc6b9686	-0.014379149
39	0xbdbc1668	-0.09183961
40	0x3dd81cba	0.10552354
41	0x3dddb114	0.108247906
42	0xbce52203	-0.02797032
43	0x3dc11cb6	0.09429304
44	0x3e080afe	0.13285443
45	0xbcdef746	-0.027217519
46	0xbe096ba2	-0.13419965
47	0xbe929294	-0.28627455
48	0x3dd25287	0.10269647
49	0x3e238335	0.1596802
50	0xbe8d64f2	-0.27616078
51	0xbe08cac6	-0.13358602
52	0xbeda209b	-0.42603
53	0xbe09cea6	-0.13457736
54	0x3cfb6c75	0.030691365
55	0xbd251de5	-0.040311713
56	0xb9196c2e	-0.00014631517
57	0xbda5864c	-0.08082256
58	0xbdc21ad6	-0.09477775
59	0x3b10d432	0.0022099135
60	0xbd454c80	-0.04816866
61	0xbd56c0d7	-0.05243
62	0xbadf85ed	-0.0017053463
63	0x3e3e664c	0.1859371
64	0x3e5b9089	0.21441855
65	0x3e3d512c	0.18487996
66	0xbd0a9311	-0.03383166
67	0xbe8730cf	-0.26404426
68	0xbdcc6638	-0.09980434
69	0x3da16239	0.078800626
70	0x3c71b967	0.014753676
71	0xbca8c945	-0.020603785
72	0xbdb104dd	-0.08643506
73	0xbec0f962	-0.37690264
74	0xbdb6c095	-0.08923451
75	0x3dbf0866	0.09327774
76	0xbe4b5c0e	-0.19859335
77	0xbe48f03c	-0.19622892
78	0x3d98f226	0.07468061
79	0xbe5738e5	-0.21017797
80	0xbe1f0d06	-0.15532312
81	0xbe208652	-0.15676239
82	0x3ce22142	0.02760375
83	0x3e1db587	0.15401278
84	0x3de9b0dd	0.11410687
85	0x3daa5054	0.083161026
86	0xbdde186f	-0.10844504
87	0x3d28969f	0.04115927
88	0xbe1a3fd3	-0.1506341
89	0xbe079540	-0.13240528
90	0xbdacb310	-0.08432591
91	0x3c6d5691	0.014485971
92	0xbdf05104	-0.117342025
93	0xbde6af74	-0.11263934
94	0x3e8c6f4e	0.2742867
95	0xbd1de5c3	-0.038549196
96	0x3d18e279	0.037325356
97	0x3e30123b	0.17194454
98	0x3d85585a	0.06510992
99	0x3d45fa06	0.048334144
100	0x3dd8d7b8	0.1058802
101	0xbd2162a0	-0.039400697
102	0x3e1dc404	0.15406805
103	0x3da7d2f7	0.08194535
104	0x3cec1c8e	0.02882221
105	0xbe289418	-0.16462743
106	0x3e158259	0.14600505
107	0x3d5ba9f8	0.05362889
108	0x3dcd5eb6	0.1002783
109	0x3bbd8bea	0.0057845013
110	0x3d9f6846	0.077835605
111	0x3dba6d89	0.091029234
112	0x3d48dac3	0.049036752
113	0x3dc0af1a	0.09408398
114	0xbdc07b1f	-0.093984835
115	0xbd82f54a	-0.063944414
116	0xbd8550eb	-0.065095745
117	0x3e38671d	0.18008085
118	0x3e9505c3	0.29105958
119	0xbe1fb906	-0.15597925
120	0x3d2c2ba6	0.042033814
121	0xbec2e409	-0.38064602
122	0xba76c21b	-0.0009413079
123	0x3d8f5a60	0.069996595
124	0x3c432252	0.011910038
125	0x3b59499c	0.0033155447
126	0xbe0c0b57	-0.13676201
127	0x3db2a19c	0.08722231
128	0xbd9dabd1	-0.07698787
129	0xbcb956ab	-0.022624334
130	0xbd1e80f9	-0.038697217
131	0x3da4bd5a	0.080439284
132	0x3e31edfc	0.1737594
133	0x3e2a5e63	0.16637568
134	0xbdc68a39	-0.09694333
135	0x3e131107	0.14361964
136	0xbd22d1c5	-0.039750833
137	0xbc4ed16f	-0.012623175
138	0xbdb1195e	-0.086474165
139	0xbe2360be	-0.15954873
140	0xbd4df1d4	-0.050279453
141	0xbd70c25c	-0.058779106
142	0xbe31c5d4	-0.17360622
143	0x3da81957	0.08207958
144	0xbd9e0b30	-0.077169776
145	0x3e1a7cb1	0.15086628
146	0xbe128902	-0.14310077
147	0x3e28af7a	0.16473189
148	0xbc4eedee	-0.012629969
149	0x3cb7bc1d	0.022428567
150	0xbcacc96f	-0.021092145
151	0xbdc6e8f6	-0.097124025
152	0xbe483484	-0.19551283
153	0xbd81ab1a	-0.06331463
154	0x3e491496	0.19636759
155	0xbd457392	-0.04820592
156	0xbccc1b14	-0.024915256
157	0x3d0e4781	0.03473616
158	0x3e446d24	0.19182259
159	0x3e3bc4af	0.18336748
160	0xbd4a4910	-0.049386084
161	0xbc2c77c5	-0.010526602
162	0xbe06542b	-0.13118045
163	0xbc965084	-0.01834894
164	0x3db9aa4c	0.09065685
165	0xbdade287	-0.08490472
166	0xbe03570f	-0.12826179
167	0x3d358fe9	0.044326697
168	0xbe298aba	-0.16556826
169	0xbd3cd712	-0.046103545
170	0xbe22fd63	-0.15916972
171	0xbe3bc7bd	-0.18337913
172	0xbcc36953	-0.023853933
173	0x3d80ccdc	0.06289074
174	0xbd9dfb6f	-0.07713973
175	0xbd9821e1	-0.07428337
176	0xbcd3369c	-0.025782876
177	0xbda02cb7	-0.07821029
178	0x3e3a2bcf	0.18180774
179	0x3d1d68b8	0.038429946
180	0xbe163ca3	-0.14671569
181	0xbe101099	-0.14068832
182	0x3e272419	0.16322364
183	0x3e045a76	0.12925133
184	0xbd21bb72	-0.039485402
185	0x3e0f812f	0.14014123
186	0xbd05cee5	-0.032668013
187	0x3cd0b965	0.025479028
188	0xbe3c822c	-0.18409032
189	0xbc097fb2	-0.008392261
190	0x3dd515f2	0.10404576
191	0xbe60f0c2	-0.21966842
192	0x3e530fd9	0.20611514
193	0x3e97620b	0.29566988
194	0xbe5c1b87	-0.21494876
195	0x3e506ec2	0.20354751
196	0x3eb41eab	0.35179648
197	0xbd00d446	-0.03145244
198	0xbd29e2e6	-0.041476153
199	0x3d605075	0.05476423
200	0x3e38d4f7	0.1804999
201	0x3e154225	0.14576013
202	0xbe338492	-0.1753104
203	0x3dd6be3b	0.10485502
204	0xbdc09a46	-0.09404425
205	0x3e30d3cb	0.17268293
206	0xbe00e595	-0.12587579
207	0xbe244ec9	-0.16045679
208	0x3e0db7df	0.13839673
209	0xbcfe7156	-0.031059902
210	0x3c3d7652	0.011563854
211	0xbabec5ae	-0.0014554763
212	0x3d780c51	0.06055862
213	0xbd0f5110	-0.034989417
214	0x3d5fe6fd	0.054663647
215	0xbd96fcba	-0.073724225
216	0xbd446095	-0.04794367
217	0xbd2fd6be	-0.042929403
218	0xbea59ce0	-0.3234625
219	0x3d9a8afb	0.0754604
220	0xbdd1a1f8	-0.10235971
221	0x3c1f4b34	0.00972252
222	0xbb13e4e0	-0.002256684
223	0xbe976e0e	-0.29576153
224	0xbd4bf655	-0.049795467
225	0xbe07f15b	-0.13275664
226	0xbac73cfa	-0.0015200668
227	0xbe13b42a	-0.14424196
228	0xbd10b1a2	-0.035325654
229	0x3d8e128d	0.06937132
230	0xbd6b61bc	-0.057466254
231	0x3e34fbac	0.1767413
232	0xbd089bbb	-0.03335164
233	0x3dd36563	0.10322072
234	0xbde26ff0	-0.11056507
235	0xbe652b81	-0.22379877
236	0x3d66b72e	0.056327038
237	0xbe22a19c	-0.15881962
238	0xbd2841c1	-0.041078333
239	0xbe2137d5	-0.15743954
240	0xbe66a985	-0.22525604
241	0x3e25b5f4	0.16182691
242	0xbdda061d	-0.10645697
243	0x3c8d52f0	0.017251462
244	0x3e5a1b1d	0.21299405
245	0xbda50005	-0.08056644
246	0xbe447d58	-0.1918844
247	0x3e101c5a	0.14073315
248	0x3d9ecd55	0.07754008
249	0x3dfb46fd	0.12269399
250	0x3d0a68a4	0.0337912
251	0x3d01490e	0.03156381
252	0x3d1498c0	0.036278486
253	0xbe4497b5	-0.19198497
254	0x3de82b6c	0.11336407
255	0x3d286e23	0.04112066

u1.conv2.bias f4 [8]
0	0xbc11faad	-0.008909863
1	0x3a8f414c	0.0010929494
2	0x3c3f9db8	0.011695318
3	0x3c864164	0.016388603
4	0x3ba2064b	0.004944598
5	0x3cab168f	0.02088478
6	0x3bd4c788	0.0064935125
7	0x3b3e9e60	0.0029086098

u1.conv3.weight f4 [8, 8, 3, 3]
0	0xbe4c18b4	-0.19931298
1	0xbe467aa1	-0.19382717
2	0xbecd6eb0	-0.4012351
3	0x3d25ca2b	0.040476006
4	0xbea8e2fd	-0.32985678
5	0xbea58ab9	-0.323324
6	0x3e4caf33	0.19988708
7	0xbd5fce5e	-0.054640166
8	0xbecc7583	-0.39933404
9	0xbd054008	-0.032531768
10	0x3d272f76	0.040816747
11	0xbed5cbe1	-0.4175711
12	0x3e1496fe	0.14510724
13	0x3e5c67b4	0.21523935
14	0xbe992a14	-0.29914916
15	0xbe2597bb	-0.16171162
16	0x3e4eca73	0.20194416
17	0xbed60986	-0.4180414
18	0x3d83c094	0.06433216
19	0xbd20918e	-0.03920131
20	0xbe5c41d9	-0.21509494
21	0xbd7095d7	-0.05873665
22	0x3e5dfd96	0.21678767
23	0xbeb531af	-0.35389468
24	0xbd8bf435	-0.06833688
25	0xbe08be4c	-0.13353842
26	0xbe9a0c68	-0.3008759
27	0x3d9bc2c1	0.07605506
28	0xbe058273	-0.13038044
29	0xbe9fe495	-0.31229082
30	0x3dc84e6f	0.09780585
31	0x3e15e4b3	0.14638023
32	0xbebbdf50	-0.3669381
33	0xbdab1d03	-0.08355143
34	0x3db08ec9	0.08620984
35	0xbe649da0	-0.22325754
36	0xbcbf7cd3	-0.02337495
37	0xbc219514	-0.009862203
38	0xbe061c3f	-0.13096713
39	0x3c774608	0.01509238
40	0xbd514db5	-0.051099498
41	0xbeb3e31a	-0.35134202
42	0x3e090447	0.13380538
43	0x3d839088	0.064240515
44	0xbdb492a2	-0.088170305
45	0x3d7d4f3c	0.061843142
46	0xbd154848	-0.036445886
47	0xbebca16e	-0.3684191
48	0xbe250353	-0.1611455
49	0x3cae8fa4	0.021308728
50	0xbe8235a4	-0.2543155
51	0x3c37f1ee	0.011227114
52	0x3e4f2581	0.2022915
53	0xbe699099	-0.22809066
54	0x3e1e983e	0.15487763
55	0x3c979366	0.018502902
56	0xbeece8b3	-0.46271285
57	0x3e35be99	0.17748488
58	0xbd8d6d8b	-0.06905659
59	0xbec5fb71	-0.38668397
60	0xbdf14608	-0.117809355
61	0x3dc68ded	0.09695039
62	0xbe3d8112	-0.18506268
63	0xbd4e398f	-0.05034786
64	0x3dc6a50a	0.096994475
65	0xbee09945	-0.43866935
66	0xbc26f5e1	-0.010190458
67	0x3e0d6145	0.13806637
68	0xbea8d234	-0.32972872
69	0x3d8f7084	0.070038825
70	0x3c48d295	0.012257238
71	0xbd7e8a4d	-0.062143613
72	0xbeaecb53	-0.341395
73	0x3df729ae	0.12068497
74	0xbc9b3b51	-0.018949183
75	0xbf333cd9	-0.7001472
76	0x3db939fd	0.090442635
77	0x3d25d266	0.040483855
78	0xbc24ddd4	-0.010062654
79	0x3d7f7947	0.06237152
80	0xbdef6dd7	-0.11690872
81	0xbe836c51	-0.25668576
82	0x3d8b085b	0.06788703
83	0xbc3cdf19	-0.0115278
84	0xbee97f24	-0.45604813
85	0x3d35bbe3	0.044368636
86	0x3c22b8d7	0.009931765
87	0xbee1496e	-0.44001335
88	0xbe14fc3a	-0.14549342
89	0xbe0dcd19	-0.1384777
90	0x3b3eb40c	0.0029099016
91	0x3dd87179	0.10568518
92	0x3d81d52b	0.06339487
93	0x3ddb879c	0.10719225
94	0x3d2873a5	0.041125912
95	0x3c7b1391	0.015324489
96	0x3df48f18	0.119413555
97	0x3d51c2a8	0.05121103
98	0x3b985e65	0.0046499246
99	0x3d2182e9	0.039431486
100	0xbd4fb2dc	-0.050707683
101	0x3d238018	0.03991708
102	0xbe14bf64	-0.14526135
103	0x3e615f7f	0.22009085
104	0xbccbaae7	-0.024861766
105	0xbdf3bdf7	-0.11901467
106	0x3d0a8d2f	0.03382605
107	0x3d2621c4	0.040559545
108	0x3dc2e21f	0.095157854
109	0xbe2f7c13	-0.17137174
110	0xbe0ecb69	-0.13944782
111	0x3e553c4c	0.20823783
112	0x3e2baf5e	0.16766116
113	0xbcebe491	-0.028795512
114	0x3e0946d4	0.13405925
115	0x3de1d50a	0.11026962
116	0xbe10f930	-0.14157557
117	0x3cafa692	0.021441732
118	0xbe1483cc	-0.14503402
119	0xbdb2f9df	-0.087390654
120	0xbe022fe9	-0.12713589
121	0xbeb23519	-0.34806135
122	0x3d93cf36	0.07217257
123	0xb9c4fe79	-0.0003757363
124	0xbe095ce1	-0.13414337
125	0xbd3c9327	-0.046038773
126	0xbe4bfbdd	-0.19920297
127	0xbe0eb9ff	-0.1393814
128	0x3cfdb722	0.030971114
129	0xbe70379a	-0.2345871
130	0x3d9e358b	0.07725056
131	0xbde34530	-0.11097181
132	0x3d6af5fc	0.057363495
133	0xbdf60b8f	-0.120139234
134	0x3d63e1cd	0.055635262
135	0xbcc784ff	-0.02435541
136	0x3e03d2c8	0.12873375
137	0x3e22b218	0.1588825
138	0xbd921846	-0.07133536
139	0x3d5e30ca	0.054245748
140	0xbbfc2bed	-0.007695666
141	0x3d884768	0.06654245
142	0x3e0f45f4	0.13991529
143	0xbd9a4e83	-0.07534506
144	0x3b8425d5	0.0040328302
145	0xbde99476	-0.1140527
146	0x3ca657a5	0.020305464
147	0x3e1cb3c1	0.15302946
148	0xbe1cbf73	-0.15307407
149	0x3cab7425	0.020929405
150	0xbd4f07d8	-0.05054459
151	0xbe90ee73	-0.28306922
152	0x3e2683f1	0.16261269
153	0x3d8832ef	0.0665034
154	0xbe0a34c0	-0.13496685
155	0x3d8c7c5a	0.06859656
156	0x3decb499	0.11557884
157	0xbde8811f	-0.11352753
158	0x3d85424c	0.06506786
159	0xbde8b1a0	-0.11362004
160	0xbcf5577f	-0.029948948
161	0xbe1016ac	-0.14071149
162	0xbd8626a4	-0.06550339
163	0x3dd9548d	0.1061183
164	0xbdff81ed	-0.12475953
165	0xbd7c1efa	-0.06155298
166	0x3e16fc44	0.14744669
167	0xbd696e5a	-0.056990005
168	0x3e3b4fe0	0.18292189
169	0x3c2c5a3c	0.01051956
170	0x3c3b2612	0.011422651
171	0x3da867c5	0.082229175
172	0xbd9c7e60	-0.076412916
173	0xbe257a4b	-0.16159932
174	0xbe198bb8	-0.14994705
175	0xbe45add4	-0.19304591
176	0xbdab8d0f	-0.08376514
177	0x3d896e3b	0.06710478
178	0xbe1213d9	-0.14265384
179	0xbe14b01f	-0.1452031
180	0x3da617d7	0.08110016
181	0x3de027fe	0.10945128
182	0x3dded8d5	0.10881201
183	0x3d000bd6	0.031261288
184	0x3e2f2269	0.1710297
185	0xbda88c8c	-0.08229932
186	0x3db09cdf	0.08623671
187	0x3e881f9c	0.26586616
188	0xbcb1bc8e	-0.021696355
189	0x3d389762	0.045066245
190	0x3e34ffe9	0.17675747
191	0xbe3b0662	-0.18264154
192	0x3bd0fc7c	0.0063777547
193	0x3e21c722	0.1579862
194	0x3dfe7335	0.12424318
195	0xbe5bb711	-0.21456553
196	0x3d51f9d6	0.051263653
197	0xbe4dfa38	-0.20114982
198	0xbe346521	-0.17616703
199	0x3e2b7478	0.16743648
200	0x3e1e5484	0.15461928
201	0x3e38d84a	0.18051258
202	0xbe0b9391	-0.13630511
203	0x3e20a64d	0.15688439
204	0xbe37e248	-0.17957413
205	0xbdcd7139	-0.10031361
206	0x3ca034cb	0.019556424
207	0x3de2eb3e	0.11080025
208	0xbe34df1e	-0.17663237
209	0x3e15934f	0.14606975
210	0x3b3f6a41	0.002920762
211	0x3d9760b8	0.073914945
212	0xbc92c8c9	-0.017918007
213	0x3e2404a1	0.16017391
214	0x3c0b01f0	0.008484349
215	0x3bc78080	0.0060883164
216	0xbe6d638b	-0.23182504
217	0xbdf83b5c	-0.12120697
218	0x3d67df5b	0.056609493
219	0xbd8646c8	-0.06556469
220	0x3d34a27e	0.044100277
221	0x3cae1b26	0.02125318
222	0xbe8e8062	-0.27832323
223	0xbce58ebf	-0.028022168
224	0xbbb7451f	-0.0055929567
225	0xbdb7a5a6	-0.08967142
226	0xbd8369d3	-0.06416669
227	0xbe03a305	-0.12855156
228	0x3e740a8a	0.23832145
229	0x3e351b4b	0.17686193
230	0x3e4824fa	0.19545355
231	0xbd5efdcb	-0.054441255
232	0xbda7353f	-0.08164453
233	0xbe2ea08d	-0.17053433
234	0xbeddb741	-0.43303874
235	0x3e408532	0.1880081
236	0xbe457550	-0.19283032
237	0x3de18d57	0.110132866
238	0x3d95f4ef	0.07322108
239	0x3e6f39a3	0.2336183
240	0x3d1401dc	0.036134586
241	0x3cb4ac45	0.0220548
242	0xbde82e50	-0.113369584
243	0xbe5197b7	-0.20468031
244	0x3db740bc	0.08947894
245	0xbcd548b4	-0.026035644
246	0xbde7d9d3	-0.113208435
247	0x3dc2914e	0.09500371
248	0x3c9db7f7	0.01925276
249	0xbd536742	-0.051612146
250	0x3d1661d9	0.03671441
251	0x3dbc6166	0.09198265
252	0xbf021667	-0.50815433
253	0x3dce89c4	0.100848705
254	0xbe2dc1f0	-0.16968513
255	0x3d9006f8	0.07032579

u1.conv3.bias f4 [8]
0	0xbbd9ad7c	-0.0066429954
1	0x3a8b2527	0.0010615931
2	0xbb3b1a13	-0.0028549477
3	0xba8d9660	-0.0010802262
4	0xbcbe256d	-0.023211205
5	0xbc18cfec	-0.009326916
6	0xbc291fd4	-0.01032253
7	0xbca3ac87	-0.019979728

u1.G.weight f4 [1, 8, 3, 3]
0	0x3de65e45	0.11248449
1	0xbd97b4b0	-0.0740751
2	0xbe26a02e	-0.16272041
3	0xbcc21c5c	-0.023695163
4	0x3e446e2c	0.19182652
5	0xbcc13dad	-0.02358898
6	0x3e582038	0.2110604
7	0xbd90bd8e	-0.07067405
8	0x3e76a2ea	0.24085584
9	0x3d45675f	0.048194285
10	0x3c2f4bd1	0.010699228
11	0xbcfe7c50	-0.031065136
12	0xbe13d512	-0.14436749
13	0xbe593e95	-0.2121528
14	0x3e151ee8	0.14562571
15	0x3e233729	0.1593901
16	0x3dcefaa0	0.10106397
17	0x3e592ab4	0.21207696
18	0xbda04d83	-0.07827284
19	0x3e4833fc	0.1955108
20	0xbe02b9d8	-0.12766206
21	0x3e00e076	0.12585625
22	0x3e034f58	0.12823236
23	0xbe2736d2	-0.16329506
24	0x3d8e5be4	0.069511205
25	0x3cd0dab9	0.02549492
26	0x3e437af3	0.1908987
27	0x3e0444db	0.12916891
28	0x3c98459e	0.018587884
29	0x3e99b09d	0.30017558
30	0xbdc3fc53	-0.095696114
31	0x3dd7a094	0.10528675
32	0xbe33be3c	-0.17553037
33	0x3d082389	0.033237014
34	0x3bc951b8	0.006143775
35	0x3e404f7d	0.18780322
36	0xbe603375	-0.2189463
37	0xbd0ad51a	-0.033894636
38	0xbe1a19db	-0.15048926
39	0xbe77f906	-0.24216089
40	0x3db72376	0.089423105
41	0xbe1e4a91	-0.15458132
42	0xbe6331b6	-0.22186932
43	0x3df29795	0.11845318
44	0x3e757aff	0.239727
45	0x3de72114	0.11285606
46	0xbdd39556	-0.10331218
47	0x3d9dfa0e	0.0771371
48	0x3ccde042	0.025131349
49	0xbda25d23	-0.07927921
50	0x3de57f3f	0.11205911
51	0x3e190959	0.14944972
52	0x3d91f62c	0.07127032
53	0xbdf53481	-0.11972905
54	0x3e70f568	0.23531115
55	0x3e15c2f3	0.14625148
56	0xbe148d7f	-0.14507101
57	0xbd7e9e54	-0.062162712
58	0x3e734d66	0.23759994
59	0xbd926e7a	-0.07149978
60	0x3e1720db	0.14758627
61	0xbdeb21eb	-0.11481079
62	0x3c825794	0.015910901
63	0xbe63b6a2	-0.22237638
64	0xbe1eea06	-0.1551896
65	0x3c52f984	0.012876872
66	0x3dd46421	0.103706606
67	0x3de88637	0.113537244
68	0xbe1c1252	-0.15241364
69	0x3d95b538	0.07309955
70	0x3d8ff52b	0.07029184
71	0x3b036541	0.0020049366

u2.E.weight f4 [8, 1, 3, 3]
0	0x3c953694	0.018214501
1	0xbe4365b4	-0.19081765
2	0x3df6d0cd	0.12051544
3	0x3d4f4c3b	0.05060981
4	0x3dd9b45e	0.106301054
5	0x3c67e7d0	0.0141543895
6	0x3dd1acae	0.10238014
7	0xbe22cee2	-0.15899232
8	0x3e0d7f5e	0.13818118
9	0xbd73ea98	-0.059549898
10	0xbe8ec331	-0.27883294
11	0x3e33e92a	0.17569414
12	0xbd672df6	-0.056440316
13	0xbe944fc6	-0.28967112
14	0x3c8ff288	0.017571703
15	0xbd8112dc	-0.06302425
16	0x3df852ea	0.121251896
17	0xbe00e093	-0.12585668
18	0xbe8b8294	-0.2724806
19	0x3e11d567	0.14241563
20	0x3e3733e3	0.17890887
21	0xbeaa4c05	-0.33261123
22	0x3dc55660	0.09635615
23	0xbc5ecab7	-0.013598136
24	0xbd997f4a	-0.074949816
25	0x3e4ce3c5	0.20008762
26	0x3dd80042	0.10546924
27	0xbd69fc82	-0.057125576
28	0xbe76659e	-0.24062201
29	0xbdf5c4ec	-0.120004505
30	0x3e18133f	0.14851092
31	0xbd6eef10	-0.058333457
32	0x3e2ee5b4	0.17079812
33	0x3c8b0bc6	0.016973387
34	0x3e06852d	0.1313674
35	0x3ce0b47d	0.027429814
36	0xbe37cb2e	-0.179486
37	0x3deef14c	0.116671175
38	0xbe09ff15	-0.13476212
39	0x3e4f94a7	0.2027155
40	0xbe1836af	-0.1486461
41	0x3dea5e95	0.11443821
42	0x3d69171a	0.056906797
43	0x3e5dc20d	0.21656056
44	0x3e052883	0.13003735
45	0x3bb2cea0	0.0054567605
46	0xbd9f033c	-0.07764289
47	0x3d2fc3a8	0.0429112
48	0x3e60e966	0.21964034
49	0xbdb17688	-0.08665186
50	0x3dfea2d2	0.12433399
51	0xbc90ab41	-0.017659785
52	0x3da232e2	0.079198614
53	0x3e10e218	0.14148748
54	0x3e48e3f4	0.19618207
55	0x3d5aac04	0.053386703
56	0x3d192138	0.037385195
57	0x3d3b255c	0.045689926
58	0x3e187409	0.14888014
59	0x3e5f482b	0.21804874
60	0xbcdfead9	-0.027333664
61	0x3e0dbe86	0.1384221
62	0x3e56bb85	0.2096997
63	0xbee71254	-0.4513117
64	0xbdf845b9	-0.121226735
65	0x3e26a0c1	0.1627226
66	0xbeb645e8	-0.3560021
67	0x3df59ed1	0.119931825
68	0x3e3c9f6f	0.18420194
69	0xbe8b609e	-0.2722215
70	0xbdc5c0e2	-0.0965593
71	0xbcf85338	-0.03031312

u2.E.bias f4 [8]
0	0xbcbc8dfd	-0.023016924
1	0xbcf21f52	-0.02955595
2	0xbd04a88a	-0.032387294
3	0xbcd04e5a	-0.025427986
4	0xbbb337f8	-0.0054693185
5	0x3b5dd69a	0.0033849836
6	0xbcaf766c	-0.021418773
7	0x3b61a493	0.003443037

u2.conv1.weight f4 [8, 8, 3, 3]
0	0x3de4ccf0	0.11171901
1	0x3d523792	0.051322527
2	0x3e0b6c17	0.13615452
3	0x3e1a08fd	0.15042491
4	0xbdc44d52	-0.0958506
5	0xbd6346b7	-0.05548736
6	0x3dcd95ee	0.100383624
7	0x3d159e8e	0.036528163
8	0x3e1e50d0	0.15460515
9	0x3d1b62c1	0.037935976
10	0xbe5ae4f3	-0.213764
11	0xbb0c23ac	-0.0021383567
12	0xbe2490fc	-0.16070932
13	0x3e200885	0.1562825
14	0x3ddd50e0	0.10806441
15	0xbce6ed70	-0.02818939
16	0x3dcfa245	0.10138372
17	0xbe38daaf	-0.18052171
18	0xbe053105	-0.1300698
19	0xbe10cdcd	-0.14141007
20	0xbe9b1425	-0.30288807
21	0x3db62be8	0.08895093
22	0xbda5d910	-0.08098042
23	0xbdabd782	-0.08390714
24	0x3d84f50e	0.06492053
25	0x3dcf2c19	0.10115833
26	0x3e6c2238	0.23059928
27	0x3e3f3278	0.18671596
28	0xbe23c6c2	-0.15993789
29	0xbdcfa7da	-0.10139437
30	0xbde82174	-0.11334506
31	0x3be637a2	0.007025675
32	0x3e64a9e8	0.22330439
33	0xbd4b9e82	-0.04971171
34	0xbe1014d2	-0.14070442
35	0xbe69ec90	-0.22844148
36	0xbdbc9e35	-0.09209863
37	0xbe504b35	-0.20341189
38	0x3d6f688d	0.058449317
39	0xbdc14f1e	-0.094389185
40	0xbcec30a0	-0.02883178
41	0xbd6aaf5f	-0.057296153
42	0xbe1af068	-0.1513077
43	0x3e2ff509	0.17183317
44	0xbc157bd6	-0.009123763
45	0xba3b3606	-0.0007141534
46	0x3e0dd683	0.13851361
47	0x3d032b4d	0.032023717
48	0x3d73c3fb	0.059513073
49	0x3e276dbf	0.16350459
50	0x3e00831c	0.12550014
51	0xbc3da37c	-0.011574622
52	0x3ded0114	0.11572471
53	0x3d9393b8	0.072059095
54	0x3d4ea702	0.05045224
55	0xbe4dcfc4	-0.20098788
56	0x3de00dc4	0.109401256
57	0xbdfb38d6	-0.122667
58	0x3da99ad8	0.08281487
59	0xba002c12	-0.00048893795
60	0x3d8c007d	0.06836031
61	0x3d658481	0.05603457
62	0xbdab69e2	-0.08369805
63	0x3e94fb36	0.2909791
64	0xbe56d001	-0.20977785
65	0xbe62e325	-0.22156961
66	0x3e4138c8	0.18869317
67	0x3e079fc3	0.13244538
68	0xbc4fc22b	-0.012680571
69	0x3ea08f67	0.31359407
70	0xbde03195	-0.10946957
71	0x3db79c77	0.0896539
72	0xbda27e80	-0.07934284
73	0x3d0631f4	0.032762483
74	0x3b81d4f8	0.0039621554
75	0xbd32e916	-0.04367932
76	0x3aa30e67	0.0012440205
77	0x3e8ffd46	0.2812292
78	0xbdf9c70c	-0.12196168
79	0xbe20658f	-0.15663742
80	0x3d52cf2d	0.05146711
81	0x3e3188ef	0.17337392
82	0x3bab4e2a	0.0052278237
83	0xbe3ba9ea	-0.18326536
84	0x3e09a74e	0.13442728
85	0x3e216de3	0.15764575
86	0x3de52d5f	0.111902945
87	0xbdcb611e	-0.09930633
88	0xbd9fc869	-0.07801897
89	0x3de02286	0.10944085
90	0xbd92a871	-0.07161034
91	0xbee6a070	-0.4504428
92	0xbeae25db	-0.34013256
93	0xbd3ee5a8	-0.046605736
94	0xbd941350	-0.07230246
95	0xbd5dda43	-0.05416323
96	0xbedf391c	-0.43598258
97	0xbe1b480f	-0.15164207
98	0xbd1f46cf	-0.038885888
99	0x3dc0ed17	0.09420221
100	0x3e0b8453	0.13624696
101	0x3d135608	0.035970718
102	0x3f16d338	0.58916044
103	0x3eafbab3	0.34322128
104	0x3e014509	0.12623991
105	0xbe0319c5	-0.12802799
106	0x3e6d5594	0.23177177
107	0x3eaca305	0.33718124
108	0x3cc22d91	0.023703368
109	0x3e567ac3	0.20945267
110	0xbd79a3b7	-0.060947146
111	0x3d6527c4	0.055946127
112	0x3de35fa0	0.111022234
113	0xbcc9abaa	-0.024617989
114	0x3df40a79	0.1191606
115	0xbc2c13f6	-0.010502806
116	0xbe568e94	-0.20952827
117	0x3d84907a	0.06472869
118	0x3e01b6b7	0.12667356
119	0x3dc70978	0.09718603
120	0xbcd9d4bc	-0.026590697
121	0xbd6a5414	-0.05720909
122	0xbdb3cc01	-0.08779145
123	0xbda76a97	-0.08174627
124	0xbea37553	-0.3192545
125	0xbe4921f8	-0.19641864
126	0x3dd8ffd8	0.10595673
127	0x3e2c7695	0.1684211
128	0x3cf62fa3	0.030052012
129	0x3d2e0e52	0.042494126
130	0xbc929e28	-0.01789768
131	0xbe25a95d	-0.16177888
132	0x3dfc35f2	0.12314977
133	0xbda2b28c	-0.07944211
134	0xbe92ef03	-0.28697976
135	0xbe2073a8	-0.1566912
136	0xbdfc02c8	-0.12305218
137	0x3ba68d3c	0.0050827544
138	0xbdd7f39d	-0.105445124
139	0xbe6fab53	-0.23405199
140	0x3db05d68	0.08611566
141	0xbe26149a	-0.16218796
142	0xbe3f276c	-0.18667382
143	0xbe5c7a9d	-0.21531148
144	0xbc446c65	-0.011988734
145	0x3e18e7c9	0.14932169
146	0x3e27aa18	0.1637348
147	0xbc83218e	-0.016007211
148	0x3d889c8e	0.066704854
149	0x3da7b901	0.081895836
150	0x3d993b7f	0.07482051
151	0xbe401354	-0.18757373
152	0xbd94cdbf	-0.072658055
153	0xbe41c08f	-0.18921112
154	0x3e4b4208	0.19849408
155	0x3e0a3b91	0.13499285
156	0xbd9a9031	-0.075470336
157	0xbcf5a267	-0.029984666
158	0x3c15342a	0.009106675
159	0x3e23ea95	0.16007455
160	0x3dfc11fd	0.123081185
161	0xbe245329	-0.16047348
162	0x3b897b7b	0.004195628
163	0x3d0ead7e	0.034833424
164	0x3e2a62d7	0.16639267
165	0x3e1a8725	0.15090616
166	0x3dd19777	0.10233968
167	0x3beeb244	0.0072844345
168	0x3e13fcce	0.14451906
169	0x3db35574	0.08756533
170	0x3cc88d1e	0.024481352
171	0xbe82af62	-0.2552443
172	0x3c03d0b2	0.008045362
173	0xba0d8d82	-0.00053998095
174	0x3e458d3b	0.19292156
175	0x3e40cd49	0.1882831
176	0xbe06334f	-0.1310551
177	0x3db00883	0.085953735
178	0xbd3de055	-0.046356518
179	0x3d6a1ec8	0.05715826
180	0xbd4ae14d	-0.04953127
181	0xbe66bd1c	-0.22533077
182	0xbd6b7a10	-0.057489455
183	0xbb6733bd	-0.003527864
184	0xbe06773a	-0.13131419
185	0xbda0f328	-0.078588784
186	0x3d4bb9f6	0.049737893
187	0x3e1c499d	0.15262456
188	0x3db1b55d	0.086771704
189	0xbe02b3a9	-0.12763847
190	0xbe41e9a3	-0.18936782
191	0x3daed7ee	0.08537279
192	0xbc1eccff	-0.00969243
193	0xbde8c7d7	-0.113662414
194	0x3d8bd0d2	0.06826939
195	0xbe3f9b6d	-0.18711634
196	0x3d84d98f	0.064868085
197	0x3cc44191	0.023957046
198	0x3e1969e4	0.149818
199	0xbda9cbc5	-0.08290819
200	0xbe10a23b	-0.14124386
201	0x3e31dcc2	0.17369369
202	0xbda147c2	-0.07875015
203	0xbe6d4bcf	-0.2317345
204	0xbdae03e6	-0.08496837
205	0x3e13f689	0.14449514
206	0xbe2aed2c	-0.16692036
207	0x3cd84e1d	0.026404435
208	0xbe46751b	-0.1938061
209	0xbd6e188a	-0.05812887
210	0xbdc62e05	-0.09676746
211	0xbd7dc9e5	-0.06196012
212	0xbdcbb47d	-0.09946535
213	0xbe30555b	-0.1722006
214	0x3da1f5e5	0.07908229
215	0x3dd484a8	0.10376865
216	0x3c47d63c	0.012197074
217	0x3dba731f	0.09103989
218	0xbbf1090f	-0.007355816
219	0x3df956ff	0.12174796
220	0x3c932e3f	0.017966388
221	0x3e200a6e	0.15628979
222	0x3e2281aa	0.15869775
223	0x3e410d5e	0.18852755
224	0x3e0e37bb	0.13888447
225	0xbe3e2a82	-0.18570903
226	0x3dd2b7ca	0.10288961
227	0xbd45d11d	-0.04829513
228	0x3b6cbd51	0.0036123584
229	0x3d8b24c4	0.06794122
230	0xbc618a3d	-0.013765869
231	0xbdbac994	-0.09120479
232	0x3d055e20	0.032560468
233	0x3d8019e6	0.0625494
234	0x3d8c1095	0.068391
235	0xbd347765	-0.044059176
236	0xbe4f3ff5	-0.20239241
237	0xbd26d28a	-0.04072813
238	0xbdb862fd	-0.090032555
239	0xbd954c75	-0.07289974
240	0x3ce5c578	0.028048262
241	0x3e1d3fcf	0.15356372
242	0xbd1d5938	-0.038415164
243	0x3e10e5a4	0.14150101
244	0x3ce89cca	0.028395075
245	0x3db1e049	0.08685357
246	0x3d4c6f55	0.049910862
247	0xbe00443d	-0.12526031
248	0xbd646b1f	-0.05576622
249	0xbe395330	-0.1809814
250	0xbd9897f5	-0.074508585
251	0xbe0ed7c0	-0.1394949
252	0x3deabb0a	0.11461456
253	0x3e2401cb	0.16016309
254	0xbe2ed185	-0.17072113
255	0x3e1ba36b	0.15199058

u2.conv1.bias f4 [8]
0	0x3bd8beb1	0.006614529
1	0xbc32b8b1	-0.010908292
2	0xbb1767bd	-0.0023102604
3	0xbc1e8417	-0.009675047
4	0x3c1f9302	0.009739639
5	0xbb5ab38c	-0.0033371178
6	0x3c8280f6	0.015930634
7	0xbc3dc6a6	-0.011583006

u2.conv2.weight f4 [8, 8, 3, 3]
0	0x3c569dcf	0.013099148
1	0x3c961dfd	0.018324846
2	0x3df0e5cf	0.117625825
3	0xbe0e743e	-0.1391153
4	0x3e12862a	0.14308992
5	0x3e187fc1	0.14892484
6	0x3dabadcd	0.08382759
7	0x3c5e8b61	0.013583035
8	0xbdda93bd	-0.1067271
9	0xbeb14ca2	-0.3462878
10	0xbe9cf56e	-0.30655998
11	0x3ebb75ff	0.3661346
12	0xbce5cb3c	-0.028051011
13	0x3e1fc555	0.1560262
14	0x3e06fc9d	0.13182302
15	0xbd9cb8e7	-0.07652455
16	0xbe17c48d	-0.14821072
17	0xbe3fa5d9	-0.1871561
18	0xbda19b21	-0.078909166
19	0xbe148422	-0.1450353
20	0xbe3898c6	-0.18027028
21	0x3e40fe5c	0.1884703
22	0xbd83cb0d	-0.06435213
23	0xbe0508d6	-0.12991652
24	0x3e53862c	0.20656651
25	0xbc9c809e	-0.019104298
26	0xbe4503ca	-0.19239727
27	0xbcf5382f	-0.029934017
28	0xbdee4472	-0.11634149
29	0x3da027ef	0.07820117
30	0x3ac371fc	0.0014911289
31	0x3e6d7cf5	0.23192199
32	0x3d269312	0.0406676
33	0x3dad8d77	0.08474248
34	0xbdd8cd07	-0.10585981
35	0x3e22793a	0.15866557
36	0xbd7753a0	-0.060382485
37	0x3e36f515	0.17866929
38	0xbd1bd917	-0.03804883
39	0xbdc8f33a	-0.09812017
40	0x3ddcbadc	0.10777828
41	0xbe19b0eb	-0.15008895
42	0x3bdf9586	0.0068232445
43	0xbdddbdbe	-0.10827206
44	0xbdab9093	-0.08377185
45	0x3c165bfd	0.009177205
46	0xbd8286dc	-0.06373379
47	0x3ded701d	0.115936495
48	0x3e621259	0.22077312
49	0x3dbe6296	0.092961475
50	0x3b7023d2	0.0036642444
51	0xbe371882	-0.17880443
52	0x3de2574f	0.11051809
53	0xbdc6c076	-0.09704678
54	0xbdb98319	-0.09058208
55	0x3e3213a6	0.17390308
56	0xbe0116aa	-0.12606302
57	0x3d3010ac	0.04298465
58	0x39ab9b5b	0.0003273141
59	0x3dea8d12	0.11452688
60	0xbe447332	-0.19184569
61	0xbe02eaa7	-0.12784825
62	0xbe6cc598	-0.23122251
63	0x3d3c67a4	0.045997277
64	0xbdd31b49	-0.103079386
65	0x3e1d6cb4	0.15373498
66	0x3e307337	0.17231451
67	0x3e39f1f6	0.18158707
68	0x3e4cec1d	0.20011945
69	0xbe2d1514	-0.16902572
70	0xbca2f5d5	-0.019892612
71	0xbd8e12a1	-0.06937147
72	0xbd964f34	-0.073393255
73	0xbcbecd27	-0.023291184
74	0x3b5d2bc7	0.0033748017
75	0xbe3e8ac5	-0.18607624
76	0x3d51b3c2	0.05119682
77	0x3d7d4ea5	0.06184258
78	0xbc9fa2a0	-0.019486725
79	0xbcca36b6	-0.024684291
80	0xbccb5989	-0.024822967
81	0x3dcbc777	0.09950154
82	0x3debbc7b	0.11510559
83	0x3dc95ebf	0.098325245
84	0xbb426d98	-0.0029667374
85	0x3e6020e5	0.21887548
86	0x3e3abbf8	0.18235767
87	0x3dcb1e37	0.099178724
88	0x3e004b58	0.12528741
89	0x3ddd4d29	0.10805733
90	0x3dbbef43	0.09176495
91	0x3ccdae1e	0.02510744
92	0xbcae115b	-0.02124851
93	0xbd9547ba	-0.072890714
94	0xbe868cd7	-0.26279327
95	0x3d4b5646	0.049642824
96	0x3e113a5a	0.14182416
97	0xbcb7e39d	-0.022447402
98	0xbe41e169	-0.18933643
99	0x3e455f63	0.19274668
100	0x3e2d2cc6	0.16911611
101	0x3e328b48	0.17435944
102	0xbddcc52c	-0.10779795
103	0x3da291bc	0.07937953
104	0xb9a5948c	-0.00031581928
105	0xbe26867a	-0.16262236
106	0x3d9ec299	0.0775196
107	0xbcbd56d5	-0.023112694
108	0xbd9ffe9e	-0.07812236
109	0x3d1a23b2	0.037631698
110	0xbdf98451	-0.121834405
111	0x3c8bd7e9	0.017070727
112	0x3e318588	0.17336094
113	0x3df9f930	0.12205732
114	0xbd42c616	-0.04755219
115	0x3e106d84	0.14104277
116	0xbe1d5e04	-0.15367895
117	0xbd811f0e	-0.06304751
118	0x3d151e60	0.03640592
119	0x3e6a5670	0.22884536
120	0x3d19916f	0.037492212
121	0xbd9153cd	-0.07096062
122	0xb9f19134	-0.00046075287
123	0xbb859671	-0.004076772
124	0xbd3bcdc4	-0.04585053
125	0xbde9f233	-0.11423149
126	0x3e21777f	0.1576824
127	0xbe2f5713	-0.1712306
128	0x3e08f93e	0.13376328
129	0xbe038246	-0.12842664
130	0xbda5ed61	-0.08101917
131	0x3c3bfd58	0.011473976
132	0xbe506617	-0.20351444
133	0xbe05a35a	-0.13050595
134	0x3dbe84ea	0.09302695
135	0xbdadab0b	-0.084798895
136	0x3e67af5f	0.22625493
137	0x3d628fde	0.055312984
138	0x3e3e527d	0.18586154
139	0x3c53e913	0.012933987
140	0x3d3820f7	0.044953313
141	0xbde89e93	-0.11358371
142	0xbd0debeb	-0.034648817
143	0x3cca022e	0.024659242
144	0x3e512f33	0.20428161
145	0xbe580730	-0.21096492
146	0x3c9d4e42	0.019202355
147	0x3d42f016	0.047592245
148	0x3de41603	0.11137011
149	0xbdb284f0	-0.08716762
150	0xbd31892a	-0.0433437
151	0xbe3180fa	-0.17334357
152	0xbdbd7f31	-0.092527755
153	0x3e011fe5	0.12609823
154	0xbdcafd02	-0.09911539
155	0xbd933801	-0.07188416
156	0xbe6c1799	-0.23055877
157	0xbdcabb9e	-0.098990664
158	0xbd2a568e	-0.04158645
159	0xbdbf9b46	-0.09355788
160	0xbda93d7f	-0.082636826
161	0xbe53250f	-0.20619605
162	0x3e0f38eb	0.13986556
163	0x3d9c7356	0.07639186
164	0x3cdb93b1	0.026803823
165	0xbd42da40	-0.04757142
166	0xbe08ca0d	-0.13358326
167	0x3e34f818	0.17672765
168	0x3d9aaebb	0.075528584
169	0x3beab32d	0.0071624727
170	0xbe2dd40b	-0.16975419
171	0xbdcf5068	-0.10122758
172	0xbde08a09	-0.10963828
173	0xbe0d388f	-0.13791107
174	0xbd39a307	-0.04532149
175	0x3e04a3de	0.12953135
176	0x3c96ee6d	0.018424237
177	0x3e32a837	0.17446981
178	0xbd1b9a15	-0.03798874
179	0xbcc286fc	-0.023746006
180	0x3e25a4c4	0.16176134
181	0xbe1dc8c4	-0.15408617
182	0x3d8075ac	0.06272444
183	0x3e08c0df	0.13354824
184	0xbdb8da49	-0.090260096
185	0xbdc64cb9	-0.096826024
186	0xbd627e8c	-0.055296466
187	0x3e4b8385	0.1987439
188	0x3de91807	0.11381536
189	0x3e3b0cad	0.18266554
190	0xbe071aae	-0.13193771
191	0xbdf25d33	-0.118341826
192	0xbe0f95dc	-0.1402201
193	0x3d5088bb	0.050911646
194	0xbb41d01b	-0.0029573503
195	0x3d064e4f	0.032789525
196	0x3dc95a47	0.09831672
197	0x3da38b7c	0.07985589
198	0xbe187561	-0.14888526
199	0x3e315e46	0.17321119
200	0x3e1d2173	0.15344791
201	0x3e34967d	0.17635532
202	0x3e354c76	0.17704949
203	0xbd2fbb17	-0.042903032
204	0x3e18aa6e	0.14908764
205	0x3e100f85	0.1406842
206	0x3cb44bd7	0.02200882
207	0x3cb18e72	0.021674369
208	0x3da6afc5	0.08138994
209	0xbd002040	-0.031280756
210	0x3d7effe9	0.062255774
211	0xbe4a80cc	-0.19775695
212	0x3e4e921a	0.20172921
213	0x3df34ba8	0.11879665
214	0x3e49f547	0.19722472
215	0x3d8edd1e	0.069757685
216	0xbeb45880	-0.3522377
217	0xbe5adaab	-0.21372478
218	0xbe483c3d	-0.19554229
219	0x3e43343e	0.19062898
220	0x3da839c9	0.08214147
221	0x3d344178	0.04400775
222	0x3d1c7ee0	0.038206935
223	0x3e42f5ec	0.19039124
224	0x3c634853	0.013872224
225	0x3dd1157d	0.10209177
226	0xbdf224b5	-0.118234076
227	0xbd2a7b99	-0.04162178
228	0xbd5743f0	-0.052555025
229	0x3db57d24	0.08861759
230	0x3a1cdf13	0.00059841684
231	0xbd216797	-0.03940543
232	0x3c97149e	0.018442448
233	0xbed1ef3b	-0.4100283
234	0xbd0186e0	-0.031622767
235	0x3d102a47	0.03519657
236	0xbe7e4819	-0.2483219
237	0x3d85378f	0.065047376
238	0x3db175dc	0.08665058
239	0x3d9743ee	0.073860034
240	0x3d6599fd	0.056055058
241	0xbefb5ad2	-0.49092728
242	0xbe78416e	-0.2424371
243	0xbe6abe0a	-0.22924057
244	0xbdf83c97	-0.121209316
245	0xbec094f3	-0.3761364
246	0x3cba85cd	0.02276888
247	0xbdca1bc9	-0.09868581
248	0xbe2d79af	-0.1694095
249	0x3c98e263	0.018662637
250	0x3dda2228	0.10651046
251	0xbdfd833a	-0.12378545
252	0xbf030491	-0.5117884
253	0xbf008daf	-0.5021619
254	0xbeaa4366	-0.33254546
255	0xbe374677	-0.17897974

u2.conv2.bias f4 [8]
0	0xbc003ec4	-0.0078274645
1	0x3ca6fe7b	0.020385018
2	0xbc8a127b	-0.016854515
3	0x3c09448c	0.008378159
4	0xbb9958c8	-0.004679773
5	0x3bcc32fe	0.0062316647
6	0xbcf5507e	-0.029945608
7	0xbb7fbeff	-0.0039023755

u2.conv3.weight f4 [8, 8, 3, 3]
0	0x3db5ad24	0.088709146
1	0x3d9c7e40	0.07641268
2	0xbe0b860d	-0.13625355
3	0xbd120ab6	-0.035654746
4	0x3d8083cc	0.06275138
5	0xbd9b92d5	-0.07596365
6	0x3e02722a	0.12738863
7	0xbc79376e	-0.015210969
8	0x3e299103	0.16559224
9	0x3de34380	0.11096859
10	0x3e8d0fba	0.2755106
11	0x3ea736b5	0.32658926
12	0xbd5f901a	-0.054580785
13	0x3d14b064	0.03630103
14	0xbc8b2632	-0.016985986
15	0xbdd9a132	-0.10626449
16	0xbe29725e	-0.16547534
17	0xbd171de6	-0.036893748
18	0xbde219cb	-0.11040076
19	0x3cfd9671	0.030955525
20	0x3e0e38de	0.1388888
21	0x3e32df06	0.17467889
22	0x3e1d0a7c	0.1533603
23	0x3e3fe1e5	0.18738516
24	0x3e1d7976	0.15378365
25	0xbe005692	-0.12533024
26	0xbd1b4c59	-0.037914608
27	0x3de57d11	0.11205495
28	0xbd6c884f	-0.05774718
29	0x3c0bee3b	0.008540685
30	0x3e2eada4	0.17058426
31	0xbce0f5a1	-0.027460875
32	0xbd1d00c9	-0.038330827
33	0x3dbc0bde	0.09181951
34	0x3e483da4	0.19554764
35	0xbd90ed4f	-0.07076513
36	0xbc6bdb22	-0.014395507
37	0xbe3bd415	-0.18342622
38	0x3accb008	0.0015616426
39	0x3d08df88	0.0334163
40	0x3e1ef400	0.15522766
41	0xbe0153c9	-0.12629618
42	0xbdf3c655	-0.11903063
43	0x3e13d58f	0.14436935
44	0xbd8eef07	-0.069791846
45	0x3c9809b1	0.018559309
46	0x3e203b1e	0.15647551
47	0x3e1e80c5	0.15478809
48	0x3aab13d4	0.0013052174
49	0xbe4794ab	-0.19490306
50	0xbdd9392c	-0.10606608
51	0xbe2c098c	-0.16800517
52	0xbb8901c5	-0.004181119
53	0xbddf0b29	-0.108908005
54	0x3e289759	0.16463985
55	0xbe3968fb	-0.18106453
56	0xbd6aa225	-0.05728354
57	0x3db1b095	0.086762585
58	0xbdcacdca	-0.099025324
59	0x3e37b21b	0.17939036
60	0x3d4a7efc	0.049437508
61	0x3e56f435	0.20991595
62	0x3d721dec	0.059110567
63	0x3e26e36e	0.16297695
64	0xbe05a011	-0.13049342
65	0xbc1c0155	-0.009521802
66	0x3dc43a46	0.09581427
67	0xbda26b19	-0.079305835
68	0x3d1298dd	0.035790313
69	0xbdd33bfb	-0.10314175
70	0x3d3471e0	0.044053912
71	0x3d12a34a	0.035800256
72	0xbf06a10f	-0.52589506
73	0x3d63600e	0.055511527
74	0x3da5a015	0.08087174
75	0xbe64a364	-0.22327954
76	0x3d073a3f	0.033014532
77	0x3d20952f	0.039204773
78	0x3e0b676b	0.1361367
79	0xbe33fd83	-0.17577176
80	0xbc28cfff	-0.010303496
81	0xbdaf27d3	-0.08552518
82	0x3e86c83d	0.26324645
83	0x3d482232	0.048860736
84	0xbebcf8a0	-0.36908436
85	0x3e05cde2	0.1306682
86	0x3de563a5	0.11200646
87	0xbe6c8b30	-0.23099971
88	0x3db3a0f1	0.087709315
89	0xbbca214d	-0.0061685205
90	0xbf09f206	-0.53884923
91	0xbe270ba0	-0.16313028
92	0xbd45158c	-0.04811625
93	0xbe0fb889	-0.14035238
94	0x3e4a96ee	0.19784138
95	0x3e0576c2	0.13033584
96	0xbd9eddd1	-0.07757152
97	0x3e07a19c	0.13245243
98	0xbe09c0b5	-0.13452418
99	0xbeed0a4f	-0.46296927
100	0xbdafeca1	-0.08590055
101	0x3d19d4ec	0.037556574
102	0xbcf1b61f	-0.029505787
103	0xbdfca29b	-0.12335702
104	0x3b998d7d	0.004686056
105	0x3cb7fb2f	0.02245864
106	0x3dd81788	0.10551363
107	0x3e134b2a	0.14384142
108	0xbf0777d8	-0.5291724
109	0xbd828199	-0.06372375
110	0x3de9b7cf	0.11412012
111	0xbc87173a	-0.016490567
112	0xbda2853d	-0.079355694
113	0x3c306798	0.010766886
114	0xbe00b2f9	-0.12568273
115	0x3e51652a	0.20448747
116	0x3d06b444	0.03288676
117	0xbe68af32	-0.22723082
118	0x3d81250e	0.06305896
119	0xbe39379d	-0.18087621
120	0xbe2ceeb8	-0.16887939
121	0xbbc571b0	-0.0060255155
122	0x3c7eb084	0.015545014
123	0x3e1e3efa	0.15453711
124	0xbe2824c0	-0.16420269
125	0x3de78fbb	0.11306711
126	0xbeb895f2	-0.360519
127	0x3d5c9dd9	0.053861473
128	0x3cbe5249	0.023232596
129	0x3da54df1	0.08071507
130	0x3db143df	0.086555235
131	0x3e4742b6	0.19459042
132	0xbdbf40e2	-0.09338547
133	0x3e1dc8ec	0.15408677
134	0xbe0aa54f	-0.13539623
135	0xbea3715a	-0.31922418
136	0xbd10b875	-0.035332162
137	0xbde8f8a5	-0.1137555
138	0xbe08f794	-0.13375694
139	0xbdf57d68	-0.1198681
140	0x3ba61615	0.0050685504
141	0x3d0571c2	0.03257919
142	0x3dfadda1	0.122493036
143	0xbe30fb30	-0.1728332
144	0x3d418b8e	0.04725223
145	0xbe0f38a3	-0.13986449
146	0x3d0e9d3e	0.034817927
147	0xbd680ab6	-0.05665084
148	0xbe8afb45	-0.27144828
149	0x3c4b65ba	0.01241439
150	0xbc657631	-0.01400523
151	0xbe812d0e	-0.25229686
152	0x3e3e04a7	0.18556462
153	0x3da917b4	0.08256474
154	0xbd61d23f	-0.055132147
155	0x3ddc175e	0.107466444
156	0x3e32524f	0.1741421
157	0xbe26babe	-0.16282174
158	0x3c9b8223	0.018982952
159	0x3d90da9e	0.07072948
160	0xbe0b4b72	-0.13602999
161	0xbcb7cfbc	-0.022437923
162	0x3e01bd72	0.12669924
163	0x3c9bceab	0.019019445
164	0xbcdf641e	-0.02726942
165	0xbe67c196	-0.22632441
166	0x3e271a18	0.16318548
167	0xbdee9cf5	-0.11651031
168	0x3d736098	0.05941829
169	0x3dc50ba2	0.096213594
170	0xbdc19fda	-0.094543174
171	0xbd9826e6	-0.07429294
172	0xbe000724	-0.12502724
173	0xbd09ee44	-0.033674493
174	0x3dd1d962	0.102465406
175	0xbe66fa9f	-0.22556542
176	0xbdfc5141	-0.123201855
177	0x3e736cc4	0.2377196
178	0xbe4cfce5	-0.20018347
179	0x3d8e1133	0.06936874
180	0xbd54bf95	-0.05194052
181	0xbc61f800	-0.013792038
182	0xbd8680db	-0.06567546
183	0xbe2b1883	-0.16708569
184	0x3ce4d8c1	0.027935388
185	0x3de1858b	0.110117994
186	0x3b9dd233	0.0048163175
187	0xbe40ac7e	-0.188158
188	0x3cb6b11a	0.022301245
189	0x3ca41c21	0.020032944
190	0x3bf5a77d	0.007496773
191	0xbd58b77b	-0.052909356
192	0xbe1f9085	-0.15582474
193	0x3e2071a0	0.15668344
194	0x3e2d1064	0.16900784
195	0xbdad6abd	-0.08467624
196	0xbd221f21	-0.039580468
197	0xbe2e71bd	-0.17035575
198	0xbd14c5f9	-0.036321614
199	0xbd8aee22	-0.067837015
200	0x3e1661c2	0.14685729
201	0xbdc7c4a4	-0.09754303
202	0x3e19383f	0.14962862
203	0x3e33f5ad	0.17574187
204	0xbda15f61	-0.0787952
205	0x3cde0e95	0.027106563
206	0x3e46c16f	0.19409727
207	0x3ddeb1bb	0.10873743
208	0x3d598848	0.053108484
209	0x3d40217d	0.046906937
210	0x3af4abba	0.0018666901
211	0x3db4962a	0.08817704
212	0x3e2cebab	0.16886775
213	0x3d87623d	0.06610534
214	0xbe2e18ec	-0.17001694
215	0x3e1f9d73	0.15587406
216	0xbea7e211	-0.32789662
217	0xbeb376af	-0.35051486
218	0xbe13c92d	-0.14432211
219	0x3e405be4	0.18785053
220	0x3e82c2b6	0.25539178
221	0x3e659563	0.22420268
222	0x3d942f77	0.07235616
223	0x3d75f886	0.060051464
224	0x3e02e616	0.12783083
225	0xbe95462e	-0.29155105
226	0xbeb32199	-0.3498657
227	0xbe13ce74	-0.14434224
228	0xbe43721c	-0.19086498
229	0xbe6b76e0	-0.22994566
230	0xbec6f028	-0.388551
231	0x3d34b82b	0.04412095
232	0xbe8fd3f1	-0.28091386
233	0xbe535706	-0.20638666
234	0xbe9a339e	-0.30117506
235	0xbeb59ec7	-0.354727
236	0xbdfb0253	-0.12256303
237	0x3e07aa0f	0.13248466
238	0xbcb14276	-0.021638136
239	0xbde52565	-0.11188773
240	0x3e203e27	0.15648709
241	0x3e1ec3af	0.15504335
242	0xbd75d816	-0.06002053
243	0xbe979aad	-0.29610196
244	0xbdf2826a	-0.11841281
245	0xbebeef00	-0.37291718
246	0x3e2f720f	0.17133354
247	0x3e4211ee	0.18952152
248	0x3ddeb82b	0.10874971
249	0xbe249668	-0.16073
250	0xbd98d877	-0.074631624
251	0x3c5cc615	0.013474961
252	0xbd6f53ac	-0.058429405
253	0xbe6a6734	-0.22890931
254	0xbebb8883	-0.36627588
255	0xbe23f258	-0.16010416

u2.conv3.bias f4 [8]
0	0x3aea369d	0.0017869059
1	0x3c9cfe1e	0.019164141
2	0xbcdc118b	-0.026863834
3	0x3d121ebf	0.035673853
4	0xb9a70b3b	-0.0003186109
5	0xbbcc8ada	-0.0062421383
6	0xbbd7bf3a	-0.0065840753
7	0xbcc2505b	-0.023719957

u2.G.weight f4 [1, 8, 3, 3]
0	0x3e2f1059	0.1709608
1	0xbdc8d49d	-0.09806178
2	0x3da0ea5d	0.07857201
3	0x3e6d6e13	0.23186521
4	0xbe223b11	-0.15842845
5	0x3e09795d	0.13425203
6	0x3bd635d6	0.0065371795
7	0xbd224d6a	-0.03962461
8	0x3d794963	0.060861003
9	0x3d1d0a80	0.03834009
10	0x3e642fa3	0.22283797
11	0x3cfd245b	0.030901125
12	0x3e147745	0.14498623
13	0xbe18483d	-0.14871307
14	0x3e3e8d48	0.18608582
15	0xbe09471a	-0.1340603
16	0xbdf64fd4	-0.12026945
17	0x3dacc981	0.08436871
18	0x3e1a4d2d	0.15068503
19	0x3e7aaf2f	0.2448089
20	0xbe823bca	-0.2543624
21	0x3dfd5fee	0.12371813
22	0xbddf9cd5	-0.10918585
23	0xbe3a63ae	-0.18202087
24	0xbd14ccfc	-0.0363283
25	0x3d5c900f	0.053848322
26	0xbd5b8671	-0.05359501
27	0xbd105619	-0.03523836
28	0xbe16fd37	-0.14745031
29	0x3db85486	0.090004966
30	0x3d9e89cc	0.077411264
31	0xbdb61bae	-0.08891998
32	0x3e87866d	0.26469746
33	0x3e737816	0.23776278
34	0x3e027ab8	0.12742126
35	0xbd9fba36	-0.07799189
36	0xbd32ab77	-0.043620553
37	0xbccf113c	-0.025276773
38	0x3db1ac8a	0.08675487
39	0xbe4f7d9b	-0.20262758
40	0x3e78a3a7	0.24281178
41	0xbe04e198	-0.12976682
42	0xbe73c1d4	-0.23804408
43	0xbd84519d	-0.06460879
44	0xbdbeabda	-0.09310122
45	0x3e16dfc9	0.14733805
46	0x3e2cda2c	0.16880101
47	0x3bfca42d	0.007710001
48	0x3d74a1e2	0.059724696
49	0xbd29594e	-0.041344933
50	0xbdad697c	-0.08467385
51	0x3e639f67	0.22228776
52	0x3e6a5b17	0.2288631
53	0x3dd97b01	0.10619164
54	0x3e19c1a1	0.1501527
55	0xbe6b03ba	-0.2295064
56	0x3dad1295	0.0845081
57	0x3d1bad90	0.03800732
58	0xbe760511	-0.2402537
59	0x3de0430b	0.109502874
60	0xbe4796cc	-0.19491118
61	0x3e5a77fa	0.2133483
62	0x3d863a01	0.06554032
63	0x3e524b29	0.20536484
64	0x3bd79e89	0.006580178
65	0xbe1481c1	-0.14502622
66	0x3c20d770	0.009816989
67	0xbe3d154a	-0.18465152
68	0xbe648f0a	-0.2232019
69	0xbd2f033a	-0.042727686
70	0x3cf46357	0.029832525
71	0x3ce9293b	0.028462043
